experiments/training/4/checkpoints/epoch_200.pth (torch, 538788 bytes, 53 tensors)

lin_proj.weight f4 [64, 2]
000000 19 2c b1 3e db 9b 1a bf 94 43 c5 3e a6 e7 38 3e
       0.34603956 -0.60394067 0.3852812 0.18057117
000010 b7 4e 0b bf a5 ca d2 3e 78 e2 eb 3d ef 09 0d bf
       -0.54416984 0.4117023 0.11517805 -0.5509328
000020 1f 1d 91 3d cc c9 36 3e 7c 5d 25 3f 9e 06 26 bf
       0.070856325 0.17850417 0.6459577 -0.6485385
000030 c2 01 3d bf a8 e7 8f 3e ab aa 1d 3f 5e 3d ed be
       -0.7383081 0.28106427 0.61588544 -0.46335882
000040 8a 75 2e bf ac 26 2d bd 99 13 24 bf 0c 64 25 3c
       -0.681481 -0.04227321 -0.64092404 0.010094654
000050 3d 1d 06 3f 55 de b8 be a8 61 15 bf a3 d0 c8 be
       0.52388364 -0.36107126 -0.58352137 -0.39221677
000060 57 a5 8d be d6 1d 02 3f eb 41 d1 3e fd ae a6 be
       -0.27665207 0.50826776 0.40870604 -0.3255538
000070 2a 32 a3 be bd 80 eb 3e c5 1e ce 3e f6 c8 02 3f
       -0.3187421 0.45996657 0.4025785 0.5108789
000080 6e fc 8d 3e a1 2e b4 be 7c 51 51 be 3e 91 27 3f
       0.2773165 -0.35191825 -0.2044124 0.65455997
000090 7f 09 18 bf 1f db 00 3f a6 25 0b 3e 0a 5b 1a 3f
       -0.5938949 0.5033435 0.1358858 0.60295165
0000a0 7d 4a ca 3c 8f 94 e4 be 40 b3 0e bf a0 94 5e be
       0.024693722 -0.4464459 -0.55742264 -0.21736383
0000b0 0a a2 01 bf 9b e7 a7 be 09 80 ad be 18 f5 de bd
       -0.50637877 -0.32793888 -0.33886746 -0.10886592
0000c0 ec 05 d7 be 26 2b 67 be 91 a3 04 3e c9 60 9c bd
       -0.41996706 -0.22575054 0.1295302 -0.07635648
0000d0 cb 3d 3e 3d 5a 99 41 bc be fc 0d 3f 0e ce 90 3e
       0.04644565 -0.011816347 0.5546378 0.28282207
0000e0 4e 0e 1d bf eb 4d 21 3f 53 1d 7d 3e 5d ea f3 bd
       -0.6134995 0.6300952 0.24718218 -0.119099356
0000f0 bf ee 08 bf 95 62 20 bf da ff 69 3e 1f 99 e0 3e
       -0.534893 -0.62650424 0.22851506 0.43866822
000100 c9 89 75 3e 68 ed 17 bf 66 fe 20 be ca 04 df 3d
       0.23978342 -0.5934663 -0.15722045 0.10889585
000110 92 10 10 bf 07 44 05 3f 89 b5 b4 be 10 cb 9f be
       -0.56275284 0.52056926 -0.3529475 -0.31209612
000120 dc 52 a3 be 25 bf 0e bf ae fd 47 bf 5d 5e 22 3f
       -0.31899154 -0.55760413 -0.7812146 0.63425237
000130 59 a4 07 3f 5c 0a 33 3e 0d a1 14 3f 75 92 da bd
       0.5298515 0.1748442 0.58058244 -0.10672466
000140 ed 96 86 3e 28 d6 f4 3e fb bc dc 3d 36 fc 26 bf
       0.26287022 0.47819638 0.10778233 -0.65228593
000150 72 80 4f be f6 ed fb bd 10 31 03 be 4c 18 af be
       -0.20263842 -0.12301247 -0.12811685 -0.34198225
000160 bb 9c 0c bf 31 e1 e0 3e dc 54 8a be 2a 07 df 3e
       -0.5492665 0.43921807 -0.27017868 0.43560153
000170 b8 a6 a4 3e bc bc 13 bf 2e 63 2c 3f 76 06 80 be
       0.32158446 -0.5770986 0.67338836 -0.2500493
000180 c7 9a e9 3e a8 ff 7c be 93 8f 12 bf 5e eb 09 3f
       0.45625898 -0.247069 -0.57250327 0.53874767
000190 04 d2 29 3f e7 8b e9 be 9e 93 81 3e d5 60 da 3e
       0.66336083 -0.4561455 0.25307935 0.42652002
0001a0 c5 9b 57 3d 98 d8 a8 be 45 8f 75 be 69 8c cd 3e
       0.052638788 -0.32977748 -0.23980434 0.40146187
0001b0 91 72 32 3f de a2 23 3f 85 4e 54 bc a8 39 29 be
       0.69706064 0.6392039 -0.012958174 -0.165259
0001c0 07 d6 23 3f 06 06 bb 3d 04 56 67 3e 71 cc c7 3c
       0.63998455 0.09132008 0.22591406 0.024389477
0001d0 67 56 ee 3e c3 e8 8b be 6c eb 0d bf f1 7a 84 bd
       0.46550295 -0.2732602 -0.5543735 -0.06468762
0001e0 fd e3 13 3f e9 ad bc 3e 44 79 a7 be 0d 72 27 3f
       0.5776976 0.36851433 -0.32709706 0.654084
0001f0 85 91 83 bc df ae b9 be dd 98 de 3e bd 6f c4 3e
       -0.0160606 -0.3626623 0.43476 0.383665

lin_proj.bias f4 [64]
000000 49 b4 ea be a5 00 26 bf 13 a4 9f 3e 08 9c 2b 3f
       -0.45840672 -0.64844733 0.31179866 0.6703496
000010 11 b0 e1 3e 36 ab dd 3e 2b 2f ef 3e 96 c7 50 3e
       0.4407964 0.43294686 0.46715674 0.20388636
000020 46 ab 84 3e da 5b a7 3e 35 b3 2b bf da 8f ab bd
       0.2591192 0.32687265 -0.67070323 -0.08377047
000030 18 d4 db be 4e 58 d0 be 1b 7d 76 3e 1b 76 92 be
       -0.42935252 -0.4069237 0.24071161 -0.28605732
000040 b0 66 28 3f 19 5b 5b be 4d f4 14 3f 28 c7 5b bb
       0.6578169 -0.2142147 0.58185273 -0.0033535454
000050 d0 9a af 3d 58 fd 00 3f 0c e8 19 3e 75 fc 1c 3e
       0.0857445 0.5038657 0.15029925 0.1533068
000060 f3 0e a4 be 2a 2b 7c be 9e ce 48 3e 54 a5 26 bd
       -0.32042655 -0.24625841 0.19610068 -0.040685013
000070 9f 22 12 3f 89 5c 2b bf 55 56 25 3d 2b 7c 14 3f
       0.5708408 -0.6693807 0.040365536 0.58001965
000080 df 42 62 3e 59 16 ba bd c5 1e cf be 7e df 84 bd
       0.22095822 -0.09086294 -0.40453163 -0.0648794
000090 4d 27 3e bf 4a a4 d3 3e 0a ef 17 bf a9 af f9 3e
       -0.7427872 0.4133628 -0.5934912 0.4876683
0000a0 c7 9b 30 bf 62 5e 01 bf 6d 58 c1 3e e9 d5 25 3d
       -0.689877 -0.5053464 0.37762776 0.040487204
0000b0 c1 64 82 bc bd 6d 05 3f c2 54 74 be d7 15 27 3f
       -0.015917184 0.5212057 -0.23860458 0.652677
0000c0 24 75 85 3e 59 92 97 3e a6 23 09 3d a6 ce bb 3e
       0.26065934 0.29603842 0.033481263 0.36681098
0000d0 64 3a cf 3e 4d 3c 88 be 65 fe de 3e dc 15 ef 3e
       0.40474236 -0.26608506 0.43553463 0.46696365
0000e0 83 58 22 bf 9e ac 06 3f b7 49 f6 be 4b 89 71 be
       -0.6341631 0.5260714 -0.48103115 -0.2358753
0000f0 f5 e3 68 bd bf 3b 32 be f1 12 57 be a7 03 b7 be
       -0.05685802 -0.17405604 -0.2100332 -0.35744974

lin_proj_2.weight f4 [5, 64]
000000 b6 aa 70 3c 36 ec c3 3d 33 c9 88 bd 8e a5 1f 3c
       0.014689138 0.09566538 -0.06679001 0.009744061
000010 04 e7 53 3d 52 61 ee bd fb fb 3f bc 55 bd 8e bd
       0.051733986 -0.11639656 -0.011717792 -0.06969706
000020 cf b6 5d 3d 21 e4 72 3d 78 98 fe 3c 90 be 09 bd
       0.054129418 0.059299592 0.031078562 -0.033629
000030 f0 dd a4 bd 4d b5 41 bd 0e 94 43 bd f8 74 9f bd
       -0.08050144 -0.047292043 -0.047748618 -0.07785982
000040 ca e7 87 bd c8 61 bb 3c 1d 52 1d b9 92 08 bb bd
       -0.06636007 0.022873774 -0.00015003276 -0.09132494
000050 b5 ed 28 bd f1 3e 28 3d 0d d2 a2 3c 7b 5e 1d 3d
       -0.04124232 0.04107565 0.01987555 0.03842018
000060 f7 0c 8a bd 87 91 99 bc 3b e1 0d bd 3a 73 d0 bc
       -0.06740754 -0.01874615 -0.034638625 -0.02544557
000070 04 5f 0b 3d 22 93 00 be e9 e8 d4 3d 84 8f c8 3d
       0.03402616 -0.12556127 0.103959866 0.097929984
000080 ca 1d 12 3e 53 2b 8c 3d 03 2f b5 bb f5 61 76 3d
       0.14269176 0.06844201 -0.005529286 0.060152013
000090 10 b3 d6 bc e9 5d 6d 3d 17 2d a9 bd 3a 4c 6e bd
       -0.02620843 0.057950888 -0.08260553 -0.058178164
0000a0 a5 67 1b 3d 4d b0 28 3d 07 dd 10 3d b9 4b b9 bd
       0.03794064 0.04118376 0.035367038 -0.09047646
0000b0 af f9 fe 3c 6c d8 85 bd f7 f9 87 3d 71 3f 83 bc
       0.031124918 -0.0653542 0.06639474 -0.016021462
0000c0 65 88 73 3b 32 73 d2 3d 72 d9 43 3c 93 e0 96 3b
       0.0037160155 0.10275878 0.0119536985 0.004604408
0000d0 bf 34 f8 bc 21 20 12 3d 8b b4 47 3c 1c 78 36 3d
       -0.030298589 0.03567517 0.012189041 0.04454814
0000e0 26 24 a6 bd 9f 1c d0 3b a8 3d 15 bd 33 fa ad bd
       -0.081123635 0.006351068 -0.036435753 -0.08494987
0000f0 47 8c 16 bb de 11 78 bc 47 0b 97 3d d9 fc 8b bd
       -0.0022971795 -0.015140979 0.07375198 -0.06835336
000100 fe 57 8b 3d 09 cd 6e bb a2 61 3b bc 52 fb b1 3d
       0.068038926 -0.0036438128 -0.011436852 0.08690514
000110 8b cf 46 be c5 54 c9 3c b0 65 32 bc 91 98 ae 3c
       -0.19415109 0.024576554 -0.010888502 0.021312984
000120 e1 c8 f3 3c 1a 8d cb 3b 68 02 76 bd 7f 45 aa 3d
       0.029758872 0.006211889 -0.06006089 0.083140366
000130 50 8a 69 bd c0 aa 28 3e 75 49 1f 3d 14 6e 0e bd
       -0.05701667 0.16471386 0.038888413 -0.034772947
000140 49 3a 6f 3e 19 9e bd 3c c3 7a a8 38 96 b2 f5 bd
       0.23362078 0.023146676 8.0337304e-05 -0.11996953
000150 4c 73 20 bd d4 3e f6 3a fd 91 a2 3b d5 8a ff 3d
       -0.039172456 0.0018787035 0.004961251 0.12477652
000160 49 af 88 bd e4 25 4e 3e 3c e7 3d 3e 63 9e b9 3b
       -0.06674058 0.20131642 0.1854524 0.005664633
000170 b6 60 92 3d c2 c7 19 bc b5 bb 76 3c f8 c0 ea bd
       0.071473524 -0.009386005 0.015059401 -0.11462587
000180 29 14 0b 3d bf 59 c6 bd 02 93 6e bd 08 49 91 bd
       0.033954773 -0.096850865 -0.058245666 -0.07094008
000190 1e 41 00 be 3f 79 10 be 55 bf 12 3e af 78 10 be
       -0.1252484 -0.14108752 0.143308 -0.14108537
0001a0 b7 44 b5 3d 07 0a df 3d b0 e3 af 3d 1e 2d 52 3e
       0.08850997 0.108905844 0.0858835 0.20525023
0001b0 46 8f 7d bd 93 52 09 3e 2e 0c 6f 3e 6a 36 16 3c
       -0.061904214 0.13410406 0.2334449 0.009168247
0001c0 8f 7e ad bc 2b c1 47 be f4 11 4c 3e 83 b0 e3 bd
       -0.021178512 -0.19507281 0.19928724 -0.11117651
0001d0 0b f8 31 3e 02 0c a9 bd 89 7f 07 be 46 a9 0a 3d
       0.17379777 -0.082542434 -0.13232245 0.033852838
0001e0 68 da 8c 3d f7 ce 3c bc d5 46 13 be 22 23 a3 bd
       0.06877595 -0.011523954 -0.14382489 -0.079656854
0001f0 cc 9f 9c 3d 7b 0f db bd 0b d7 98 3b 76 23 0e be
       0.07647666 -0.10696312 0.004664307 -0.13880715
000200 7d 80 ef bc 68 9b 99 3d f8 60 6e bd 86 6a 7d 3c
       -0.029236073 0.075003445 -0.058197945 0.015467292
000210 97 30 90 3b 00 a8 42 be 2a 32 dc bd e2 e8 1f 3b
       0.0044003236 -0.190094 -0.107517555 0.0024400284
000220 f8 02 06 be de 44 86 bc 75 0e 8e bd c5 6c 14 be
       -0.1308707 -0.01639026 -0.06936351 -0.14494617
000230 e9 03 04 bd 37 a2 3e 3d 69 f6 75 bb e5 8f 59 bd
       -0.03223029 0.04654142 -0.0037530905 -0.053115744
000240 f5 ab e5 3c 54 50 37 bd df f3 ed bc 57 f7 91 3d
       0.028036097 -0.04475434 -0.02904695 0.071272545
000250 df 6e dd 3b fb d6 0f be 36 b4 9e 3d 2a e6 d5 3d
       0.0067576016 -0.14046852 0.07749216 0.10444291
000260 e9 e5 f4 3d 0f 52 b1 3d 50 ac 59 bc 63 13 85 bd
       0.119579144 0.086582296 -0.013285711 -0.06497838
000270 06 92 cd bd ab 6a 5f bd 00 4b 91 bd cc 89 3e 3b
       -0.100376174 -0.054545086 -0.07094383 0.0029073833
000280 40 e8 38 bd 50 2d fa 3d 6a c9 91 bd 28 4e b2 3d
       -0.045143366 0.12215674 -0.07118495 0.08706313
000290 70 22 94 bd c6 aa d2 bc 94 86 88 3b 0c d7 07 3e
       -0.07233131 -0.025716197 0.0041664336 0.13265628
0002a0 7d b9 64 bd 67 89 86 3d 66 f9 06 bd ab 33 87 bd
       -0.055840958 0.06569176 -0.03295269 -0.06601652
0002b0 26 9d f6 bd 0f f7 c4 bd 5a e9 9d bb 97 86 d0 bd
       -0.120416924 -0.09617435 -0.0048190774 -0.10181921
0002c0 e5 25 41 3c 2d a5 9b bd de ac 84 bc 62 ba fc bd
       0.01178882 -0.07599864 -0.01619571 -0.12340237
0002d0 cb 25 8f 3d 67 91 5e 3c 97 21 2b 3e 51 5b 78 bd
       0.0698963 0.013584471 0.16712032 -0.06063396
0002e0 74 72 a3 bd c4 8f 79 bd ee b9 f7 bd 5d 5e 0e be
       -0.079808146 -0.06092812 -0.1209601 -0.13903184
0002f0 3a 29 0a bc 5d 22 33 bd 39 13 b0 bd f0 41 4c 3d
       -0.008432681 -0.043733943 -0.085974164 0.04986757
000300 b5 01 28 bd a1 79 e8 bd 24 99 00 be b4 e7 82 bd
       -0.041017253 -0.11351324 -0.12558419 -0.0639185
000310 12 16 02 bd 34 4a 08 be f6 fc e8 bc 72 fc 81 3d
       -0.03175933 -0.13309556 -0.028440934 0.06346978
000320 f4 46 c1 bd 97 94 2e 3d 85 f2 a6 bd 92 f6 25 be
       -0.09437361 0.042622175 -0.08151726 -0.1620734
000330 6c 76 0f be 73 8a 96 bd 1a 4b 3d bd 5d 7b 74 3c
       -0.14010018 -0.07350626 -0.0462142 0.01492199
000340 c2 d3 8f 3d 13 b5 2f bc ed 2f a0 3d 0a d7 b3 3d
       0.070228115 -0.010724324 0.07821641 0.0878125
000350 87 ed 98 3d 3d b9 e1 bd 6f 96 58 bd 41 d2 36 bd
       0.0746718 -0.110216595 -0.05287784 -0.044634108
000360 22 78 96 bc ba 31 89 3c 90 d2 e6 3c 82 bf 9f 3d
       -0.01836783 0.016747344 0.028176576 0.07800199
000370 bc b4 9d bd 57 28 da bc aa 7a aa bc 5d 9c 91 3d
       -0.07700488 -0.026630564 -0.020810444 0.07109902
000380 12 36 ba bd 07 57 52 3d 49 fb ab 3d 61 a0 b5 3c
       -0.09092344 0.051352527 0.08397538 0.022171201
000390 52 e8 cd bd b2 a3 f0 3c 07 85 c2 3c 24 68 bc ba
       -0.10054077 0.029374931 0.023745073 -0.0014374298
0003a0 ed 49 10 3d 2d 18 ef bd 20 3e d6 bd ef 38 14 3c
       0.03522675 -0.11674533 -0.10461068 0.009046777
0003b0 0d b9 ff bd 18 9b 75 3d 66 4f b6 3c aa 72 a8 3d
       -0.124864675 0.059962362 0.022254657 0.082249954
0003c0 3e 53 94 3d 39 ee a9 3d 72 71 97 3d 5d 55 21 3c
       0.0724244 0.082973905 0.07394685 0.009847012
0003d0 2a b7 a8 3d c8 3e fa bd fc 66 c7 3b bd db ba 3d
       0.08238061 -0.12219006 0.0060852747 0.09123943
0003e0 73 5b 07 bd 9c 9c 0a be 95 19 41 3d 9e ab ca bd
       -0.033046197 -0.13536304 0.047143538 -0.09896015
0003f0 94 41 f1 3c 88 04 1f be 6b 35 f1 bd 38 a0 9f bc
       0.029450215 -0.15529072 -0.11777767 -0.019485578

lin_proj_2.bias f4 [5]
000000 4d f0 8b 3d 71 63 70 3d a9 6e e6 bc 8c 84 aa bc
       0.06832943 0.058688585 -0.028128939 -0.020815156
000010 89 68 aa 3d
       0.0832072

graph_attn_module.gat_conv.att_src f4 [1, 4, 100]
000000 ee f1 02 bd 63 3b 3c be 5c 70 d0 3b 52 03 85 3e
       -0.031969003 -0.18382029 0.0063610505 0.25979096
000010 9d 22 78 be a7 2f 4e 3e 3a e0 43 bc 0d 34 10 3e
       -0.24231954 0.20135365 -0.011955315 0.14082356
000020 ff 0d 92 be 31 83 47 be ff 6c 8e be 7d 69 91 be
       -0.28526303 -0.1948364 -0.27817532 -0.28400794
000030 fc 84 c0 3d a3 68 4f be 08 ee 5b be b6 2d 17 3e
       0.09400365 -0.2025476 -0.2147752 0.14763531
000040 e7 7f 38 be be 7c 8b bd 29 b3 92 be ac c6 14 3d
       -0.18017541 -0.06810902 -0.28652313 0.03632228
000050 b0 73 cc 3d 38 d0 40 bd 76 25 76 3d 11 2c 61 3e
       0.09983003 -0.047073573 0.06009432 0.21989466
000060 de d3 03 be ae 6a 10 3e 5c 07 69 be 3e 42 37 be
       -0.1287379 0.14103195 -0.22756714 -0.17896363
000070 67 03 9b 3e b6 19 84 bd fa 27 f3 3d 72 3e 3f 3e
       0.30276033 -0.064502165 0.11872859 0.18676165
000080 d8 c1 97 be b1 15 3d 3e 14 ad c3 bc b5 76 b7 3c
       -0.2964008 0.18465306 -0.023886241 0.022395471
000090 af 29 3a 3d 55 19 81 be 19 66 80 be 87 2d 4b be
       0.04544991 -0.2521464 -0.25077894 -0.19841586
0000a0 1d 9c 6e 3e c5 7b 1b 3e ac df 05 be 29 ef 0a 3e
       0.2330174 0.15183933 -0.13073605 0.13567795
0000b0 f7 83 eb 3c ee b7 ef bd 82 4d 7f 3d f7 71 8c 3d
       0.02874945 -0.11705004 0.062329777 0.068576746
0000c0 90 2a cb bd 72 41 0e bd 58 f9 29 bc dc 09 14 3e
       -0.099202275 -0.034730382 -0.01037439 0.14456886
0000d0 f8 6e 36 bc 4a e3 7e 3e 77 ab 09 be 93 b5 15 be
       -0.011134855 0.24891391 -0.13444315 -0.14620046
0000e0 27 4a ac 3d 5d 0f da bd 42 07 f0 bd 5f 68 4f be
       0.08412581 -0.106474616 -0.11720134 -0.20254658
0000f0 f1 ea ea bd b3 48 60 3e a3 36 d2 bd 1e 9b 6d be
       -0.11470593 0.21902733 -0.102643274 -0.23203704
000100 7b 18 fb 3d a0 5a ab 3d f5 7f 50 3e 1e 8d 7d 3d
       0.12260529 0.08366895 0.20361312 0.061902158
000110 00 e1 dd bd 8c 2e 45 3e 53 1c 29 be 2e e4 0f 3c
       -0.10833931 0.19256037 -0.16514711 0.00878243
000120 e1 61 b9 3d a8 15 f1 bd 92 69 b3 bc c2 af 3f 3e
       0.09051872 -0.11771709 -0.021900926 0.1871939
000130 4a 24 47 be 3e c6 b7 3d c2 db a2 3d 01 9a 4f be
       -0.19447437 0.089733586 0.07952072 -0.20273592
000140 82 4b 25 be 1c f3 ca bd df 2c 0d 3d 1e 33 35 3e
       -0.16142085 -0.09909651 0.03446662 0.17695281
000150 ab d0 0a 3d 29 22 df 3d 13 92 bb bd 68 c2 17 3e
       0.033890408 0.108951874 -0.09158721 0.14820254
000160 c6 a9 fd 3d 0b 8d 5c 3d 47 f1 a5 3d 7c 6f 40 3d
       0.12385897 0.053845447 0.081026606 0.04698132
000170 39 7b 72 be d2 0f 1b 3e 36 84 88 be 8a fe 37 3e
       -0.23679818 0.15142754 -0.2666337 0.17968193
000180 50 55 f7 3d 61 fe db bd f4 9a 8f bd d0 ac 4f be
       0.12076819 -0.10741878 -0.07011977 -0.20280766
000190 ad 8d 87 be 6c 7f 3c 3e 29 71 83 3c b6 87 2e bc
       -0.26475278 0.18407983 0.01604517 -0.010652473
0001a0 97 41 73 3e e3 5b 0c be a9 f9 07 be 28 d7 40 be
       0.2375549 -0.13706927 -0.13278832 -0.18832076
0001b0 3f ca c4 3d 8b 3b f8 bc ce ac 27 bd 73 9b 41 bd
       0.09608888 -0.03030183 -0.040936284 -0.04726739
0001c0 d1 1c 03 be ca 93 30 3e 74 ce 3c be 12 05 4d be
       -0.12803961 0.17243877 -0.1843813 -0.20021465
0001d0 e8 27 35 3e dd ee 8b 3e 1d e3 36 3d 49 e9 01 bc
       0.17691004 0.27330676 0.044650186 -0.007929155
0001e0 04 49 59 be e5 dd 87 3d 0f fd 1b be c5 cf a6 3d
       -0.2121926 0.0663412 -0.15233253 0.08145098
0001f0 b3 4f cc 3c 4b 02 d1 bc 87 b8 c4 bc bf d6 c5 3d
       0.024940347 -0.025513789 -0.02401377 0.096601
000200 cf 4f ab bd c2 af cb 3d 75 b7 9e bd b2 d3 c4 bd
       -0.08364832 0.099456325 -0.077498354 -0.0961069
000210 56 03 af bd 40 5e 3d bc 17 5d 14 be cc 55 9a 3d
       -0.08545558 -0.0115581155 -0.14488636 0.07535896
000220 b9 ca 20 3e 2b 06 24 3d d2 0e 0c bd df a3 72 be
       0.15702333 0.040044945 -0.03419382 -0.23695324
000230 16 af c0 bd 87 84 8a 3b 44 b0 2c 3e 50 2b 99 bc
       -0.09408395 0.0042272243 0.16864115 -0.01869741
000240 8e 35 95 3d bf ac 8b 3e 53 05 be 3d 20 3e a7 bd
       0.07285605 0.27280232 0.09278359 -0.08166146
000250 a7 7e 79 3d 15 d6 90 3e 12 d9 47 be 06 b7 5d 3d
       0.0609118 0.28288332 -0.195164 0.054129623
000260 80 8e 09 3e 1b c2 74 ba 00 eb 85 3c 62 52 34 3e
       0.13433266 -0.00093367853 0.016347408 0.17609552
000270 c7 fd 8f 3e 10 af 66 3d 7f 95 34 be a6 28 f8 3c
       0.28123304 0.056319296 -0.17635153 0.03029282
000280 55 a5 a6 bc 70 64 99 bd d0 32 3f be dc 59 42 be
       -0.020342508 -0.0748986 -0.18671727 -0.18979591
000290 7a d4 e4 bd e8 55 4e be ee 9a f3 bd 40 c4 24 3e
       -0.11173339 -0.20149958 -0.11894785 0.16090488
0002a0 6c 9f ef bd 9e 9b 0b 3e b6 06 2e be fa e5 41 3d
       -0.11700329 0.13633582 -0.16994748 0.047338463
0002b0 65 88 8c 3d 5c a8 54 be e9 7e ca bd b5 11 9e 3d
       0.06861953 -0.20767349 -0.098874874 0.07718221
0002c0 a9 fb 04 be b8 cf b4 bd 06 64 78 be 38 31 92 3e
       -0.12986626 -0.08828682 -0.24256906 0.28553176
0002d0 c7 ce 5b be 6a 73 07 bd e7 23 52 bd 1f d3 06 bd
       -0.21465598 -0.03306905 -0.05130377 -0.032916185
0002e0 8a 13 9a 3d 37 8a 19 be 6e fc 7a be aa 8c b8 3d
       0.07523258 -0.14994131 -0.24510357 0.090112045
0002f0 51 76 49 be 5d b6 a7 3d 67 6b 7d bd 17 9d 06 be
       -0.1967404 0.0818908 -0.061870005 -0.13145863
000300 cd be 61 bd 0a 32 18 be 81 54 85 be 82 1f 81 be
       -0.055113602 -0.14862838 -0.26041034 -0.2521935
000310 d9 d8 19 bb 01 34 ff 3d a2 40 db 3d 1c c1 18 be
       -0.0023475199 0.12461091 0.10705687 -0.14917415
000320 68 ec 0f 3e 3d fe 94 3c e9 63 4e be 58 ee 37 be
       0.14055026 0.018187637 -0.201553 -0.17962015
000330 5a 49 34 3e a4 6e c3 3b 4a 9c 8d 3d 4e 7d 35 be
       0.17606106 0.005964117 0.069145754 -0.17723581
000340 9b cc 00 bd 11 17 c1 bc 42 0b 0e be 1a e9 19 be
       -0.031445127 -0.02357057 -0.13871482 -0.15030327
000350 c2 66 68 be 05 ad 01 be c5 82 3b 3e f1 91 d0 bc
       -0.22695449 -0.12663658 0.18311603 -0.025460215
000360 e6 e8 88 bd 35 d6 d7 3d 8c f0 2e be 69 a4 48 3e
       -0.06685047 0.105389036 -0.17083949 0.19593967
000370 7f ab fc 3d 65 02 62 3d 25 f0 74 bc a8 67 c6 3d
       0.12337398 0.055178065 -0.014949833 0.096877396
000380 3a ba 31 3d be 48 6b be 35 1a 2e 3e c9 28 21 be
       0.04339049 -0.22976968 0.17002185 -0.15738215
000390 bb 3b 4f be 9c 84 0c 3e 21 f3 14 3e cb 02 f5 bd
       -0.20237629 0.13722461 0.14545871 -0.11963423
0003a0 e8 9d 38 be 54 f5 0b be 46 c0 42 be dc 0e 02 3e
       -0.18028986 -0.13667804 -0.19018659 0.12700981
0003b0 93 c2 20 ba 02 f0 6c bd 70 90 16 bd 09 5e 09 3e
       -0.00061325094 -0.057846077 -0.03675884 0.13414778
0003c0 de a7 b2 3c 51 cf f5 3d cb 93 31 3e b4 36 b2 bd
       0.021808561 0.12002433 0.17341535 -0.0870184
0003d0 a5 cf 0f be af bf 92 3c a4 4c 95 3b 2e 17 b8 3d
       -0.14044054 0.017913667 0.0045562554 0.08988796
0003e0 98 31 ea bd 58 c4 82 be 39 b4 28 be c7 4d 21 3d
       -0.114352405 -0.25540423 -0.16475 0.039380815
0003f0 4d b4 c5 3d 60 5d 9f bc 81 a7 2e be 87 ec 37 be
       0.0965353 -0.019453704 -0.17056085 -0.17961322

graph_attn_module.gat_conv.att_dst f4 [1, 4, 100]
000000 54 74 93 bd ed 03 2e be ab c8 6c bd ce 8b 29 3e
       -0.07199922 -0.16993685 -0.05780856 0.16557238
000010 02 c5 57 be d0 7f 6b be 82 bd a3 3d 53 31 72 3d
       -0.21071246 -0.22997975 0.0799513 0.05912907
000020 e7 f7 7f 3e 5e 74 df bd 31 1c 49 3e a3 f6 63 3e
       0.24996911 -0.10910867 0.1963966 0.22262053
000030 5d ab 91 3d 89 45 cd bd 85 bb 29 be ab ed 6a be
       0.07112763 -0.100230284 -0.1657544 -0.22942226
000040 8e 8d f8 3d 7c 39 87 be c3 dc 83 be 91 5e 4f be
       0.121363744 -0.26411045 -0.25754365 -0.20250918
000050 48 86 93 3d 48 26 a7 3e d5 8e 2b 3e 31 1b 3b 3e
       0.072033465 0.32646394 0.16753705 0.18272091
000060 dd 2c 8b 3e 2f ae 38 3e 0d 97 58 bd 30 31 6b be
       0.27182665 0.18035196 -0.05287843 -0.22967982
000070 ac 5c 40 be a0 3b 8d bd e7 b0 1e 3d 59 1b 52 3e
       -0.18785352 -0.06896138 0.038742926 0.20518245
000080 ab 43 69 be 7f 23 79 3e c9 cb 20 3e 27 40 84 3e
       -0.2277972 0.24329947 0.15702738 0.25830194
000090 29 5e 2d 3e 87 9f d6 3d d0 7c 05 3a d1 99 e0 3d
       0.1693045 0.10479646 0.0005092146 0.10966838
0000a0 67 2f b7 bb 94 ce 5a 3e 1f 73 6d 3e 99 56 b8 3d
       -0.0055903676 0.21367866 0.23188446 0.09000892
0000b0 3d 39 7f be dc d5 7f 3e 44 7c 85 3e 59 b3 1a be
       -0.24924178 0.24983925 0.2607137 -0.15107478
0000c0 4a 65 03 be f0 c8 63 bd 8d b7 32 3e 4c 76 2a 3e
       -0.12831607 -0.05561155 0.17452832 0.16646689
0000d0 e7 be 55 3e 2b 16 72 be 0e 4a 18 3d 0a 30 dc 3d
       0.20873605 -0.23641269 0.03718 0.1075135
0000e0 79 75 5b 3e b8 57 5f be 81 d9 13 be f4 09 05 3e
       0.21431531 -0.21810806 -0.1443844 0.12992078
0000f0 85 ad 0a 3e 42 3d f2 3d c7 cb 53 be 87 88 d1 bc
       0.13542755 0.1182809 -0.20683204 -0.025577797
000100 96 a5 1b be b0 47 90 bd cd 73 81 be 7a f3 e0 bc
       -0.15199885 -0.07044923 -0.2528366 -0.027459849
000110 45 cc 4c be ae 94 31 3e ac 04 c9 bd ad 00 0e 3e
       -0.19999798 0.17341873 -0.09815344 0.13867445
000120 f6 2a 44 3e 0b b6 c3 3d 00 59 dc 3d 8c b9 4f 3e
       0.19157013 0.09556206 0.10759163 0.20285624
000130 e2 41 3a be f1 6d 01 be 55 cc 9c be 5e 06 b6 bd
       -0.18189195 -0.12639596 -0.30624643 -0.08887933
000140 7e 2d a0 3e 2b 45 20 bd 7d 9c a2 3e 88 f6 97 3d
       0.31284708 -0.039128464 0.31760016 0.07420069
000150 3b d1 84 be 26 a4 71 be 6f a1 f7 3d 6e 4d a5 3d
       -0.2594088 -0.23597774 0.12091338 0.08071409
000160 c9 85 82 bd 8a a7 9a be 94 fb 3a 3e ae 74 f7 3d
       -0.06373174 -0.30205947 0.18260032 0.12082802
000170 a5 15 cc bd d0 c1 f8 bd 35 8c 89 3e 8e 7c da 3d
       -0.09965066 -0.12146342 0.26864782 0.10668288
000180 12 2b 3b 3e 5f fc e9 bc 94 44 8e 3c 11 08 c4 3d
       0.18278149 -0.028562723 0.017366685 0.09571851
000190 12 a0 d4 3c 5d 9e 37 be bc 2c a7 bc 71 7b 03 3e
       0.025955234 -0.17931505 -0.020407073 0.12840058
0001a0 e4 a9 37 bd 9d 93 97 3d 1a 80 7a 3e 75 a7 af bb
       -0.044839755 0.07401202 0.2446293 -0.0053605386
0001b0 c5 65 9c 3d 0a f8 99 3c 82 ed 29 be a6 8d 02 be
       0.076365985 0.018795032 -0.16594508 -0.12749347
0001c0 4a 02 11 3e f1 6e bd bd 18 35 4a 3e ec 9f ee bc
       0.1416103 -0.09249676 0.19746816 -0.029128991
0001d0 19 6b e9 3d 3c a3 3b be 50 c2 fe 3d 66 ee 5f 3d
       0.113973804 -0.18323988 0.12439406 0.054670714
0001e0 b8 92 71 3e 03 67 91 bd 30 1c b0 bd c7 ed 37 3e
       0.23591125 -0.07099726 -0.08599126 0.17961799
0001f0 cc 8c 16 be 64 44 5d 3e 4e 2b 76 3d 10 df e1 bc
       -0.14702147 0.2160812 0.060099892 -0.027572185
000200 09 e6 43 3e d5 ae 1c be 66 63 e2 3d 33 41 4b be
       0.1913072 -0.15301068 0.11054115 -0.1984909
000210 d9 51 22 bd e2 41 8b 3d 11 82 28 bd 00 69 03 3e
       -0.039628837 0.067996755 -0.041139666 0.12833023
000220 d1 e6 08 be 37 66 3c be b7 91 41 be 15 0b 0a 3e
       -0.133693 -0.18398367 -0.18903242 0.1348079
000230 9b e1 a7 3e d7 30 87 3d ca 1c 24 3e 1e 66 6f 3e
       0.3278931 0.06601112 0.16026607 0.23378798
000240 f1 a1 7d 3d 52 42 8f 3d 80 3e 77 be db d3 3d be
       0.061922017 0.069950715 -0.24144936 -0.18537848
000250 f4 6d 31 be 08 0f f0 3d 0e 8a 55 3e ee 97 21 be
       -0.173271 0.11721617 0.20853445 -0.15780613
000260 cb e9 29 3e 13 1e 97 be 54 de 57 be ee 40 e7 bd
       0.16593091 -0.29515132 -0.21080905 -0.11291681
000270 2a ad 7c be da 1b 37 3e e8 b1 87 be 57 4c 38 3e
       -0.24675432 0.17881718 -0.2650292 0.17997871
000280 4b 04 89 3e 40 73 98 bd 5f 19 aa 3e 7e 1c 67 3d
       0.26761088 -0.07443857 0.33222482 0.056423657
000290 c8 14 d8 3b ae f2 59 be 6f de 5d be 68 00 18 bd
       0.006594274 -0.21283981 -0.21666883 -0.037109762
0002a0 1c 42 37 be 8f 62 8e bb d9 a1 9f bd 5c d9 8b bd
       -0.17896312 -0.004345245 -0.07794542 -0.068285674
0002b0 cb 18 03 bd 1e cd e6 bd f2 b3 3b 3e 81 63 43 be
       -0.032006066 -0.11269592 0.18330362 -0.19080926
0002c0 08 44 3b be 26 df eb 3c 86 fa 47 3e 13 7b 48 be
       -0.1828767 0.028792929 0.19529161 -0.19578199
0002d0 2e e2 05 be 0a b6 88 bd 6a 59 6f 3e 12 e5 5c 3e
       -0.13074562 -0.06675346 0.23373953 0.21571758
0002e0 da 38 0c be d5 88 05 3e b3 21 0d be bd ce 20 be
       -0.13693562 0.13040479 -0.13782386 -0.15703864
0002f0 54 18 30 bc 67 6a 09 be 64 55 1a bd c8 fd 8b bb
       -0.010747988 -0.13419496 -0.03767909 -0.0042721964
000300 a7 4c 0e 3e 14 e7 74 be c4 50 3a bd e4 a5 20 3e
       0.13896428 -0.23916274 -0.04548718 0.15688282
000310 8e c4 13 be 00 81 21 be 54 af 43 3e 89 64 7f 3c
       -0.14430448 -0.15771866 0.19109851 0.015587934
000320 b2 36 14 3e ad 10 53 3e a0 f9 e3 bd 3a fd 6c be
       0.1447399 0.2061183 -0.111315966 -0.23143473
000330 2c ec 1a 3e a0 76 10 3d e6 00 e0 bc e8 0f 1c bd
       0.15129155 0.03526938 -0.027344178 -0.038101107
000340 ed e2 47 be c3 3e e4 3d 44 cd 30 be ba ae 1c 3d
       -0.19520159 0.11144783 -0.17265803 0.03825257
000350 a7 c4 13 3d 6b 9b 27 be 18 5f 2b 3e 1f d7 4c 3e
       0.036076214 -0.16367881 0.16735494 0.20003937
000360 06 00 0b bd a5 71 64 3d a1 c4 4e be 19 7a 7a 3e
       -0.03393557 0.055772442 -0.20192195 0.24460639
000370 56 1f 87 bd 17 70 de bd 9a b6 4a 3d 41 a3 75 3e
       -0.06597774 -0.10861223 0.04949055 0.23988058
000380 f0 7b f7 3d 8d f2 ff bd f3 8d e1 3d 4e 52 b2 bd
       0.12084186 -0.12497435 0.11013403 -0.087071046
000390 c1 e5 33 bd b9 ab 17 3e 96 39 02 3d f2 1d 04 be
       -0.043920282 0.148116 0.0317932 -0.12902048
0003a0 0b 6b 10 be 94 79 f7 bd 23 9e 67 3e 20 cb a2 3d
       -0.14103334 -0.12083736 0.22618918 0.07948899
0003b0 4c 67 c0 bd fa 4d 6f be 49 b3 50 be 83 1a 53 3e
       -0.09394702 -0.2336959 -0.20380892 0.20615582
0003c0 be 1c 85 bd d4 df 4b be 77 1e 47 be ee 41 f8 bc
       -0.06499623 -0.19909602 -0.19445215 -0.030304875
0003d0 f8 e7 ca bd 75 ec 68 3e 4d ad 79 be a7 73 a8 ba
       -0.09907526 0.22746451 -0.24382515 -0.001285185
0003e0 b3 df 18 be 38 b2 12 3e 89 35 54 bd 6b d5 86 be
       -0.14929084 0.14325798 -0.051808868 -0.263347
0003f0 d2 07 d7 bd a3 10 0d 3d 0e b4 c8 3d 65 6e 04 3e
       -0.104995385 0.034439694 0.09799968 0.12932737

graph_attn_module.gat_conv.bias f4 [100]
000000 78 35 3e 3d b7 39 30 3d ca 9a 98 3c 3a e7 60 3c
       0.04643771 0.04302379 0.018628497 0.013727004
000010 05 dc 88 3c 83 69 06 3d 84 7b 9d bd 19 51 55 bd
       0.016706476 0.032815468 -0.07689574 -0.052079294
000020 d5 33 39 ba 0b 40 cb bc 41 61 2e 3d ce 41 71 3d
       -0.00070649135 -0.024810812 0.042573217 0.058900647
000030 d7 0a fe 3b a3 ea d1 3a 87 e2 8a 3b fd 2e e4 bc
       0.007752757 0.0016015362 0.00423843 -0.027854437
000040 ce 44 94 bc 70 5a 8a bc 68 b0 f5 3b e8 3f 2e 3c
       -0.018099215 -0.016888827 0.007497836 0.010635354
000050 6d 8b 14 bc e8 bb cd bb f6 66 17 bc 98 ca b1 bb
       -0.009066445 -0.0062785037 -0.009240856 -0.0054257624
000060 93 68 40 3b 86 4b e5 bc 86 8e 83 bb fc a7 92 3c
       0.0029359206 -0.027990114 -0.004014793 0.017902367
000070 af 4c f7 3c d0 8a a1 3c d1 cb cd 3c fa 90 56 3c
       0.030187933 0.019719511 0.025121601 0.013096089
000080 29 97 79 bd 6f 9b be 3c 60 55 92 3c e2 f5 28 bc
       -0.060935173 0.023267476 0.017862976 -0.010312529
000090 37 92 f0 bc 83 b9 82 3c 59 64 dc 3c 28 69 95 3c
       -0.029366596 0.0159576 0.026903318 0.018238619
0000a0 21 24 f4 bc e5 e3 8c 3c 00 00 00 00 00 00 00 00
       -0.029802384 0.017198512 0.0 0.0
0000b0 00 00 00 00 00 00 00 00 00 00 00 00 00 00 00 00
       0.0 0.0 0.0 0.0
0000c0 00 00 00 00 00 00 00 00 00 00 00 00 00 00 00 00
       0.0 0.0 0.0 0.0
0000d0 00 00 00 00 00 00 00 00 00 00 00 00 00 00 00 00
       0.0 0.0 0.0 0.0
0000e0 00 00 00 00 00 00 00 00 00 00 00 00 00 00 00 00
       0.0 0.0 0.0 0.0
0000f0 00 00 00 00 00 00 00 00 00 00 00 00 00 00 00 00
       0.0 0.0 0.0 0.0
000100 00 00 00 00 00 00 00 00 00 00 00 00 00 00 00 00
       0.0 0.0 0.0 0.0
000110 00 00 00 00 00 00 00 00 00 00 00 00 00 00 00 00
       0.0 0.0 0.0 0.0
000120 00 00 00 00 00 00 00 00 00 00 00 00 00 00 00 00
       0.0 0.0 0.0 0.0
000130 00 00 00 00 00 00 00 00 00 00 00 00 00 00 00 00
       0.0 0.0 0.0 0.0
000140 00 00 00 00 00 00 00 00 00 00 00 00 00 00 00 00
       0.0 0.0 0.0 0.0
000150 00 00 00 00 00 00 00 00 00 00 00 00 00 00 00 00
       0.0 0.0 0.0 0.0
000160 00 00 00 00 00 00 00 00 00 00 00 00 00 00 00 00
       0.0 0.0 0.0 0.0
000170 00 00 00 00 00 00 00 00 00 00 00 00 00 00 00 00
       0.0 0.0 0.0 0.0
000180 00 00 00 00 00 00 00 00 00 00 00 00 00 00 00 00
       0.0 0.0 0.0 0.0

graph_attn_module.gat_conv.lin_src.weight f4 [400, 100]
000000 ab e6 66 3c 18 08 af 3d 58 86 0f 3c d0 c3 94 bd
       0.0140930815 0.08546466 0.008760057 -0.07263911
000010 6b fc 39 be 0f 7f 86 3d cb 92 c1 3d b6 c8 d9 3d
       -0.18162696 0.06567203 0.09451827 0.10633986
000020 4a 73 9d bd 36 fe d2 3c 89 b4 08 be 08 ac 9f bd
       -0.07688005 0.025755983 -0.13350119 -0.07796484
000030 ff 77 ee bd 7e c9 65 bd 3c 50 94 bd b8 b4 21 be
       -0.11643981 -0.05610036 -0.07241866 -0.15791595
000040 20 d9 9f 3d d1 07 d9 bd c9 a5 b6 bc 86 3c 2f 3d
       0.07805085 -0.10597194 -0.02229585 0.04278233
000050 50 51 f8 bd 97 77 6a 3d 90 54 52 3c 32 6d c6 3b
       -0.12124884 0.057242956 0.012837544 0.0060554976
000060 db 63 98 bc 16 d6 c5 3d 70 7c 37 bd 64 e2 ac bc
       -0.018602302 0.09659974 -0.044796407 -0.021104045
000070 a0 f9 ac bd 29 82 24 bd 67 74 c4 3d 0c 83 f0 3b
       -0.0844605 -0.040163193 0.095925145 0.0073398408
000080 67 ac c8 bd b6 c6 8b 3d 04 4d 88 bd 6d 4c 4e 3d
       -0.09798508 0.068250105 -0.066553146 0.050365854
000090 d3 55 d4 bd c1 85 c1 bc 72 f3 97 bc 8b c5 7f 3d
       -0.10367932 -0.02362335 -0.018548701 0.06244425
0000a0 fe d8 a5 bd b9 0f 5c bd b3 56 bc bc 83 e0 58 3d
       -0.080980286 -0.05372593 -0.02299056 0.052948486
0000b0 d2 eb a0 3d b7 53 5a 3d 43 1f d8 bc 3f 58 aa 3c
       0.07857479 0.053302493 -0.026382094 0.020794032
0000c0 6b 6d 08 bd 37 bd d1 bc b9 c9 94 3c f3 a6 87 bd
       -0.033307474 -0.02560292 0.018162595 -0.0662364
0000d0 4b 53 5a 3d 49 c3 8e 3d 6e f9 30 3d 74 c3 87 3d
       0.05330209 0.069708414 0.043206625 0.066290766
0000e0 de b5 94 3c 5e 93 2c 3d a5 38 a1 bc 5d 12 c3 3d
       0.018153127 0.042132728 -0.01968033 0.09524987
0000f0 d6 4e c9 bd 8c c9 d3 bd ab e6 9e bc 3f c5 7f 3d
       -0.0982949 -0.103411764 -0.0193971 0.062443968
000100 27 5a 21 3d 6c aa e9 3c d2 3c ad 3c 9e 62 62 bd
       0.039392617 0.028523646 0.021147165 -0.05526983
000110 ad 9c 90 3d e6 94 38 bd e3 e8 41 3d b7 67 07 bc
       0.070611335 -0.045063876 0.04734124 -0.008264474
000120 88 ff de bc 8b 76 0e 3d e2 a3 1b bd fb 71 69 bd
       -0.027221456 0.03478102 -0.037998088 -0.056993466
000130 17 ac 50 3d 87 88 4d bc 2a f7 65 3d 35 60 c3 3d
       0.050945368 -0.012544758 0.056143917 0.095398344
000140 9c bd 09 bd 52 ea 02 bc 90 98 d3 bd 0c af 41 3d
       -0.03362809 -0.007990437 -0.10331833 0.04728608
000150 41 50 67 3c 45 c6 84 bd ec 31 d4 3d 8c 2c 89 3d
       0.014118255 -0.064831294 0.10361084 0.0669795
000160 26 a3 dc bc 42 c8 a8 3d a3 cd af bd bc 49 35 3c
       -0.026933264 0.08241321 -0.08584144 0.011064943
000170 21 1d cf bd 5e 4e 99 bd f4 e6 11 3b bd 1f e4 bc
       -0.10112978 -0.074856505 0.0022262903 -0.027847165
000180 5c bb 1c 3c bb 39 01 bc a0 1c 91 bb 09 b5 b5 bc
       0.009566154 -0.007887299 -0.004428461 -0.02218105
000190 f9 40 0c 3e f3 21 36 3d f7 09 2a 3d 32 8a 8a 3c
       0.1369666 0.04446597 0.04151341 0.0169116
0001a0 3e 43 b6 bd 4a 73 d1 bd 84 3f 72 bc a3 3d 5b bd
       -0.08899544 -0.10227068 -0.014785651 -0.05352558
0001b0 34 f9 90 3d 90 88 c5 3b 53 e2 c4 bc 4b 99 89 3d
       0.07078782 0.0060282424 -0.024033701 0.067186914
0001c0 7e b3 05 3e 44 c8 28 bc c1 73 8e 3c da 24 b3 3d
       0.13056752 -0.010301653 0.01738918 0.08747263
0001d0 89 43 b5 bd 1f c4 8d bd 3c 5f 4b bc 3d 0e 77 bc
       -0.08850772 -0.06922173 -0.012412842 -0.015079078
0001e0 6e f4 3d 3d f4 ec d3 bc 3b 77 7f 3b 6b c5 ac bd
       0.046375684 -0.025869824 0.003898098 -0.08436092
0001f0 1e 22 90 bd 11 58 bc bc 57 46 b4 3c 22 10 b3 3d
       -0.07037757 -0.022991212 0.022006197 0.087433115
000200 ad df b2 bd 13 15 98 bc 19 34 8c 3d 03 ab f5 bd
       -0.08734069 -0.018564736 0.06845874 -0.119955085
000210 09 ca 48 bd a8 c5 82 bd 25 11 db 3d cf da ec bb
       -0.0490208 -0.06385356 0.106966294 -0.0072282325
000220 df d7 d2 bd e1 dd ea 3d 43 1a 8a 3d 7f f0 cb 3d
       -0.102950804 0.11468101 0.0674329 0.0995798
000230 66 2e bd bd 3f 6d 8c 3d 56 8d 7a 3d 97 68 cc bc
       -0.092373654 0.068567745 0.061169945 -0.024952216
000240 2f 18 95 3d 86 95 84 bd 45 0d 49 3c 74 9c 14 bd
       0.07280003 -0.06473832 0.01227123 -0.036282018
000250 5d 67 dc bc 60 f5 00 3c 4f 8d 61 bd 0b 3c ac bd
       -0.026904756 0.007871002 -0.055066403 -0.0840989
000260 7c 73 89 bd 4a 08 18 bc e1 bd c5 3d 84 5f a0 3d
       -0.0671148 -0.00927932 0.09655357 0.07830718
000270 65 12 da 3d 2e 55 c3 bd 6a f4 f2 3b 49 37 00 bd
       0.1064804 -0.09537731 0.0074143903 -0.031302724
000280 89 f4 74 3d cd de a4 3d b6 80 dc bd 96 19 14 bd
       0.05980352 0.080503084 -0.10766737 -0.036157213
000290 3a ed e6 3c 40 8d 16 3d 25 b7 26 3c d5 7d fc bc
       0.02818929 0.0367558 0.010175501 -0.03082172
0002a0 a4 1b b7 bd 5d 8d c6 3c dd ee 5b 3c 47 b9 e1 bb
       -0.08940819 0.02423733 0.013423649 -0.006888542
0002b0 d9 7a a0 bd 7f c4 be bd e5 65 56 bd 5b b0 6c bb
       -0.07835931 -0.093148224 -0.052343268 -0.0036115858
0002c0 fc fa b6 3d ac 0a 81 3d 86 d4 ba 3d 6c 8a 8c 3d
       0.0893459 0.063008636 0.09122567 0.068623394
0002d0 4d 02 c7 3c 13 35 c5 3d 11 61 a6 3d 53 49 bf bd
       0.02429309 0.09629264 0.08123983 -0.09340157
0002e0 9e 8a bc 3d b2 29 33 bd 6a e2 c4 bb 73 9d 63 bd
       0.09206127 -0.043740936 -0.006008436 -0.055570077
0002f0 5a 39 e5 3b 30 3f 6b 3c 97 b9 99 bd f2 66 ae 3c
       0.006995362 0.014358327 -0.075061016 0.021289323
000300 90 e0 5f bd 1e b1 a8 3d 6e d7 d5 bd 1c 41 ca bd
       -0.05465752 0.082369074 -0.104414806 -0.098757
000310 41 e1 a7 bd 35 fc f0 3c 66 4a 83 bd 2e bc 75 bc
       -0.08197261 0.029417137 -0.06410675 -0.014998479
000320 7d ba b1 3d 13 d2 83 3d 9c 05 57 bd 4e ed ec bd
       0.08678148 0.06436553 -0.052495584 -0.115687
000330 99 4e 20 be 8c d0 8b bd b3 0a ff 3d 4f 48 66 bd
       -0.15654983 -0.068268865 0.124532126 -0.056221303
000340 1f 23 4b bd 1c 2d 1c 3e 54 90 07 3e 41 76 e8 3d
       -0.04959404 0.15251583 0.1323865 0.1135068
000350 82 42 07 3e 2e a8 3f 3c 60 62 bc bc 8c a6 10 3e
       0.13208964 0.011697812 -0.022996128 0.14126033
000360 cf a9 b6 3d 49 f6 80 bd 5e 4b c8 3d 37 9b a2 3d
       0.08919107 -0.06296975 0.0978 0.07939761
000370 a3 99 81 bd af a5 8d 3d 2e 05 dd 3b 75 d6 2c bc
       -0.06328132 0.06916367 0.006745002 -0.010549177
000380 c6 73 ad bc 80 9d a3 bb a5 1f 3b bd 52 29 98 bb
       -0.02117337 -0.0049931407 -0.045684475 -0.0046435976
000390 ff 40 9e 3d 50 4a 07 3e 99 33 c9 3c 90 d4 05 bd
       0.07727241 0.13211942 0.024560736 -0.03267342
0003a0 60 24 b5 3c 7d 49 72 bd 7f 7c 83 3c 16 dd 3e 3d
       0.022112072 -0.059152115 0.016050575 0.046597563
0003b0 ca 8f 60 bd e2 61 33 bc ab 26 06 bd 31 77 5b 3d
       -0.054824628 -0.01094863 -0.03275172 0.053580467
0003c0 7e 4c 0e be 68 c6 af bd a2 0b 70 bd e4 ac a7 bd
       -0.13896367 -0.08582765 -0.058604844 -0.08187273
0003d0 7f ff de bd b5 25 12 3d 76 62 9a bd ec 0e b7 3d
       -0.10888576 0.03568049 -0.07538311 0.08938393
0003e0 83 37 4e bd 35 5a 4b bd 16 96 1c bd 44 ce 95 bd
       -0.05034591 -0.049646575 -0.03822907 -0.07314733
0003f0 b3 ec d6 bb 4e 78 c6 3c b1 ab 14 bd 07 c2 7f 3d
       -0.0065589785 0.024227288 -0.03629655 0.0624409

graph_attn_module.gat_conv.lin_dst.weight f4 [400, 100]
000000 ab e6 66 3c 18 08 af 3d 58 86 0f 3c d0 c3 94 bd
       0.0140930815 0.08546466 0.008760057 -0.07263911
000010 6b fc 39 be 0f 7f 86 3d cb 92 c1 3d b6 c8 d9 3d
       -0.18162696 0.06567203 0.09451827 0.10633986
000020 4a 73 9d bd 36 fe d2 3c 89 b4 08 be 08 ac 9f bd
       -0.07688005 0.025755983 -0.13350119 -0.07796484
000030 ff 77 ee bd 7e c9 65 bd 3c 50 94 bd b8 b4 21 be
       -0.11643981 -0.05610036 -0.07241866 -0.15791595
000040 20 d9 9f 3d d1 07 d9 bd c9 a5 b6 bc 86 3c 2f 3d
       0.07805085 -0.10597194 -0.02229585 0.04278233
000050 50 51 f8 bd 97 77 6a 3d 90 54 52 3c 32 6d c6 3b
       -0.12124884 0.057242956 0.012837544 0.0060554976
000060 db 63 98 bc 16 d6 c5 3d 70 7c 37 bd 64 e2 ac bc
       -0.018602302 0.09659974 -0.044796407 -0.021104045
000070 a0 f9 ac bd 29 82 24 bd 67 74 c4 3d 0c 83 f0 3b
       -0.0844605 -0.040163193 0.095925145 0.0073398408
000080 67 ac c8 bd b6 c6 8b 3d 04 4d 88 bd 6d 4c 4e 3d
       -0.09798508 0.068250105 -0.066553146 0.050365854
000090 d3 55 d4 bd c1 85 c1 bc 72 f3 97 bc 8b c5 7f 3d
       -0.10367932 -0.02362335 -0.018548701 0.06244425
0000a0 fe d8 a5 bd b9 0f 5c bd b3 56 bc bc 83 e0 58 3d
       -0.080980286 -0.05372593 -0.02299056 0.052948486
0000b0 d2 eb a0 3d b7 53 5a 3d 43 1f d8 bc 3f 58 aa 3c
       0.07857479 0.053302493 -0.026382094 0.020794032
0000c0 6b 6d 08 bd 37 bd d1 bc b9 c9 94 3c f3 a6 87 bd
       -0.033307474 -0.02560292 0.018162595 -0.0662364
0000d0 4b 53 5a 3d 49 c3 8e 3d 6e f9 30 3d 74 c3 87 3d
       0.05330209 0.069708414 0.043206625 0.066290766
0000e0 de b5 94 3c 5e 93 2c 3d a5 38 a1 bc 5d 12 c3 3d
       0.018153127 0.042132728 -0.01968033 0.09524987
0000f0 d6 4e c9 bd 8c c9 d3 bd ab e6 9e bc 3f c5 7f 3d
       -0.0982949 -0.103411764 -0.0193971 0.062443968
000100 27 5a 21 3d 6c aa e9 3c d2 3c ad 3c 9e 62 62 bd
       0.039392617 0.028523646 0.021147165 -0.05526983
000110 ad 9c 90 3d e6 94 38 bd e3 e8 41 3d b7 67 07 bc
       0.070611335 -0.045063876 0.04734124 -0.008264474
000120 88 ff de bc 8b 76 0e 3d e2 a3 1b bd fb 71 69 bd
       -0.027221456 0.03478102 -0.037998088 -0.056993466
000130 17 ac 50 3d 87 88 4d bc 2a f7 65 3d 35 60 c3 3d
       0.050945368 -0.012544758 0.056143917 0.095398344
000140 9c bd 09 bd 52 ea 02 bc 90 98 d3 bd 0c af 41 3d
       -0.03362809 -0.007990437 -0.10331833 0.04728608
000150 41 50 67 3c 45 c6 84 bd ec 31 d4 3d 8c 2c 89 3d
       0.014118255 -0.064831294 0.10361084 0.0669795
000160 26 a3 dc bc 42 c8 a8 3d a3 cd af bd bc 49 35 3c
       -0.026933264 0.08241321 -0.08584144 0.011064943
000170 21 1d cf bd 5e 4e 99 bd f4 e6 11 3b bd 1f e4 bc
       -0.10112978 -0.074856505 0.0022262903 -0.027847165
000180 5c bb 1c 3c bb 39 01 bc a0 1c 91 bb 09 b5 b5 bc
       0.009566154 -0.007887299 -0.004428461 -0.02218105
000190 f9 40 0c 3e f3 21 36 3d f7 09 2a 3d 32 8a 8a 3c
       0.1369666 0.04446597 0.04151341 0.0169116
0001a0 3e 43 b6 bd 4a 73 d1 bd 84 3f 72 bc a3 3d 5b bd
       -0.08899544 -0.10227068 -0.014785651 -0.05352558
0001b0 34 f9 90 3d 90 88 c5 3b 53 e2 c4 bc 4b 99 89 3d
       0.07078782 0.0060282424 -0.024033701 0.067186914
0001c0 7e b3 05 3e 44 c8 28 bc c1 73 8e 3c da 24 b3 3d
       0.13056752 -0.010301653 0.01738918 0.08747263
0001d0 89 43 b5 bd 1f c4 8d bd 3c 5f 4b bc 3d 0e 77 bc
       -0.08850772 -0.06922173 -0.012412842 -0.015079078
0001e0 6e f4 3d 3d f4 ec d3 bc 3b 77 7f 3b 6b c5 ac bd
       0.046375684 -0.025869824 0.003898098 -0.08436092
0001f0 1e 22 90 bd 11 58 bc bc 57 46 b4 3c 22 10 b3 3d
       -0.07037757 -0.022991212 0.022006197 0.087433115
000200 ad df b2 bd 13 15 98 bc 19 34 8c 3d 03 ab f5 bd
       -0.08734069 -0.018564736 0.06845874 -0.119955085
000210 09 ca 48 bd a8 c5 82 bd 25 11 db 3d cf da ec bb
       -0.0490208 -0.06385356 0.106966294 -0.0072282325
000220 df d7 d2 bd e1 dd ea 3d 43 1a 8a 3d 7f f0 cb 3d
       -0.102950804 0.11468101 0.0674329 0.0995798
000230 66 2e bd bd 3f 6d 8c 3d 56 8d 7a 3d 97 68 cc bc
       -0.092373654 0.068567745 0.061169945 -0.024952216
000240 2f 18 95 3d 86 95 84 bd 45 0d 49 3c 74 9c 14 bd
       0.07280003 -0.06473832 0.01227123 -0.036282018
000250 5d 67 dc bc 60 f5 00 3c 4f 8d 61 bd 0b 3c ac bd
       -0.026904756 0.007871002 -0.055066403 -0.0840989
000260 7c 73 89 bd 4a 08 18 bc e1 bd c5 3d 84 5f a0 3d
       -0.0671148 -0.00927932 0.09655357 0.07830718
000270 65 12 da 3d 2e 55 c3 bd 6a f4 f2 3b 49 37 00 bd
       0.1064804 -0.09537731 0.0074143903 -0.031302724
000280 89 f4 74 3d cd de a4 3d b6 80 dc bd 96 19 14 bd
       0.05980352 0.080503084 -0.10766737 -0.036157213
000290 3a ed e6 3c 40 8d 16 3d 25 b7 26 3c d5 7d fc bc
       0.02818929 0.0367558 0.010175501 -0.03082172
0002a0 a4 1b b7 bd 5d 8d c6 3c dd ee 5b 3c 47 b9 e1 bb
       -0.08940819 0.02423733 0.013423649 -0.006888542
0002b0 d9 7a a0 bd 7f c4 be bd e5 65 56 bd 5b b0 6c bb
       -0.07835931 -0.093148224 -0.052343268 -0.0036115858
0002c0 fc fa b6 3d ac 0a 81 3d 86 d4 ba 3d 6c 8a 8c 3d
       0.0893459 0.063008636 0.09122567 0.068623394
0002d0 4d 02 c7 3c 13 35 c5 3d 11 61 a6 3d 53 49 bf bd
       0.02429309 0.09629264 0.08123983 -0.09340157
0002e0 9e 8a bc 3d b2 29 33 bd 6a e2 c4 bb 73 9d 63 bd
       0.09206127 -0.043740936 -0.006008436 -0.055570077
0002f0 5a 39 e5 3b 30 3f 6b 3c 97 b9 99 bd f2 66 ae 3c
       0.006995362 0.014358327 -0.075061016 0.021289323
000300 90 e0 5f bd 1e b1 a8 3d 6e d7 d5 bd 1c 41 ca bd
       -0.05465752 0.082369074 -0.104414806 -0.098757
000310 41 e1 a7 bd 35 fc f0 3c 66 4a 83 bd 2e bc 75 bc
       -0.08197261 0.029417137 -0.06410675 -0.014998479
000320 7d ba b1 3d 13 d2 83 3d 9c 05 57 bd 4e ed ec bd
       0.08678148 0.06436553 -0.052495584 -0.115687
000330 99 4e 20 be 8c d0 8b bd b3 0a ff 3d 4f 48 66 bd
       -0.15654983 -0.068268865 0.124532126 -0.056221303
000340 1f 23 4b bd 1c 2d 1c 3e 54 90 07 3e 41 76 e8 3d
       -0.04959404 0.15251583 0.1323865 0.1135068
000350 82 42 07 3e 2e a8 3f 3c 60 62 bc bc 8c a6 10 3e
       0.13208964 0.011697812 -0.022996128 0.14126033
000360 cf a9 b6 3d 49 f6 80 bd 5e 4b c8 3d 37 9b a2 3d
       0.08919107 -0.06296975 0.0978 0.07939761
000370 a3 99 81 bd af a5 8d 3d 2e 05 dd 3b 75 d6 2c bc
       -0.06328132 0.06916367 0.006745002 -0.010549177
000380 c6 73 ad bc 80 9d a3 bb a5 1f 3b bd 52 29 98 bb
       -0.02117337 -0.0049931407 -0.045684475 -0.0046435976
000390 ff 40 9e 3d 50 4a 07 3e 99 33 c9 3c 90 d4 05 bd
       0.07727241 0.13211942 0.024560736 -0.03267342
0003a0 60 24 b5 3c 7d 49 72 bd 7f 7c 83 3c 16 dd 3e 3d
       0.022112072 -0.059152115 0.016050575 0.046597563
0003b0 ca 8f 60 bd e2 61 33 bc ab 26 06 bd 31 77 5b 3d
       -0.054824628 -0.01094863 -0.03275172 0.053580467
0003c0 7e 4c 0e be 68 c6 af bd a2 0b 70 bd e4 ac a7 bd
       -0.13896367 -0.08582765 -0.058604844 -0.08187273
0003d0 7f ff de bd b5 25 12 3d 76 62 9a bd ec 0e b7 3d
       -0.10888576 0.03568049 -0.07538311 0.08938393
0003e0 83 37 4e bd 35 5a 4b bd 16 96 1c bd 44 ce 95 bd
       -0.05034591 -0.049646575 -0.03822907 -0.07314733
0003f0 b3 ec d6 bb 4e 78 c6 3c b1 ab 14 bd 07 c2 7f 3d
       -0.0065589785 0.024227288 -0.03629655 0.0624409

attention_module.W.weight f4 [64, 512]
000000 27 95 5a 3c d2 f7 95 bd c4 f6 9e bc cf 65 d6 bc
       0.013341225 -0.073226586 -0.019404776 -0.026171593
000010 4b 4f 5c 3c 09 45 a7 3a bb 7a 03 3d 7a 66 1d bd
       0.013446639 0.0012761663 0.032099467 -0.038427807
000020 27 11 a2 bd 44 4f 54 3d 0a 1a e0 bd 84 95 7a bc
       -0.07913428 0.051833406 -0.109424666 -0.015294436
000030 5d 14 bf 37 31 dc 1c b9 58 dc df bc 96 a3 99 bc
       2.2778457e-05 -0.00014959347 -0.027326748 -0.018754762
000040 06 18 0f bd ee c3 03 3c e2 63 7e bd a2 9b 5c bd
       -0.03493502 0.008042319 -0.062106974 -0.05385936
000050 a3 b2 c4 bb eb 2f 96 3c c9 bc 09 3d 5d 06 7e bd
       -0.0060027405 0.018333396 0.033627305 -0.062017787
000060 52 6f 7f 3c 08 c8 85 3c 87 f8 7f bc 92 f7 3b 3b
       0.015590506 0.016330734 -0.015623218 0.00286815
000070 1a 1f 50 bc c7 5f 89 3c 01 fc 85 3c cb 64 7b 3c
       -0.012702728 0.016769303 0.016355516 0.015343855
000080 77 aa 44 3d 31 e3 85 3c 1f a2 28 bd 98 e0 64 3d
       0.04801413 0.016343685 -0.041170236 0.05587825
000090 b1 90 32 3d 6e 2f 03 3d 0d ee 2b 3d fa 27 3f 3c
       0.04359502 0.032027654 0.04197507 0.011667246
0000a0 e1 08 f9 bc 32 b7 92 bc 08 f5 28 3c 8c 03 2a 3d
       -0.030399742 -0.01790962 0.010312326 0.04150729
0000b0 f6 06 59 bd 2b cc af bc 6e 72 d4 bb 57 c5 ca bd
       -0.052985154 -0.02145966 -0.0064833676 -0.09900921
0000c0 38 1c 11 bd bc e9 78 bc 1c 35 c9 bc 62 79 7e bc
       -0.035427302 -0.015192445 -0.024561457 -0.01553187
0000d0 3f 64 ba bc 58 ab 0d bc 27 62 6f bc 49 6b 83 bd
       -0.02275288 -0.008646809 -0.014610804 -0.064169474
0000e0 7a 6c 9f 3c f2 47 00 bd b5 10 38 3d f4 4f 46 3d
       0.019460905 -0.031318612 0.044937808 0.048416093
0000f0 ca b8 fa 3b 1a 5d fc 3c 08 1f de 3a d1 58 59 3d
       0.007651423 0.030806113 0.0016946504 0.053063218
000100 8c 2b 1f 3d 4f a9 8e 3c 0d 3c 1b 3d d5 ad f8 3c
       0.03885989 0.017414717 0.037899066 0.030356327
000110 e2 68 c2 bb c5 12 64 bd d9 db ba 3b 2e 12 c3 bc
       -0.005932913 -0.055681963 0.0057024774 -0.02381238
000120 97 0e 9a bd 36 b3 5a bc 46 bf 98 bc 12 ff e5 bc
       -0.07522314 -0.013348391 -0.018645894 -0.028075729
000130 8a 41 5c 3d 9a 4a b2 3b a7 72 3b 3d eb 13 a0 bb
       0.05377344 0.005441022 0.045763638 -0.004885187
000140 b4 c9 39 bd 1b b7 1f bd 99 df 99 bd c1 7c 2f bd
       -0.045358375 -0.038992982 -0.07513351 -0.042843584
000150 c3 d6 a7 3c ce 0f 25 bd 63 d7 b4 3c 10 e9 8c bc
       0.020488149 -0.040298276 0.02207536 -0.017200977
000160 dc a4 55 bd 73 25 2b bd 55 4b 57 bd 76 0e 52 bc
       -0.052159175 -0.04178376 -0.052562077 -0.012820831
000170 8f a0 f6 bc e8 25 d3 bb 07 82 83 bc 48 aa 80 bd
       -0.030105857 -0.0064437278 -0.016053213 -0.062824786
000180 77 7d 0f bd f7 61 c1 bc 77 18 8b bd 06 8f f7 ba
       -0.035031762 -0.023606284 -0.06791776 -0.0018887229
000190 c9 d7 5b 3c bc 94 d9 3c 95 bf 03 3d e9 e9 24 bd
       0.013418146 0.02656018 0.03216513 -0.040262137
0001a0 0b ee 95 bb cf 42 38 bd f3 9f 13 bc a8 9e a8 3c
       -0.004575496 -0.04498559 -0.009010303 0.020583466
0001b0 1b 8c 32 bc 8f ef be 3b c1 72 36 3c df c8 79 bd
       -0.010897662 0.0058268975 0.011135758 -0.06098258
0001c0 dd c9 ae bc 7d a0 0a bd 8d 95 4e 3c b9 0b c5 bc
       -0.02133649 -0.03384446 0.012608898 -0.024053441
0001d0 53 ea 6c bb 2f c1 a3 3d 5c 37 06 3c cf 7a ae 3c
       -0.003615041 0.07995831 0.00819191 0.021298794
0001e0 c9 c5 53 bc 9e b7 ca bd 51 ae 1f bd 21 fc 42 3c
       -0.012925574 -0.098983034 -0.0389846 0.0119009325
0001f0 80 7e 3e 3b ee a0 89 3c fb a7 1e 3d c8 3b b6 3c
       0.00290671 0.01680037 0.038734417 0.022245303
000200 33 9f 5f 3c a0 58 de 3c 69 20 1f bd c3 e6 d2 bc
       0.013648796 0.027141869 -0.038849268 -0.025744801
000210 17 d5 5b bd 35 6a 18 bc 0a d9 0a bd 06 91 04 bd
       -0.053670015 -0.0093026655 -0.03389839 -0.032364868
000220 34 31 2e bd f6 ea 83 bb e3 86 f4 bc 47 f5 14 bd
       -0.042527393 -0.0040258123 -0.029849475 -0.036366727
000230 4d 34 44 bc 0c 9a dc bc 02 fb 20 3d d4 d4 77 bc
       -0.01197536 -0.026928924 0.03930188 -0.015126426
000240 07 e2 76 bc cf 50 d4 3b 85 66 ab bc 47 ab 43 bd
       -0.015068538 0.0064793597 -0.020922909 -0.047770765
000250 39 0e e4 bb 60 33 07 bd 38 ed cf 3c 30 95 3b 3b
       -0.0069597033 -0.03300798 0.02538167 0.0028622858
000260 f7 45 44 bc 73 52 15 3d 3d 31 d1 bc cd da 19 bc
       -0.011979572 0.036455583 -0.025536174 -0.009390545
000270 c3 72 6d bd 92 79 0f bd f2 36 9a 3c 16 70 52 bd
       -0.057970773 -0.035028048 0.018825028 -0.051376425
000280 1d 54 45 3c 1d 0f e2 bb 5b d8 8b bd a9 a3 67 bd
       0.01204398 -0.0068987743 -0.06828376 -0.056552563
000290 a1 a1 50 3c 0f 75 3a bc e7 c9 04 3d 5c 26 9d bd
       0.012733848 -0.011380448 0.03241911 -0.07673332
0002a0 e7 87 18 3d 1e 3a 14 bd cf 4a 92 3d 84 f6 73 3b
       0.03723898 -0.036188237 0.07143175 0.0037225792
0002b0 60 95 43 bd 85 a7 ea bc f0 b2 5e 3d 90 81 f2 bc
       -0.047749877 -0.028644333 0.054369867 -0.029602796
0002c0 91 5e 83 bb 29 a5 2b bd 93 c9 13 3d ca 54 79 3c
       -0.004009076 -0.041905556 0.036080908 0.015217969
0002d0 8f 1c 3f bd a2 3e b4 3c ca 7d 21 bd 74 c7 d7 3b
       -0.046658095 0.022002522 -0.039426602 0.006585056
0002e0 66 64 45 3c fc 3c 81 bd 29 75 68 bc cc b1 68 bd
       0.012047863 -0.0631046 -0.014188089 -0.056810185
0002f0 7a 15 5f bd ec 30 06 3c be 86 c9 3c 44 85 c0 bb
       -0.05446384 0.008190375 0.024600383 -0.0058752615
000300 b8 83 3f bc 40 b9 07 3d 1e c5 24 bc c5 76 8c 3b
       -0.011689119 0.033135653 -0.010056762 0.0042866194
000310 31 51 a1 bb 4b a5 03 bd 6d 37 7e 3c 36 77 a7 3c
       -0.004923009 -0.032140058 0.015516144 0.020442586
000320 12 d4 ca bc c6 f1 9d bb d4 44 4e bd 27 cb a2 bc
       -0.024759326 -0.0048200814 -0.05035861 -0.019872261
000330 a5 e8 ce 3b 2e 14 36 bd c0 61 e2 bb 6c cd 30 bd
       0.0063143545 -0.04445284 -0.0069086254 -0.043164656
000340 85 b6 6e bd 2d 69 99 bc 67 0b 59 bd 19 d8 71 3c
       -0.058279533 -0.01872691 -0.05298939 0.014760994
000350 7f 77 72 3c 33 51 4c bd c9 9f 13 3b 88 20 bc bc
       0.014798998 -0.049882125 0.002252566 -0.02296473
000360 6e 30 c0 bc c7 5d 15 3d 99 6e 90 bc d8 22 66 bd
       -0.023460593 0.036466386 -0.017630862 -0.056185573
000370 9b 1e 80 bd 2a de 9f bc bb 29 d0 3c 21 83 81 bd
       -0.062558375 -0.019515116 0.025410524 -0.06323839
000380 db 74 cc bc b5 9b 7f 3c 5a 6f d2 bc 81 f1 1b bd
       -0.024958065 0.015601088 -0.025687862 -0.038072113
000390 08 9b 32 3d 2c 7b bc bc b4 cf 2b 3c 1e a1 be bd
       0.04360488 -0.023007952 0.010486532 -0.093080744
0003a0 59 ef 0c 3d 49 80 4b bc fc f0 1f 3d a9 c3 4b bb
       0.034407947 -0.012420722 0.03904818 -0.0031091964
0003b0 55 08 54 bc 93 09 35 3c 82 a9 03 bc a2 d2 2d bb
       -0.01294144 0.011049646 -0.008036019 -0.0026523252
0003c0 53 c5 e2 3b df f5 e6 bc 22 f5 b9 bb 0c 6b b3 3c
       0.0069204955 -0.028193412 -0.005674974 0.02190163
0003d0 14 4f a1 bb 0e cb 46 bc b1 ff 7a bb ed a8 f8 3b
       -0.004922757 -0.012133373 -0.0038299377 0.007588497
0003e0 cf 98 1f bd 33 37 00 bc 5d d8 fb bc bf 61 c9 3b
       -0.03896409 -0.0078256605 -0.030742818 0.0061456854
0003f0 c4 eb 18 bd 50 f2 65 bb 22 aa 3b 3d 3d 4d 0c bd
       -0.03733422 -0.0035087056 0.04581655 -0.034253348
