experiments/training/3/checkpoints/epoch_200.pth (torch, 538788 bytes, 53 tensors)

lin_proj.weight f4 [64, 2]
000000 6a a3 0d 3f 13 a0 b4 3e 29 38 a6 be 39 bc f6 be
       0.55327475 0.35278377 -0.32464722 -0.48190477
000010 79 9b e2 be 5c 37 dd 3e 19 f6 6f be 6c 48 76 bd
       -0.4425924 0.43206298 -0.23433723 -0.06012766
000020 35 4d d0 3d 62 8f 10 bf 5c dd f4 3e ae 1d 8d be
       0.10170976 -0.56468785 0.47825134 -0.27561706
000030 91 c8 9a 3e 9c 5f 6c be 04 b2 18 3e 8d ce 06 bf
       0.30231145 -0.23083347 0.14911658 -0.5265892
000040 81 07 d4 bd 7f e7 94 3d c7 d5 5e be 4b b8 15 bf
       -0.10352994 0.07270717 -0.21761237 -0.58484334
000050 ac 30 3f 3e ed 42 7d 3e ac 1f bc be 4a 3a 2e 3a
       0.1867091 0.24732561 -0.36742914 0.0006646259
000060 11 62 c3 be 52 6c 01 bf 4b a4 39 3f 78 c0 ac bd
       -0.38160756 -0.5055591 0.72516316 -0.08435148
000070 8c 5b 16 3f 0d a2 52 3e 23 95 37 3e 1d c6 a0 be
       0.5873344 0.2056963 0.17927985 -0.31401148
000080 9d af b1 be 9c e8 8d 3e 6e f8 65 3c 98 2e 0c bf
       -0.34704295 0.2771653 0.014036281 -0.54758596
000090 e3 00 1c bf 47 03 49 3e 9e c7 1a bf 67 04 47 bb
       -0.60938853 0.19630156 -0.6046084 -0.0030367614
0000a0 10 39 31 3f 6c 9c 2b bf 76 c7 a5 3e b3 34 9d be
       0.69227695 -0.67035556 0.3237874 -0.3070427
0000b0 51 00 85 3e 96 c0 05 3f 7b 84 0f be 57 03 03 bf
       0.25976804 0.5224699 -0.14015381 -0.5117697
0000c0 d9 eb 20 3e 39 3c 12 bf c8 16 5a 3e d6 52 0e 3e
       0.15714969 -0.5712314 0.21297753 0.13898787
0000d0 d2 1d 20 bf 40 70 9b bc 46 89 fa bd 99 3a 2e bf
       -0.625455 -0.018974423 -0.12233214 -0.6805816
0000e0 24 63 08 3f 8d fc c0 3e ee 23 08 3f de 2e 2c bf
       0.53276277 0.3769268 0.53179824 -0.67259014
0000f0 78 a6 c3 3e fc 66 02 3f f8 05 dc be 34 6e 31 3f
       0.38212943 0.5093839 -0.42973304 0.6930878
000100 ed 51 bf be 42 d1 14 3d c0 88 bb be bf b6 0c 3d
       -0.37367192 0.036332376 -0.3662777 0.034353968
000110 96 fa 15 bf 1c 69 70 be b4 f1 f8 3e be ec 11 3f
       -0.5858549 -0.23477596 0.48621905 0.57001865
000120 31 ad 15 3f e9 ef dc be 2e cd 17 3f 5f 23 0a 3d
       0.58467394 -0.43151787 0.59297454 0.03372514
000130 b9 dd 25 3e 46 27 dd 3e 26 ee 3f bd 93 62 64 3e
       0.16197862 0.43194026 -0.046857975 0.22303228
000140 11 50 a4 be 6d 31 a4 be 3e dc 2c bf 61 b6 18 bf
       -0.32092336 -0.3206896 -0.6752356 -0.5965329
000150 a8 a0 a1 bd 23 f7 1a 3f 66 09 19 bf b2 ec b4 be
       -0.07891971 0.6053335 -0.59779966 -0.35336834
000160 d8 d2 0e 3f 01 c0 c3 3c d2 c4 24 bf 9e d0 03 bf
       0.5579047 0.023895266 -0.64362824 -0.514902
000170 a9 c2 b8 be 18 e1 9b 3e 19 95 88 be 29 8e 6c be
       -0.36086014 0.3044517 -0.26676252 -0.23101105
000180 af ca 8e bb 3d 53 f5 3e 6c 5e b5 3d 53 ac 89 3e
       -0.004357658 0.47915068 0.088559 0.26889285
000190 39 81 00 3f b5 89 f5 3e 54 be 13 3f 5c 75 b0 bc
       0.5019718 0.47956625 0.5771229 -0.021540336
0001a0 03 0b 11 3f d5 47 06 3e bb 41 1c 3f e0 83 22 bf
       0.5665743 0.13113339 0.61037797 -0.63482475
0001b0 65 35 0b 3f 6c 76 14 3e 99 17 7f be 09 1f de 3e
       0.5437835 0.144983 -0.24911346 0.43383053
0001c0 f0 7b 22 3f 29 43 20 3e 78 00 44 3d 9b 6b b8 3d
       0.63470364 0.1565062 0.04785201 0.09004899
0001d0 80 e2 ee 3e a4 a6 ee 3e 7a 40 f5 3e 4b 07 32 3f
       0.4665718 0.46611512 0.47900754 0.6954238
0001e0 b1 ff 0e bf 86 b8 24 3f d0 50 13 3f d4 aa e6 be
       -0.55858904 0.6434406 0.57545185 -0.45052207
0001f0 50 3d ff 3e 36 bf f6 3e 73 4d 87 be 1c f4 38 be
       0.49851465 0.48192757 -0.26426277 -0.1806187

lin_proj.bias f4 [64]
000000 00 6b d0 3d 3a 29 15 3f e4 e5 21 3f c2 57 a3 be
       0.10176659 0.5826603 0.6324141 -0.3190289
000010 47 23 0f 3f fb 4d 7c 3e 34 78 1f bf e6 ca a2 be
       0.55913204 0.24639122 -0.6229279 -0.31795424
000020 86 c4 4e 3e 78 f3 0a 3f 2d f3 0d be 9a f8 96 bd
       0.20192155 0.54277754 -0.13862295 -0.07371636
000030 17 1a 22 bf de b4 4d be a8 ab 2b 3f 2b eb 38 be
       -0.6332106 -0.20088527 0.670588 -0.1805846
000040 f0 2d e3 3e 2d 1c aa 3e ff f2 a2 bd f7 9d 7b bb
       0.44370985 0.3322462 -0.07956504 -0.0038393715
000050 32 63 be 3d 5b df fe be 01 86 9b be 1a e0 01 bf
       0.09296264 -0.49779782 -0.30375674 -0.50732577
000060 91 61 13 bf 1c ba b7 3b dd ef f8 be 41 51 17 3f
       -0.5757075 0.0056069028 -0.486205 0.5910836
000070 6e b8 bd 3e 6b 11 10 3f ca d6 08 3e 3e cc 1d 3f
       0.3705477 0.5627658 0.13363186 0.61639774
000080 f6 ae f2 bd 85 19 63 bc b4 a3 2d bf 89 f2 13 bf
       -0.118497774 -0.013861065 -0.67827916 -0.57791954
000090 fe 5f 6d 3e b9 d3 0b be 0c 83 ff 3e ef 50 1c bf
       0.2318115 -0.13654985 0.49904668 -0.61060995
0000a0 d9 57 ea be 3e 2c 96 3e e0 98 3a bf 70 3c 6c 3e
       -0.45770147 0.2933063 -0.7288952 0.2306993
0000b0 2f 0d 98 be 30 ca 9e be aa 9a 47 be 09 a7 2a 3f
       -0.29697558 -0.31013632 -0.19492593 0.66661125
0000c0 fa ad 4b 3e b4 ad 8e 3c c4 66 2d 3e 5a 51 0a bf
       0.19890586 0.017416812 0.16933733 -0.5403038
0000d0 f4 79 be be 28 31 fb 3e 54 75 ed 3e ec ca 1e 3f
       -0.37202418 0.4906094 0.46378577 0.62028384
0000e0 7e 7b eb 3c ac 02 0a 3f 42 eb e6 3e 23 86 c5 3e
       0.02874541 0.53910327 0.45101362 0.385789
0000f0 b5 9a c9 be 2e 4b ae 3e b9 73 18 3e a9 5e c5 3e
       -0.39375845 0.34041733 0.14887895 0.38548782

lin_proj_2.weight f4 [5, 64]
000000 47 3d 95 3c 84 a6 2b bd 61 e8 8f bd c8 e1 ad bc
       0.018217696 -0.04190685 -0.07026745 -0.021225825
000010 a9 8f b1 bb 81 29 99 bc 9d c7 5a bd 35 18 b6 3d
       -0.005418737 -0.018696548 -0.053413022 0.08891336
000020 8f 1e 19 bc 32 2a bb bc 52 58 e8 bc 09 ab 3a bd
       -0.009345665 -0.022847269 -0.028362427 -0.045573268
000030 22 c6 be bc 07 44 92 3c 21 c5 b2 3d f7 35 88 3d
       -0.023287836 0.017854704 0.087290056 0.06650918
000040 a6 3e 93 3d b9 f4 64 3d 48 44 cc 3d 1a 30 a3 bd
       0.071896836 0.05589745 0.09973961 -0.07968159
000050 49 5a 07 be 57 00 d1 3d e2 80 27 bd 91 39 69 bd
       -0.13218035 0.10205143 -0.040894397 -0.056939665
000060 51 98 c7 3d 72 a2 8d bd de aa cb 3d 22 ba 8a 3c
       0.09745849 -0.069157496 0.099447 0.016934458
000070 f3 f1 b5 bd d8 af 99 bd dd f6 2d 3d 24 2a a0 3d
       -0.08884039 -0.07504243 0.042471755 0.07820538
000080 4c 46 c1 3c c5 5b 15 3b 1c 11 e0 3d 69 50 07 3e
       0.02359309 0.0022790295 0.10940763 0.13214268
000090 14 bd 06 bd bf 0b 9e 3b 4c b7 94 bc 33 1f da 3c
       -0.032895163 0.0048231776 -0.018153809 0.026626205
0000a0 59 0e 40 3d cd d8 d3 3c f7 04 b3 bd 59 5e ca bc
       0.046888683 0.025860215 -0.08741181 -0.024703192
0000b0 1d 31 b8 bd 6d c2 05 3d e8 8e f9 3c 34 a5 cf 3d
       -0.089937426 0.032656122 0.03046365 0.10138932
0000c0 11 d4 5c 3d 4c 64 46 bd 49 eb 46 3d f1 c8 72 bd
       0.05391318 -0.048435494 0.04856423 -0.059273664
0000d0 a5 63 99 3d 46 16 ae bd b2 8b 2c bd c5 2a f2 3d
       0.07489709 -0.08500342 -0.04212541 0.11824564
0000e0 cc 76 78 bd 2c de be 3c e0 5d 88 bd 54 7d 04 be
       -0.06066017 0.0232993 -0.0665853 -0.12938434
0000f0 28 6f ef 3c 50 97 45 3b 9b 20 da bc 46 14 93 bd
       0.029227808 0.0030150004 -0.026626876 -0.07181601
000100 91 38 e2 ba 89 e8 fb bc 57 a9 18 3d 7f c5 c8 3d
       -0.001725929 -0.03075053 0.03727087 0.098032944
000110 09 5d 8b 3c 98 2f f2 bd 57 bd 80 3d 26 4f 8a bd
       0.017012136 -0.11825484 0.06286114 -0.067533776
000120 43 6d 01 be 1e 59 06 3d 60 e3 c8 3c da 03 29 3e
       -0.12639336 0.032799833 0.024522483 0.16505376
000130 c5 a2 71 bd 46 f8 d3 bd 3c 39 38 be 6c 6d 1e 3d
       -0.05899312 -0.10350089 -0.17990583 0.03867857
000140 35 b9 2a bd d0 f2 8c bd d8 13 ab 3d 9a 9f 16 3e
       -0.041680533 -0.0688225 0.08353394 0.1470932
000150 6b ed c9 3c e2 bd b9 3d 8b a6 0d 3e cd 0b 24 3c
       0.024649343 0.090694204 0.13833062 0.010012579
000160 d7 e8 8e 3c 37 e4 34 be e6 0c 86 3d bf 16 a0 bd
       0.017445011 -0.17665182 0.06545429 -0.078168385
000170 06 f8 27 be bc 48 88 bd 86 3f c3 3c 2d ad 00 3e
       -0.16403207 -0.06654498 0.023834001 0.12566061
000180 f1 f5 fc ba 12 56 5c 3d 0a 86 eb 3d 36 7c 9c bd
       -0.001929937 0.05379302 0.11500175 -0.07640879
000190 76 1b e0 3d 0d f4 27 be 7a 83 16 be 0f 21 a8 38
       0.10942738 -0.16401692 -0.14698592 8.017022e-05
0001a0 84 d8 09 3e 4d 82 8e 3c a1 07 ed bd dc 4a 68 bd
       0.134615 0.017396117 -0.11573721 -0.056712016
0001b0 d5 48 0e 3e e3 87 4c bc 9e 6a 69 3d b2 5b cd 3d
       0.1389497 -0.01248357 0.056986444 0.10027255
0001c0 af 05 f8 3d 2a 04 20 3e 61 92 9c 3d 09 7c fa 3d
       0.12110459 0.15626588 0.07645107 0.12230689
0001d0 c1 d7 d7 3d 38 0c 02 3e 39 27 01 be 7f ad 28 be
       0.10539199 0.12699974 -0.12612619 -0.16472434
0001e0 0e 48 c4 bd 70 7a 22 3d f2 b6 34 bd 86 fb b6 3d
       -0.09584056 0.039667547 -0.044119783 0.08934693
0001f0 10 33 55 3d 18 a0 10 bd 3a 5b fb 3b f4 39 22 3e
       0.05205065 -0.035308927 0.007670787 0.1584242
000200 17 d1 6d 3d 23 e3 9d 3d 97 c3 a4 3d f7 a8 da bc
       0.05806073 0.077093385 0.08045118 -0.026691897
000210 f1 71 b0 bd 20 0a 02 3d 95 ec 2b bd 67 e3 b6 3d
       -0.086154826 0.031747937 -0.04197367 0.08930092
000220 ea c7 ae bc eb ed eb 3d f2 50 94 3d 0f 9d 17 bd
       -0.02133556 0.115199886 0.072420016 -0.037015017
000230 4f 29 09 bd 87 60 8d bc cc 8d aa bd f0 f3 b0 ba
       -0.03348666 -0.017257942 -0.08327827 -0.0013500433
000240 27 76 6e bd 25 a4 65 3c c3 05 a5 bd 7d 1a 93 3d
       -0.058218148 0.014016186 -0.080577396 0.071827866
000250 0f 10 0f 3c eb 44 41 3c 7f f0 83 3d 92 10 bf 3d
       0.008731856 0.0117962165 0.06442355 0.093293324
000260 e1 bd b4 bd 55 f4 9e bd 46 ee f6 bd 7c 2f 78 bd
       -0.08825279 -0.077614464 -0.12057166 -0.06059216
000270 94 9b 95 bd f4 38 68 3c 33 2e 81 3d e5 f6 0f bd
       -0.07305065 0.014173735 0.0630764 -0.035147566
000280 09 73 55 bd 90 e7 f0 bd 14 92 ab bd cd 7d 1e 3d
       -0.05211166 -0.11762917 -0.083774716 0.03869419
000290 66 13 bd bc 8e 4e dd bd 1d c3 a1 bd f3 0d 23 3d
       -0.023080539 -0.10805999 -0.07898543 0.039808225
0002a0 8a d7 e9 3b 45 2f fb 3c a3 31 15 3d d6 04 e5 bd
       0.00713629 0.030662188 0.03642429 -0.11182563
0002b0 08 d5 fa bd d6 33 e9 3c ba ba bd bd f3 e3 e1 3c
       -0.12247664 0.0284671 -0.09264131 0.027574515
0002c0 9d e9 9a 3d 54 df 06 be b5 d3 90 3d 25 64 3d 3d
       0.075640894 -0.1317113 0.0707163 0.046238083
0002d0 64 46 87 bd 78 66 5c bc ce 3d d0 bd 8d 72 63 3d
       -0.06605223 -0.013452165 -0.10168038 0.055529166
0002e0 ce e0 de 3d e3 17 cd bc 58 33 d5 3c 73 76 c3 3d
       0.10882722 -0.025035804 0.02602546 0.09544077
0002f0 ec cf 5f 3d 08 9c 74 bd c6 81 92 bd 4a 55 62 3d
       0.05464165 -0.059719115 -0.071536586 0.05525712
000300 05 23 f4 bd 9f 39 0b 3b 2b 12 b2 3d cd 39 e0 3d
       -0.11920742 0.0021244062 0.086948715 0.109485246
000310 6d 39 df bd 4e d9 7f bd 04 d5 c4 3d 67 78 9e 3d
       -0.10899625 -0.062463097 0.09610942 0.07737809
000320 5a 11 25 3d 64 c3 ca bd 85 c5 db 3d dc ad ab bc
       0.04029975 -0.09900549 0.10731033 -0.020956926
000330 91 fd 19 3d d8 75 5d 3d 2a 38 50 bd 75 a0 66 3d
       0.037595335 0.054067463 -0.050834812 0.056305367
000340 3c 5c 33 bd 0d f6 16 bc 20 85 ce bd 9e ed 86 bd
       -0.043789133 -0.0092139365 -0.10083985 -0.06588291
000350 80 25 88 bc a9 d2 f3 3d ee 00 ca 3d 5d 90 01 bc
       -0.016619444 0.119054146 0.098634586 -0.007907954
000360 4b 5a 3e 3d f6 74 de bd de e4 34 3d 92 a7 ef bd
       0.04647283 -0.10862152 0.044163577 -0.117018834
000370 84 2b d4 bd 03 ed 6b 3d de 57 b4 bd ec d3 49 3c
       -0.103598624 0.05759908 -0.08805822 0.0123185925
000380 d7 6c fc 3d 01 5f 98 bd 52 85 22 bd ca 9c 5e 3d
       0.12325447 -0.074399956 -0.039677925 0.054348744
000390 6c ff 68 3d ec 15 0f bc 2e 79 b7 bb f7 94 a6 3d
       0.056884214 -0.008733254 -0.0055991625 0.081338815
0003a0 69 d5 98 bd fd 7d 7b bd 78 7f 05 be 6b 9f d5 3d
       -0.0746258 -0.06139945 -0.13036907 0.10430797
0003b0 13 ef c9 bd 7b 80 af 3d 18 cc a0 bb f9 2a d8 3d
       -0.09860053 0.085694276 -0.0049071424 0.105550714
0003c0 7f 0d 89 3c 56 ae 4f bb 8e 18 51 bd 71 03 21 bd
       0.016730068 -0.0031689606 -0.051048808 -0.039309923
0003d0 63 2c 82 3d 39 2d 64 bd 00 66 87 3d 07 b0 c9 3d
       0.06356122 -0.05570719 0.06611252 0.09848028
0003e0 88 23 8d 3d 52 4d 4c bd 61 91 fe 3c f0 1f f1 3d
       0.06891543 -0.049878426 0.031075181 0.1177367
0003f0 03 66 e9 3d b6 8a 2b 3d c7 e0 ac bd af 0e e7 bd
       0.1139641 0.041880332 -0.084413104 -0.112820975

lin_proj_2.bias f4 [5]
000000 f0 be d4 bc 0e 55 c7 3d 48 ec fa 3c 1a 2a 4e 3d
       -0.025969952 0.0973302 0.030630246 0.05033312
000010 ec 21 fa bd
       -0.12213501

graph_attn_module.gat_conv.att_src f4 [1, 4, 100]
000000 a1 37 2d be 2a d8 7d bd 6a d3 04 bc 1c 45 e7 bd
       -0.16915752 -0.06197373 -0.008107046 -0.112924784
000010 58 9d 8d 3e 0e 34 63 3e cf ba 64 3e b9 56 2c bd
       0.27659106 0.22187826 0.22336887 -0.042074893
000020 0a 77 4c be bb 97 aa 3d 54 dc a1 bc d0 33 e0 bd
       -0.19967285 0.083297215 -0.019758381 -0.109473825
000030 6a 4d 6f be fe 7e 27 bd 6d 56 f9 bd ef f0 2c be
       -0.23369375 -0.040892594 -0.121746875 -0.16888784
000040 f7 5c 45 3d 3d 93 84 be 1f c8 a7 3d 16 96 05 be
       0.04818436 -0.25893584 0.08192467 -0.13045534
000050 75 49 65 be 1a 5e 52 3e c9 78 b2 3b fd 01 21 be
       -0.22391303 0.2054371 0.0054465276 -0.15723415
000060 ca 46 3d bd 46 d7 00 be e5 4c 51 bd a8 5d 4c be
       -0.046210088 -0.1258212 -0.051098723 -0.19957602
000070 81 8f e3 bd ab f7 50 be b7 25 f1 bd fc 2d 19 bc
       -0.111113556 -0.20406978 -0.11774772 -0.009349342
000080 82 33 ea bd 75 10 5a be e9 dd 1b be f7 3c ed 3d
       -0.114356056 -0.2129534 -0.15221371 0.11583894
000090 87 db f2 bd 7e 90 b5 bd 57 97 80 be 7c b2 b2 3d
       -0.11858278 -0.0886545 -0.25115463 0.087254494
0000a0 cd 28 73 3e fd 9b 07 be fc 74 5b 3e 5c 27 5c be
       0.23746033 -0.13243099 0.21431345 -0.2149939
0000b0 08 9c a2 bd 9e 9a 24 3e 49 00 ea bd ce e7 66 39
       -0.07939917 0.16074607 -0.11425836 0.00022020863
0000c0 89 bb 63 3e 6d 72 17 be c2 cb 51 3d 69 ca f1 bd
       0.22239508 -0.14789744 0.05121971 -0.11806185
0000d0 f4 33 56 be 44 6b 40 3e 02 4e 0a 3e 8d 47 15 be
       -0.20918256 0.18790919 0.1350632 -0.14578076
0000e0 c6 07 c8 bd 7e 77 50 be b7 d8 86 bd 74 79 07 3e
       -0.09767108 -0.20358083 -0.06584304 0.13229924
0000f0 0b 4a 07 3e e0 d4 06 3e 8e 57 ff 3c 7d 4c 95 3d
       0.13211839 0.13167143 0.031169679 0.072899796
000100 0d d5 2e be 74 a0 1a be be ca 5e bd 40 54 31 3d
       -0.1707346 -0.1510027 -0.05439257 0.043293238
000110 77 d1 f7 bd 26 80 51 3e 66 c9 9a 3d 51 2c 76 3e
       -0.12100499 0.20459041 0.07557945 0.24040343
000120 16 57 ac 3d 2a 91 01 bd ff 3f c5 3d 2f b3 30 be
       0.08415048 -0.03163258 0.09631347 -0.17255853
000130 f2 61 61 3e 05 13 8d 3d ba 53 ff 3d bd 61 a7 3d
       0.2201002 0.06888393 0.124671414 0.08172939
000140 ff 25 9b 3d 2e a3 25 3e 58 5a b5 3d 3c 44 8d 3e
       0.075756066 0.1617553 0.08855122 0.2759112
000150 89 44 5d bd 65 62 c9 3d 38 cc 5b be 21 6c 39 be
       -0.05402044 0.098332204 -0.21464622 -0.18107654
000160 71 93 35 bb 03 02 7e 3e 8c 01 27 be b8 39 c0 bd
       -0.002770629 0.24805455 -0.16309184 -0.09386009
000170 80 28 19 3e 63 cf 21 be 5e fa 72 3d 7b 32 54 3e
       0.14956856 -0.15801768 0.0593208 0.20722382
000180 3f 37 4b 3d 0d b0 93 bd 6b 23 81 bc 2f 12 52 3e
       0.049613234 -0.072113134 -0.015763959 0.20514749
000190 71 38 53 be 56 3a e6 bc 4e 3a 37 bd c4 c4 21 3e
       -0.20627 -0.028103989 -0.044733338 0.15797716
0001a0 9e d8 00 be 7b f7 33 3e 63 2a 8f bd 5e 6e 97 be
       -0.12582633 0.17574875 -0.069905065 -0.2957639
0001b0 b4 36 69 3e 89 0c 9f 3d b0 53 79 bd df af 87 3e
       0.22774774 0.07766063 -0.060870826 0.26501366
0001c0 a2 22 8f 3d 9b 83 6d be 7a 51 7f be b4 f9 bf bd
       0.069890276 -0.23194735 -0.24933425 -0.09373799
0001d0 f5 c8 69 be 2d eb 4a be 37 aa 25 bd 75 94 fc bd
       -0.22830565 -0.19816275 -0.040445533 -0.123330034
0001e0 08 c4 4d bc 5e fc 8a bd 1e 1a 94 3d ec 06 7e be
       -0.0125589445 -0.067864165 0.07231544 -0.24807328
0001f0 88 31 c5 3d 9c 0c 81 bd 85 43 0f bd ea a8 99 bd
       0.09628588 -0.06301233 -0.0349765 -0.07502921
000200 a6 17 2f 3d 9c eb 64 be 10 19 51 be 07 06 54 bc
       0.042747162 -0.22355503 -0.20419717 -0.01294089
000210 0d 8f 5a be 07 0b 3c 3e 4a ac ac bb c1 da 0f be
       -0.21343632 0.18363582 -0.005269562 -0.14048292
000220 98 a9 cc 3d 0f 20 7c be 99 d5 36 3d 01 08 d6 bd
       0.09993285 -0.24621604 0.044637296 -0.104507454
000230 bd 69 b6 3b 42 16 19 be 48 3d 16 be af d3 9a be
       0.005566804 -0.14949897 -0.14671814 -0.30239627
000240 df bd 46 be 6a 15 50 bd 77 a1 07 3e 44 36 88 3d
       -0.19408368 -0.050801672 0.13245188 0.06650975
000250 b2 5d 26 3e a2 27 8b be 6b f3 27 be 7f 52 27 3e
       0.1624668 -0.27178675 -0.1640145 0.16340064
000260 0c b1 96 bc c1 cc 07 3e 2b 03 33 3c b2 ac 25 be
       -0.01839497 0.13261701 0.010926048 -0.1617916
000270 f1 44 09 3c f6 56 2c be a8 ab fa 3d 2e 6c 35 3e
       0.008378253 -0.16830048 0.12239772 0.17717049
000280 f6 d0 1c be f1 35 3b 3e ad e7 0b be 88 54 98 3d
       -0.15314087 0.18282296 -0.13662596 0.07437998
000290 80 7f 6b bd 2a 7b da bd dd 4d e7 bd f9 cb 3d bd
       -0.05749464 -0.10668023 -0.11294148 -0.0463371
0002a0 b4 c3 dc bd b0 4b 83 be 66 ab 53 be cf 62 4a be
       -0.10779515 -0.25643682 -0.20670852 -0.19764255
0002b0 fd 1e 1c 3d 14 a4 29 bd 54 46 05 bd 6d 8f 80 3e
       0.03811549 -0.041416243 -0.032537773 0.25109425
0002c0 b0 a6 23 3e 1b d3 3a 3e 0a 47 80 3e cf 24 6b be
       0.15981555 0.18244593 0.25054199 -0.2296326
0002d0 e7 2d c3 3b 3d 6a b9 3a 0c 0c 43 3e 28 0a 5f 3d
       0.0059563997 0.0014146041 0.19047564 0.054453045
0002e0 c5 b2 80 bc 94 de b7 bd 52 9f c1 bd 4d d9 6b 3e
       -0.015710244 -0.08978 -0.09454216 0.23032112
0002f0 3c 41 74 3d 88 59 1e be 5f 37 32 3e 8b 95 cc 3d
       0.059632525 -0.15463841 0.17403935 0.099894606
000300 f0 bb 1b 3e 33 23 77 3e c8 d2 57 bd e2 f9 a5 bd
       0.15208411 0.24134521 -0.05269125 -0.08104302
000310 0c 62 59 bd 5f 08 0b be c5 3b 46 3d 6a aa 5c 3e
       -0.05307202 -0.13577412 0.048396844 0.21549383
000320 f6 11 09 be 25 ad 04 3e 66 c9 32 3e 9b 99 8b 3c
       -0.13385758 0.12956674 0.1745964 0.017041018
000330 1f 7d 40 bd d9 4e 33 3e 95 c9 56 3e 53 77 3d 3e
       -0.046994325 0.17510547 0.20975335 0.1850255
000340 4f 84 47 be 65 b3 5e 3e 20 bb 4f 3e 75 8a 4d bc
       -0.19484065 0.21748121 0.20286226 -0.012545218
000350 83 5a b8 bd c7 4d 83 bd aa 03 75 be 0c 1b 60 bd
       -0.09001639 -0.06411319 -0.23927179 -0.054713294
000360 d7 6c 50 be 39 e3 ac 3d 17 05 53 be 6c 34 65 ba
       -0.20354019 0.08441777 -0.2060741 -0.0008743468
000370 84 9a 0a be dd 95 5f 3e 73 fc 45 be 86 72 8b 3d
       -0.13535506 0.21834512 -0.19334583 0.06808953
000380 ed 0c dd 3c 75 9c cb bd 07 c0 a1 bd c9 5e 4a 3d
       0.026983703 -0.09941951 -0.078979544 0.0494068
000390 b8 ff 59 3e 40 5f f8 bd d4 74 4f be 64 6a 56 3e
       0.21288955 -0.121275425 -0.2025941 0.20939022
0003a0 4b e5 52 3e 42 29 60 be b5 4d 0c bd e7 59 48 bc
       0.20595281 -0.21890739 -0.034253795 -0.012228466
0003b0 da 57 15 3c 5b 9a 2a be 79 f3 e4 bd 8b 4a 8a bd
       0.009115184 -0.16660444 -0.11179251 -0.06752499
0003c0 42 2b 35 be c6 9a 2a 3c 24 ca 49 3e f8 74 e0 3d
       -0.17692283 0.010412877 0.19706017 0.1095981
0003d0 86 1d 9e 3d e9 64 0b 3e 33 fd 5b be 0e 47 fe bd
       0.07720475 0.13612713 -0.21483307 -0.12415896
0003e0 e5 4b 4a bc 6b 4b 34 be 21 d0 48 3e 02 3e 3b be
       -0.012347196 -0.17606895 0.19610645 -0.18285373
0003f0 1d be 58 3e cc 13 7c 3d b2 d0 61 be d2 72 55 3e
       0.21166272 0.061542317 -0.22052267 0.20844582

graph_attn_module.gat_conv.att_dst f4 [1, 4, 100]
000000 19 7a 04 3e 6b 23 17 be 79 09 6b 3e 9b f4 c2 bd
       0.12937202 -0.14759605 0.22952832 -0.09519311
000010 c7 0c 2c be 60 60 18 be 01 f9 5a 3e 54 48 5e 3e
       -0.16801749 -0.14880514 0.2138405 0.21707278
000020 ae 0b 33 3e c3 df db bd 40 96 ba bd 9c 8f dd 3d
       0.17484924 -0.107360385 -0.09110689 0.10818407
000030 be a2 92 bd 5e 68 44 3e 34 61 26 bd d5 63 45 be
       -0.07159947 0.19180438 -0.040620044 -0.19276364
000040 40 3a d7 bd 93 9d 3a be 0b c4 66 be 82 b1 49 be
       -0.10509157 -0.18224172 -0.22535722 -0.1969662
000050 03 c6 03 be 69 6e 90 bc 35 dc 2f 3e d3 a1 07 be
       -0.12868504 -0.017630773 0.17173846 -0.13245325
000060 85 77 e6 bd b8 c1 68 be 6f 26 b5 3d e5 b4 9d 3b
       -0.11253265 -0.22730148 0.08845221 0.004812824
000070 85 a9 16 be 9e 6f e6 3c f3 65 18 3e 88 7a fa 3d
       -0.14713104 0.028129395 0.1488264 0.12230402
000080 1a 54 52 be 87 62 44 be 4b f5 40 be 45 90 6c 3c
       -0.20539895 -0.1917821 -0.18843572 0.014438693
000090 30 eb 27 be e7 2d 39 3e ea 53 1b be 4c c8 34 bd
       -0.1639831 0.18083917 -0.1516873 -0.04413633
0000a0 7a 9a c0 bd dc 73 97 3c 57 4f 0e bd f9 72 82 3e
       -0.09404464 0.018487863 -0.034743633 0.25478342
0000b0 ff 90 ac 3d 9f 33 3d bd 7f 85 be 3d c9 c5 07 be
       0.08426093 -0.046191808 0.09302806 -0.13259043
0000c0 76 36 a3 bd 29 33 c9 3d 24 08 92 bd 6f 8a 53 bd
       -0.07969372 0.09824211 -0.07130459 -0.051645692
0000d0 62 ad 84 bd 48 dc bf bd 7e a7 07 be f0 64 ed bd
       -0.06478383 -0.09368187 -0.13247487 -0.11591518
0000e0 69 8e 6b be 4e 3f 00 bd b1 64 b9 bd a7 c8 33 be
       -0.23003544 -0.031310372 -0.090524085 -0.17557012
0000f0 08 5f 0d be 05 a6 10 3d 83 e0 8a 3d ef fc b5 bd
       -0.13805783 0.03531458 0.067811035 -0.08886134
000100 9f a9 1a be d7 e0 c0 3c 9d 9e 01 be cd da 14 bc
       -0.15103768 0.023544712 -0.12658162 -0.009085369
000110 ea 84 0f 3d 72 75 25 3e 05 5f d4 3d c1 46 68 be
       0.035038866 0.16158083 0.10369686 -0.2268324
000120 8b da 5b bd 74 d6 3c bd ba e0 0b 3e 07 73 a8 3a
       -0.053675216 -0.046102956 0.13659945 0.0012851664
000130 7c a8 81 be c4 89 f4 bd 98 20 a7 bd d0 62 b8 bd
       -0.25323856 -0.11940339 -0.08160514 -0.09003222
000140 0f 71 d1 3d 6b 67 15 3e c5 ba 31 3e 2e 0e 04 bd
       0.10226642 0.14590232 0.17356403 -0.032240085
000150 ad db 5e be 4a e7 d2 bd 1a c8 b6 3c 0e 08 17 be
       -0.21763487 -0.10298021 0.022312213 -0.14749166
000160 47 43 d4 bd 0f af f5 3c cc 38 9f 3d 00 7e 5b 3e
       -0.10364395 0.029990701 0.07774505 0.21434784
000170 1a 72 6a 3d 43 40 05 bd 5e ba ad bc 00 fc 2a bd
       0.057237722 -0.032531988 -0.02120703 -0.041744232
000180 c6 fb 8c bd 5f d1 3b be c8 41 04 bd ae 7a 21 3e
       -0.068839595 -0.18341587 -0.032289296 0.15769455
000190 9d 35 16 3d 9d 81 1a be 7e 17 60 3e 78 a1 da 3b
       0.036672223 -0.15088506 0.21883962 0.0066720806
0001a0 d0 05 46 be 87 42 46 3d ca e3 61 be 0d eb 25 3e
       -0.19338155 0.04840329 -0.22059551 0.16202946
0001b0 00 4f 81 bc 7b a4 cc 3c 2a 86 47 3e 95 81 05 3e
       -0.01578474 0.024980774 0.19484773 0.13037713
0001c0 a0 e0 95 bd 9e d7 51 be 67 08 87 be ab 7d d7 bc
       -0.073182344 -0.20492408 -0.26373598 -0.02630504
0001d0 1c a0 a7 3c a2 ae 4f 3e 98 95 30 bb 4f 30 09 3e
       0.020462088 0.20281461 -0.0026944634 0.13397335
0001e0 bd d4 4e 3e 81 07 98 3d 57 ac 75 3e 89 d1 89 be
       0.2019834 0.07423306 0.23991524 -0.26917675
0001f0 00 8d 20 be 4d 1c f6 3d 5d 5f 59 3d bd 9b e8 3d
       -0.15678787 0.12017117 0.05306946 0.1135783
000200 80 6b 60 be 73 dd a9 bd 67 bc 56 be db 26 6e 3d
       -0.21916008 -0.08294191 -0.20970307 0.058142524
000210 65 83 5c bd 67 76 b2 3d a9 1f 04 3e e9 78 b2 3b
       -0.053836245 0.0871399 0.12902702 0.0054465425
000220 68 bf c5 3d 24 98 39 3e d9 2b 39 3e 43 64 a0 bd
       0.096556485 0.18124443 0.18083133 -0.078316234
000230 fa f1 3a 3c 96 bb 5f be 56 b7 6c be bc 38 12 be
       0.011410231 -0.21848902 -0.23116812 -0.14279455
000240 ef b2 9c bd f3 c5 4b 3d eb 57 dc bd 24 e1 40 be
       -0.076513164 0.049749326 -0.107589565 -0.18835884
000250 40 3f 4b 3e 2e bb 2b be 07 dd 35 3e 4a 66 c0 3b
       0.19848347 -0.16770622 0.17760096 0.005871569
000260 68 32 3d be a4 8a 82 be 87 4c 38 3e 44 56 a7 3d
       -0.1847626 -0.254964 0.17997943 0.08170751
000270 8e d9 3e be f8 90 2d 3e 6d 2b 82 3e 17 02 5d 3e
       -0.18637678 0.16949832 0.25423756 0.21582828
000280 e3 9d a9 3d ba e0 57 be c5 87 6c be 56 03 6e 3e
       0.082820676 -0.2108182 -0.23098667 0.2324346
000290 65 9b 59 be b8 b4 d6 3c e5 8a 8c bd ab 5c 26 3e
       -0.21250685 0.02620922 -0.068624295 0.16246288
0002a0 e1 c7 26 3e c1 5c 3d be 1a d9 32 3c e1 cd 38 be
       0.16287185 -0.18492414 0.010916019 -0.18047287
0002b0 4a 10 c6 bc f4 7c 03 be dd c8 84 be 2c 46 09 3e
       -0.02417769 -0.12840635 -0.25934497 0.13405675
0002c0 9d ff 02 bd 1c c4 54 3e c6 57 74 3e 01 fb 4c 3c
       -0.031982053 0.20777935 0.23861608 0.012511016
0002d0 8a 1a e7 3d 4a f5 09 be 72 0b fd bd 9b 22 8d 3d
       0.11284359 -0.13472477 -0.12355699 0.06891366
0002e0 2b 0f c4 bd f5 d3 7c bd 46 01 c7 3d fb bb 3d 3d
       -0.095732056 -0.061725575 0.0971704 0.04632185
0002f0 54 eb 19 3e 60 96 dd 3d 23 b3 2c be 06 53 51 3e
       0.15031177 0.108196974 -0.1686521 0.20441827
000300 7e 20 20 be 1f 2f d0 3c 51 66 55 3e 4e 87 51 be
       -0.15637395 0.025413094 0.20839812 -0.20461771
000310 98 11 84 be 76 e3 4a bd f3 fe c0 bd 18 33 32 3e
       -0.25794673 -0.04953333 -0.09423628 0.17402303
000320 bd 69 6a bc 53 00 b3 bd c3 81 0d 3d 38 34 3d be
       -0.0143074365 -0.08740296 0.03454758 -0.18476951
000330 d6 de 12 bd 83 98 54 3d a4 46 a0 3d aa 21 f5 bd
       -0.035857044 0.05190326 0.07825974 -0.119693115
000340 ab 9f 56 be c1 74 01 be a8 b4 1a be 33 ce d4 3d
       -0.20959346 -0.12642194 -0.15107977 0.10390892
000350 e3 d4 0f 3d 2b d9 6d be 45 c4 8e bd a5 db 48 be
       0.035115134 -0.23227374 -0.06971029 -0.19615038
000360 0e 85 71 be 33 d7 40 be b9 f6 79 3d 97 96 0b bd
       -0.23585913 -0.18832092 0.06102631 -0.03407916
000370 20 e4 0d b8 48 b2 70 be c3 eb 05 3e b9 a2 13 be
       -3.3829478e-05 -0.23505509 0.13078217 -0.14417543
000380 f0 2f 12 be 20 77 85 3e 06 a9 17 3e 9e 7d 0c 3e
       -0.14276099 0.26067448 0.14810571 0.13719794
000390 4a 01 f9 bb 5f d0 91 3d 57 0b 7e 3e 6b 58 d1 3d
       -0.0075990306 0.07119822 0.24809013 0.102219425
0003a0 c7 95 ac 3d 74 9d 2e be 11 b8 36 3e 84 87 cb 3c
       0.08427005 -0.17052251 0.17843653 0.024844892
0003b0 6b d9 04 3a 16 da aa 3d 31 4d 72 3e 0a f8 27 3d
       0.0005067798 0.08342378 0.23662259 0.041008033
0003c0 3e bc 2b be 2e 35 92 3b f2 7d e4 3d 89 08 f4 bd
       -0.16771027 0.004461906 0.11156835 -0.119156905
0003d0 a0 db 5f bd eb 2b a2 3d 34 01 dc bb cd 72 03 3e
       -0.05465281 0.07918533 -0.0067140106 0.12836762
0003e0 67 ec a0 3c 4c 79 06 be 8a 89 1e 3e aa 25 01 3e
       0.019643975 -0.13132209 0.15482154 0.12612024
0003f0 b1 9d 4a 3e bc de 7e be f7 1b 13 be 4b 8f 81 3e
       0.19786717 -0.24889654 -0.14366136 0.25304636

graph_attn_module.gat_conv.bias f4 [100]
000000 8e 3a 80 3d 46 9f 64 3c cc f8 d0 b9 d6 ec 0e bc
       0.062611684 0.013953989 -0.0003985822 -0.008723458
000010 ca 1a 39 3c f5 08 0d 3c 87 de c7 bc d6 12 32 bc
       0.011297891 0.008608093 -0.024398101 -0.010868749
000020 00 00 00 00 00 00 00 00 00 00 00 00 00 00 00 00
       0.0 0.0 0.0 0.0
000030 00 00 00 00 00 00 00 00 00 00 00 00 00 00 00 00
       0.0 0.0 0.0 0.0
000040 00 00 00 00 00 00 00 00 00 00 00 00 00 00 00 00
       0.0 0.0 0.0 0.0
000050 00 00 00 00 00 00 00 00 00 00 00 00 00 00 00 00
       0.0 0.0 0.0 0.0
000060 00 00 00 00 00 00 00 00 00 00 00 00 00 00 00 00
       0.0 0.0 0.0 0.0
000070 00 00 00 00 00 00 00 00 00 00 00 00 00 00 00 00
       0.0 0.0 0.0 0.0
000080 00 00 00 00 00 00 00 00 00 00 00 00 00 00 00 00
       0.0 0.0 0.0 0.0
000090 00 00 00 00 00 00 00 00 00 00 00 00 00 00 00 00
       0.0 0.0 0.0 0.0
0000a0 00 00 00 00 00 00 00 00 00 00 00 00 00 00 00 00
       0.0 0.0 0.0 0.0
0000b0 00 00 00 00 00 00 00 00 00 00 00 00 00 00 00 00
       0.0 0.0 0.0 0.0
0000c0 00 00 00 00 00 00 00 00 00 00 00 00 00 00 00 00
       0.0 0.0 0.0 0.0
0000d0 00 00 00 00 00 00 00 00 00 00 00 00 00 00 00 00
       0.0 0.0 0.0 0.0
0000e0 00 00 00 00 00 00 00 00 00 00 00 00 00 00 00 00
       0.0 0.0 0.0 0.0
0000f0 00 00 00 00 00 00 00 00 00 00 00 00 00 00 00 00
       0.0 0.0 0.0 0.0
000100 00 00 00 00 00 00 00 00 00 00 00 00 00 00 00 00
       0.0 0.0 0.0 0.0
000110 00 00 00 00 00 00 00 00 00 00 00 00 00 00 00 00
       0.0 0.0 0.0 0.0
000120 00 00 00 00 00 00 00 00 00 00 00 00 00 00 00 00
       0.0 0.0 0.0 0.0
000130 00 00 00 00 00 00 00 00 00 00 00 00 00 00 00 00
       0.0 0.0 0.0 0.0
000140 00 00 00 00 00 00 00 00 00 00 00 00 00 00 00 00
       0.0 0.0 0.0 0.0
000150 00 00 00 00 00 00 00 00 00 00 00 00 00 00 00 00
       0.0 0.0 0.0 0.0
000160 00 00 00 00 00 00 00 00 00 00 00 00 00 00 00 00
       0.0 0.0 0.0 0.0
000170 00 00 00 00 00 00 00 00 00 00 00 00 00 00 00 00
       0.0 0.0 0.0 0.0
000180 00 00 00 00 00 00 00 00 00 00 00 00 00 00 00 00
       0.0 0.0 0.0 0.0

graph_attn_module.gat_conv.lin_src.weight f4 [400, 100]
000000 18 8b e5 3d 79 67 c8 3d 77 c7 a4 3d ed 78 7f bd
       0.11208171 0.09785361 0.080458574 -0.062371183
000010 16 df 04 be 1e 1a 8e 3c 45 3a 90 bd bd 5f 86 bd
       -0.12975726 0.017346438 -0.07042364 -0.065612294
000020 e6 33 ae bc c0 1b 80 bd b4 47 aa 3a 11 b0 99 bd
       -0.021264981 -0.06255293 0.001299134 -0.07504285
000030 8e 27 03 bd bb ba de bd 31 12 4d 3d 33 a0 d4 3c
       -0.032020144 -0.1087546 0.050066177 0.025955295
000040 10 9d a6 3d c1 6f 98 bc 05 da 8d 3d 39 18 a6 bd
       0.08135426 -0.018607976 0.069263496 -0.08110089
000050 d6 c6 91 3d d9 13 8f bb 02 e0 76 bc 83 0c 64 bd
       0.07118003 -0.0043663797 -0.015068056 -0.055675995
000060 9c 35 9e bd dd 63 53 3c 90 81 8d 3d 6d a8 ae bd
       -0.07725069 0.012902227 0.06909478 -0.085282184
000070 68 60 7c bd 83 10 df bd 8d 6d 02 3d fd 47 74 bd
       -0.061615378 -0.10891821 0.031842757 -0.059638966
000080 5f 5d 01 3d 1c df 8b 3d 37 45 5a bd 4e 9b 41 bc
       0.031583186 0.06829664 -0.053288665 -0.011816813
000090 bf 32 58 3d 48 3d 6f 3d 38 db 2f bd 1a 15 c2 3d
       0.05278277 0.05840805 -0.042933673 0.09476681
0000a0 a2 0e 03 bc 46 74 be 3d 01 41 a7 39 7e 06 9e bd
       -0.007999094 0.09299521 0.00031901154 -0.07716082
0000b0 bf fd 86 3d 35 07 bb bd f3 7a 78 3d 0d ed 8e 3d
       0.06591367 -0.09132234 0.06066413 0.069788076
0000c0 b7 24 9d bd 7a 99 a0 bd 8e d3 f8 3c 8f 57 54 bd
       -0.076730184 -0.07841773 0.030374315 -0.051841315
0000d0 14 03 92 3d 8f 4d 9f 3c 87 2a c5 bd ab 00 df bd
       0.07129493 0.019446163 -0.09627252 -0.10888799
0000e0 b0 9f 73 bd 32 58 10 3d 8e e2 29 bd cc 5d b4 3d
       -0.05947846 0.03524036 -0.041475825 0.08806953
0000f0 89 72 d7 bd 16 af 63 3d 4c a5 b7 3d 60 dc 9a bb
       -0.10519893 0.055586897 0.08967075 -0.004725978
000100 89 78 00 bd 53 7a b5 3d b5 64 6b 3c 59 1f 89 bc
       -0.03136495 0.08861222 0.014367272 -0.01673858
000110 81 4a 3a bd ab 0c a9 bd 47 90 d7 3c 9e cf ac bd
       -0.04548121 -0.08254369 0.026313914 -0.08438037
000120 45 43 cd 3d 5d 38 e5 3b 4b 36 26 3d d6 b3 02 3d
       0.10022596 0.0069952444 0.04057912 0.031909786
000130 66 b6 6d 3d d8 6f 9c bd cd 37 f1 bc f2 a8 8a 3d
       0.058035277 -0.0763852 -0.029445553 0.06770505
000140 c1 10 1e bd 84 1b 80 bc a4 4f bc bd 5b 7c c6 bc
       -0.038590197 -0.01563812 -0.09194878 -0.02422922
000150 0e 9f 0f bd 11 27 e2 3c ea 76 cc bc 45 fd 29 bd
       -0.035063796 0.027606519 -0.024959046 -0.041501302
000160 4a 00 2e 3d 6b 9c 74 bd 76 e7 de 3c d5 02 88 bd
       0.042480744 -0.059719484 0.027209979 -0.06641165
000170 f4 a1 3b ba 6b 3a dc 3d 2f 58 d4 3d 94 b9 e6 bc
       -0.0007157617 0.1075333 0.10368382 -0.028164662
000180 3a aa 2a 3d 5b 96 9c 3d c5 fd 83 3d a2 04 1b bd
       0.041666247 0.076458655 0.06444887 -0.037846215
000190 b2 1c e6 3c e8 9b 03 3a 73 0b d3 3c 9b e8 cb 3d
       0.028089855 0.0005020485 0.025762295 0.09956475
0001a0 19 bf 7b bb a9 3f 1f bd 70 8a a9 3d 2d 8e d6 3c
       -0.0038413464 -0.03887907 0.08278358 0.026190842
0001b0 0a 20 c1 bc f7 44 8c 3d 79 05 66 bd 43 a6 be bd
       -0.023574848 0.068490915 -0.056157563 -0.09309056
0001c0 7a 7e 23 bd f7 c0 04 bd 0b 0e 70 bd 5d 95 06 3d
       -0.03991554 -0.032410588 -0.058607142 0.032857288
0001d0 80 0a 7f 3d e3 3e 93 bd a2 92 52 3d fd 18 01 bd
       0.062265873 -0.07189729 0.05140937 -0.03151797
0001e0 8a 22 b0 3d 6d 0b 6d bd 7e 3f de 3d 46 c9 4e 3d
       0.08600338 -0.057872225 0.10851954 0.050484918
0001f0 f2 c7 ce 3d 43 ed 38 3d e2 15 56 3d 27 e6 91 bd
       0.1009673 0.045148145 0.052266963 -0.07123976
000200 00 89 2e 3d 89 cf f4 3c de de d0 3c c6 38 9a 3d
       0.042611122 0.029884117 0.025496896 0.0753036
000210 ce 6b b5 bb e4 3f 15 3d d0 5e ea bc 60 6d b4 3d
       -0.005536533 0.036437884 -0.028609663 0.08809924
000220 37 f4 0b 3d b6 b0 65 bd a4 df d3 bd 3a 5e 22 3d
       0.03416845 -0.056076728 -0.103453904 0.039640643
000230 f6 01 b3 bd 74 e5 c9 3c c0 72 2c bd bb 0a 3c 3c
       -0.087406084 0.024645545 -0.04210162 0.011477168
000240 65 08 49 bd e3 31 a2 bc 3c 36 5c 3d 70 a0 d2 3c
       -0.04908027 -0.019799178 0.05376266 0.025711268
000250 f4 c2 9d 3c 2c fd 10 bd 9c c8 df bd f4 bf 92 3d
       0.019258 -0.035397694 -0.10926935 0.071655184
000260 36 b7 bb bd ab c7 d0 3d 83 15 a6 3b 96 6d 0b bd
       -0.09165804 0.10194334 0.0050684824 -0.034040056
000270 f3 b4 f5 3c 8e 38 a3 bd a8 bc 0f bc 0c 0c 6b 3d
       0.02999351 -0.07969771 -0.0087730065 0.057384536
000280 46 ec 91 bd 2d b3 98 bd 3e 0b e2 bc 76 67 19 bd
       -0.07125144 -0.0745605 -0.027593251 -0.037452184
000290 4d 29 1f 3c 17 05 52 bd 72 11 67 bd 95 e9 91 3b
       0.009714437 -0.051274385 -0.05641312 0.004452894
0002a0 24 f5 d2 bc e1 de b6 3d 14 63 bc 3b fe 9a 58 3d
       -0.025751658 0.089292295 0.0057491157 0.052882187
0002b0 49 d0 44 3d 38 a2 9c 3c a8 dc a9 3d 79 cf a8 3d
       0.0480502 0.01912032 0.0829404 0.08242697
0002c0 31 4a 93 bd e2 5b 9f bc 47 7d ab 3b 65 e3 39 bd
       -0.07191885 -0.019452993 0.00523344 -0.045382876
0002d0 eb f5 b1 3c 5e 31 ad bd d4 96 4e 3c f4 41 be 3c
       0.021723708 -0.08456682 0.012609202 0.023224808
0002e0 ee 5c 0f 3d 22 e3 8c 3d 9d df b4 bd c5 ce a2 bd
       0.035000734 0.0687926 -0.08831713 -0.079495944
0002f0 4b 30 d5 3d 50 f8 ef bc d0 9a ac 3d a8 1a b2 bd
       0.10409602 -0.02929321 0.08427966 -0.086964905
000300 f1 60 af bd 5d c9 54 3c fa 3a 76 3b 36 de aa 3d
       -0.08563412 0.012987462 0.0037571774 0.083431646
000310 25 4a 93 bd 4b 87 a7 3d 16 2d cd 3c 04 5d cb 3d
       -0.07191876 0.08180102 0.025045913 0.09929851
000320 1a 91 6c 3d ea 5a 07 3c 71 9c cd bd ad da 85 3d
       0.057755567 0.008261422 -0.100396045 0.0653585
000330 a2 2f 07 be 43 ec 72 3d ea da 94 3d f1 ad 53 3d
       -0.13201764 0.059307348 0.07268317 0.051679555
000340 9d 43 ee bc 2a 9f 4d bd ea c9 5c bd 7f 87 89 bd
       -0.029084975 -0.05020062 -0.053903498 -0.06715297
000350 58 6b bb 3c 15 cc b4 bd f4 23 cb bc 08 6f cd 3c
       0.022878334 -0.08827988 -0.024797417 0.025077358
000360 7a 3b 52 3d b9 17 6d bd 71 00 93 3d 6c 90 84 bd
       0.051326253 -0.05788395 0.071778186 -0.06472859
000370 8e de 47 3d c4 76 68 3d 2f 1c cc 3d 12 d8 28 3c
       0.04879623 0.05675389 0.09966313 0.010305421
000380 e3 86 19 bd e2 98 87 bd bd 29 1d 3d bc f8 dc 3d
       -0.037482154 -0.06620957 0.038369883 0.1078963
000390 b3 5a 8f bc 03 17 20 bd 0f d1 c5 3c a6 fb 73 3d
       -0.017499303 -0.039084446 0.024147538 0.059566163
0003a0 fb 56 b1 3d 65 96 31 3c ca e5 b1 bd e4 8e 83 bd
       0.08659168 0.0108390795 -0.08686407 -0.064237386
0003b0 02 d3 da 3c 5b 53 ac bd 1a 04 c4 bd be 92 e6 3c
       0.026711944 -0.08414336 -0.09571095 0.028146144
0003c0 d7 08 bf 3d 36 11 b9 3d b0 c8 d0 3d 08 9b ab bd
       0.09327858 0.09036486 0.10194528 -0.08379179
0003d0 32 f7 d2 ba 0b 76 a7 3d 9c 2e b1 3d 58 ae 2c 3d
       -0.0016095398 0.08176812 0.08651468 0.042158455
0003e0 df 34 89 bd 6c 0a 09 3d 16 26 a1 3d 45 9c 65 bc
       -0.066995375 0.033457205 0.078685924 -0.014014308
0003f0 9a 56 16 3c f4 56 b1 bd d2 16 b4 3c e8 73 b9 3d
       0.009175921 -0.08659163 0.021983538 0.090553105

graph_attn_module.gat_conv.lin_dst.weight f4 [400, 100]
000000 18 8b e5 3d 79 67 c8 3d 77 c7 a4 3d ed 78 7f bd
       0.11208171 0.09785361 0.080458574 -0.062371183
000010 16 df 04 be 1e 1a 8e 3c 45 3a 90 bd bd 5f 86 bd
       -0.12975726 0.017346438 -0.07042364 -0.065612294
000020 e6 33 ae bc c0 1b 80 bd b4 47 aa 3a 11 b0 99 bd
       -0.021264981 -0.06255293 0.001299134 -0.07504285
000030 8e 27 03 bd bb ba de bd 31 12 4d 3d 33 a0 d4 3c
       -0.032020144 -0.1087546 0.050066177 0.025955295
000040 10 9d a6 3d c1 6f 98 bc 05 da 8d 3d 39 18 a6 bd
       0.08135426 -0.018607976 0.069263496 -0.08110089
000050 d6 c6 91 3d d9 13 8f bb 02 e0 76 bc 83 0c 64 bd
       0.07118003 -0.0043663797 -0.015068056 -0.055675995
000060 9c 35 9e bd dd 63 53 3c 90 81 8d 3d 6d a8 ae bd
       -0.07725069 0.012902227 0.06909478 -0.085282184
000070 68 60 7c bd 83 10 df bd 8d 6d 02 3d fd 47 74 bd
       -0.061615378 -0.10891821 0.031842757 -0.059638966
000080 5f 5d 01 3d 1c df 8b 3d 37 45 5a bd 4e 9b 41 bc
       0.031583186 0.06829664 -0.053288665 -0.011816813
000090 bf 32 58 3d 48 3d 6f 3d 38 db 2f bd 1a 15 c2 3d
       0.05278277 0.05840805 -0.042933673 0.09476681
0000a0 a2 0e 03 bc 46 74 be 3d 01 41 a7 39 7e 06 9e bd
       -0.007999094 0.09299521 0.00031901154 -0.07716082
0000b0 bf fd 86 3d 35 07 bb bd f3 7a 78 3d 0d ed 8e 3d
       0.06591367 -0.09132234 0.06066413 0.069788076
0000c0 b7 24 9d bd 7a 99 a0 bd 8e d3 f8 3c 8f 57 54 bd
       -0.076730184 -0.07841773 0.030374315 -0.051841315
0000d0 14 03 92 3d 8f 4d 9f 3c 87 2a c5 bd ab 00 df bd
       0.07129493 0.019446163 -0.09627252 -0.10888799
0000e0 b0 9f 73 bd 32 58 10 3d 8e e2 29 bd cc 5d b4 3d
       -0.05947846 0.03524036 -0.041475825 0.08806953
0000f0 89 72 d7 bd 16 af 63 3d 4c a5 b7 3d 60 dc 9a bb
       -0.10519893 0.055586897 0.08967075 -0.004725978
000100 89 78 00 bd 53 7a b5 3d b5 64 6b 3c 59 1f 89 bc
       -0.03136495 0.08861222 0.014367272 -0.01673858
000110 81 4a 3a bd ab 0c a9 bd 47 90 d7 3c 9e cf ac bd
       -0.04548121 -0.08254369 0.026313914 -0.08438037
000120 45 43 cd 3d 5d 38 e5 3b 4b 36 26 3d d6 b3 02 3d
       0.10022596 0.0069952444 0.04057912 0.031909786
000130 66 b6 6d 3d d8 6f 9c bd cd 37 f1 bc f2 a8 8a 3d
       0.058035277 -0.0763852 -0.029445553 0.06770505
000140 c1 10 1e bd 84 1b 80 bc a4 4f bc bd 5b 7c c6 bc
       -0.038590197 -0.01563812 -0.09194878 -0.02422922
000150 0e 9f 0f bd 11 27 e2 3c ea 76 cc bc 45 fd 29 bd
       -0.035063796 0.027606519 -0.024959046 -0.041501302
000160 4a 00 2e 3d 6b 9c 74 bd 76 e7 de 3c d5 02 88 bd
       0.042480744 -0.059719484 0.027209979 -0.06641165
000170 f4 a1 3b ba 6b 3a dc 3d 2f 58 d4 3d 94 b9 e6 bc
       -0.0007157617 0.1075333 0.10368382 -0.028164662
000180 3a aa 2a 3d 5b 96 9c 3d c5 fd 83 3d a2 04 1b bd
       0.041666247 0.076458655 0.06444887 -0.037846215
000190 b2 1c e6 3c e8 9b 03 3a 73 0b d3 3c 9b e8 cb 3d
       0.028089855 0.0005020485 0.025762295 0.09956475
0001a0 19 bf 7b bb a9 3f 1f bd 70 8a a9 3d 2d 8e d6 3c
       -0.0038413464 -0.03887907 0.08278358 0.026190842
0001b0 0a 20 c1 bc f7 44 8c 3d 79 05 66 bd 43 a6 be bd
       -0.023574848 0.068490915 -0.056157563 -0.09309056
0001c0 7a 7e 23 bd f7 c0 04 bd 0b 0e 70 bd 5d 95 06 3d
       -0.03991554 -0.032410588 -0.058607142 0.032857288
0001d0 80 0a 7f 3d e3 3e 93 bd a2 92 52 3d fd 18 01 bd
       0.062265873 -0.07189729 0.05140937 -0.03151797
0001e0 8a 22 b0 3d 6d 0b 6d bd 7e 3f de 3d 46 c9 4e 3d
       0.08600338 -0.057872225 0.10851954 0.050484918
0001f0 f2 c7 ce 3d 43 ed 38 3d e2 15 56 3d 27 e6 91 bd
       0.1009673 0.045148145 0.052266963 -0.07123976
000200 00 89 2e 3d 89 cf f4 3c de de d0 3c c6 38 9a 3d
       0.042611122 0.029884117 0.025496896 0.0753036
000210 ce 6b b5 bb e4 3f 15 3d d0 5e ea bc 60 6d b4 3d
       -0.005536533 0.036437884 -0.028609663 0.08809924
000220 37 f4 0b 3d b6 b0 65 bd a4 df d3 bd 3a 5e 22 3d
       0.03416845 -0.056076728 -0.103453904 0.039640643
000230 f6 01 b3 bd 74 e5 c9 3c c0 72 2c bd bb 0a 3c 3c
       -0.087406084 0.024645545 -0.04210162 0.011477168
000240 65 08 49 bd e3 31 a2 bc 3c 36 5c 3d 70 a0 d2 3c
       -0.04908027 -0.019799178 0.05376266 0.025711268
000250 f4 c2 9d 3c 2c fd 10 bd 9c c8 df bd f4 bf 92 3d
       0.019258 -0.035397694 -0.10926935 0.071655184
000260 36 b7 bb bd ab c7 d0 3d 83 15 a6 3b 96 6d 0b bd
       -0.09165804 0.10194334 0.0050684824 -0.034040056
000270 f3 b4 f5 3c 8e 38 a3 bd a8 bc 0f bc 0c 0c 6b 3d
       0.02999351 -0.07969771 -0.0087730065 0.057384536
000280 46 ec 91 bd 2d b3 98 bd 3e 0b e2 bc 76 67 19 bd
       -0.07125144 -0.0745605 -0.027593251 -0.037452184
000290 4d 29 1f 3c 17 05 52 bd 72 11 67 bd 95 e9 91 3b
       0.009714437 -0.051274385 -0.05641312 0.004452894
0002a0 24 f5 d2 bc e1 de b6 3d 14 63 bc 3b fe 9a 58 3d
       -0.025751658 0.089292295 0.0057491157 0.052882187
0002b0 49 d0 44 3d 38 a2 9c 3c a8 dc a9 3d 79 cf a8 3d
       0.0480502 0.01912032 0.0829404 0.08242697
0002c0 31 4a 93 bd e2 5b 9f bc 47 7d ab 3b 65 e3 39 bd
       -0.07191885 -0.019452993 0.00523344 -0.045382876
0002d0 eb f5 b1 3c 5e 31 ad bd d4 96 4e 3c f4 41 be 3c
       0.021723708 -0.08456682 0.012609202 0.023224808
0002e0 ee 5c 0f 3d 22 e3 8c 3d 9d df b4 bd c5 ce a2 bd
       0.035000734 0.0687926 -0.08831713 -0.079495944
0002f0 4b 30 d5 3d 50 f8 ef bc d0 9a ac 3d a8 1a b2 bd
       0.10409602 -0.02929321 0.08427966 -0.086964905
000300 f1 60 af bd 5d c9 54 3c fa 3a 76 3b 36 de aa 3d
       -0.08563412 0.012987462 0.0037571774 0.083431646
000310 25 4a 93 bd 4b 87 a7 3d 16 2d cd 3c 04 5d cb 3d
       -0.07191876 0.08180102 0.025045913 0.09929851
000320 1a 91 6c 3d ea 5a 07 3c 71 9c cd bd ad da 85 3d
       0.057755567 0.008261422 -0.100396045 0.0653585
000330 a2 2f 07 be 43 ec 72 3d ea da 94 3d f1 ad 53 3d
       -0.13201764 0.059307348 0.07268317 0.051679555
000340 9d 43 ee bc 2a 9f 4d bd ea c9 5c bd 7f 87 89 bd
       -0.029084975 -0.05020062 -0.053903498 -0.06715297
000350 58 6b bb 3c 15 cc b4 bd f4 23 cb bc 08 6f cd 3c
       0.022878334 -0.08827988 -0.024797417 0.025077358
000360 7a 3b 52 3d b9 17 6d bd 71 00 93 3d 6c 90 84 bd
       0.051326253 -0.05788395 0.071778186 -0.06472859
000370 8e de 47 3d c4 76 68 3d 2f 1c cc 3d 12 d8 28 3c
       0.04879623 0.05675389 0.09966313 0.010305421
000380 e3 86 19 bd e2 98 87 bd bd 29 1d 3d bc f8 dc 3d
       -0.037482154 -0.06620957 0.038369883 0.1078963
000390 b3 5a 8f bc 03 17 20 bd 0f d1 c5 3c a6 fb 73 3d
       -0.017499303 -0.039084446 0.024147538 0.059566163
0003a0 fb 56 b1 3d 65 96 31 3c ca e5 b1 bd e4 8e 83 bd
       0.08659168 0.0108390795 -0.08686407 -0.064237386
0003b0 02 d3 da 3c 5b 53 ac bd 1a 04 c4 bd be 92 e6 3c
       0.026711944 -0.08414336 -0.09571095 0.028146144
0003c0 d7 08 bf 3d 36 11 b9 3d b0 c8 d0 3d 08 9b ab bd
       0.09327858 0.09036486 0.10194528 -0.08379179
0003d0 32 f7 d2 ba 0b 76 a7 3d 9c 2e b1 3d 58 ae 2c 3d
       -0.0016095398 0.08176812 0.08651468 0.042158455
0003e0 df 34 89 bd 6c 0a 09 3d 16 26 a1 3d 45 9c 65 bc
       -0.066995375 0.033457205 0.078685924 -0.014014308
0003f0 9a 56 16 3c f4 56 b1 bd d2 16 b4 3c e8 73 b9 3d
       0.009175921 -0.08659163 0.021983538 0.090553105

attention_module.W.weight f4 [64, 512]
000000 b4 42 a4 bc e4 07 30 3b f5 26 29 bc 80 72 02 3d
       -0.020051338 0.0026860172 -0.0103242295 0.031847477
000010 c1 0b 1c 3d 7a 61 c1 3c b0 09 49 ba 0b 7e 58 bd
       0.038097147 0.02360605 -0.0007668985 -0.05285458
000020 6a 30 d9 3a e8 4c 50 bc a1 5a d9 3c 73 ae 6d 3c
       0.0016570215 -0.012713648 0.026532473 0.014506924
000030 b3 56 6b 3b 91 a8 84 bc e0 7e 87 bc 76 f2 b9 bb
       0.003590983 -0.01619366 -0.01653999 -0.0056746555
000040 cb aa 4a 3c e8 79 d9 bc 11 6e a7 bc a3 4a ee 3c
       0.012369822 -0.026547387 -0.020438226 0.029088324
000050 46 5b 82 bc 42 ca f5 bc 28 27 e6 3c e1 37 0b bd
       -0.015912663 -0.03000367 0.028094843 -0.033988837
000060 ec 6b c1 3c 15 f9 14 3d 60 a6 15 3b 67 6c 0d bd
       0.023611031 0.036370356 0.0022834763 -0.03452721
000070 0b 5e b2 bc 0e b1 26 bd a7 d5 38 bc f0 aa 1c 3d
       -0.021773359 -0.040696196 -0.011281407 0.038248956
000080 c6 8f 19 3d 86 7b 9b ba b7 e2 ca bc c0 61 30 bd
       0.03749063 -0.0011862374 -0.02476631 -0.04306197
000090 bd d3 3f 3c e0 4c 96 3c da 66 b1 bc 80 a9 e0 bc
       0.011708197 0.018347204 -0.021655489 -0.027424574
0000a0 36 fa d1 3c 1b fe b2 bc 20 e5 a5 3c b8 09 b9 3c
       0.025632005 -0.021849683 0.020250857 0.022587642
0000b0 21 f7 cf bc b6 64 d2 3a 67 0c 82 bc d6 bc b5 3c
       -0.025386395 0.0016051743 -0.015875055 0.02218477
0000c0 4c 18 ed 3c 29 ce 2a 3c 78 05 12 3c 26 ea cf bc
       0.02894225 0.010425129 0.008912437 -0.025380205
0000d0 fa 2c 51 bc 26 e9 df bc 00 5c 00 3d 5d 45 31 bd
       -0.012767071 -0.027332854 0.031337738 -0.04327904
0000e0 25 61 1f bc 9d 1e 05 3c f0 66 8f 3c 2e 02 02 ba
       -0.009727751 0.008124975 0.01750514 -0.0004959431
0000f0 8c 11 c6 3c 9c 2e 90 3a 39 e5 12 bd b8 60 1e 3d
       0.024178289 0.0011000219 -0.035863135 0.038666457
000100 e1 c0 0e bc 66 2c ce 3c 7b 10 f6 3c 13 97 c4 3c
       -0.008712978 0.025167655 0.030037155 0.023997819
000110 ce 16 db 3c ab f8 18 3c 32 8e 1d bc 33 0b 04 bb
       0.026744273 0.009336631 -0.009616422 -0.0020148277
000120 f5 37 09 3d ad 51 98 bc f7 ea f4 bc e8 da 0e 3d
       0.03350063 -0.018593634 -0.029897196 0.034876734
000130 85 51 2c 3c 78 2a 53 bd 66 e1 12 bd c4 a4 83 3c
       0.010517483 -0.051554173 -0.035859488 0.016069777
000140 e7 45 da bc ee 0f 7a bc 6b 91 09 3d ac 0f d1 3c
       -0.02664466 -0.015262587 0.033585947 0.025520168
000150 e9 4f 4f 3b 15 65 b0 bb d6 25 ed 3c dd dc 0f bd
       0.0031633324 -0.0053831437 0.028948706 -0.03512274
000160 55 3f 10 bd e4 cf 25 3d 20 fe 6b b9 4f 47 33 3d
       -0.035216648 0.040481463 -0.00022506015 0.043769177
000170 03 ea 09 bd 41 c5 0b 3d 43 9d cc bc 17 56 29 bd
       -0.033670437 0.034123663 -0.024977332 -0.041341867
000180 c7 ac 37 bd 6c cc 93 bb 98 6a 2f 3b 55 83 ea 3c
       -0.044842508 -0.004510453 0.0026766416 0.028627077
000190 be e5 07 3c 6f 4a 34 bd 74 8d 4d 3c 7d b4 63 3b
       0.008294521 -0.044016298 0.012545932 0.003474503
0001a0 e5 7f f2 bc c3 87 f7 bc ef 6f 14 bd 9f 89 2e 3c
       -0.029602 -0.030216103 -0.03623956 0.010652929
0001b0 56 9f 49 bd 4a 10 0c 3b a8 bf 2f 3d d2 b4 d5 3c
       -0.04922422 0.0021372014 0.042907387 0.026087198
0001c0 19 19 4b bc 7f 49 2b 3c bb 0c 3d bc 73 67 18 3d
       -0.0123961205 0.010454535 -0.01153868 0.037208032
0001d0 8c 34 56 bd fc af a8 3c a6 80 bf bb 73 43 85 bb
       -0.052296206 0.020591728 -0.0058441935 -0.0040668785
0001e0 1b e1 fb 3c 1b 04 46 bd 34 39 e3 3c 10 30 f5 ba
       0.030746987 -0.04834376 0.027737238 -0.001870634
0001f0 66 be 13 3d 8c 3f e3 3b 72 ac d7 bb 58 1e a2 bb
       0.03607025 0.0069350656 -0.0065818364 -0.004947465
000200 66 93 d8 bc 58 1a 4a bd a6 57 b1 bc eb 41 6d bb
       -0.026437473 -0.04934153 -0.02164824 -0.003620262
000210 28 b6 a2 3c a6 ad 6c 3b 76 16 fb 3c 06 63 2a bd
       0.01986225 0.0036114245 0.030650359 -0.041598342
000220 96 18 04 3d 3a 36 53 bc d3 ef ec 39 6f fc e3 bb
       0.03225001 -0.012891347 0.0004519211 -0.0069575827
000230 1d 6f af bc b1 13 4b bd ed f3 21 3d 15 87 08 bd
       -0.021415288 -0.049579326 0.039539266 -0.03333195
000240 65 53 a5 3c fa 52 cb 3c 37 fd b8 bc a4 33 88 3c
       0.020181367 0.02481984 -0.02258168 0.016626187
000250 87 4f 1c bc 0d f6 11 3d 47 8c d0 3c 9a 6d e5 3c
       -0.009540445 0.035635043 0.025457514 0.028006364
000260 09 7a 90 3c 43 5c 12 3d 87 3d c0 3c 13 8e ed 3a
       0.017636316 0.03573252 0.023466839 0.0018124006
000270 6a 06 d4 bc 3c db 30 3c 69 51 51 bc 9f 06 43 bc
       -0.025881965 0.010794457 -0.012775757 -0.011903434
000280 e2 cc 2b bd e2 d9 02 bc 50 ca 37 bc c9 0c 25 3c
       -0.04194344 -0.007986518 -0.011217669 0.010073849
000290 5d 11 d6 bc 1e 1a 83 3b b9 b7 0e bd ed 87 22 3d
       -0.026131326 0.004000916 -0.03484318 0.03968041
0002a0 6d a0 65 bb 8d a0 45 bc 23 4d 82 3c 30 ab 34 3d
       -0.0035038248 -0.012062204 0.015905922 0.04410857
0002b0 1a 07 3f bc 76 f2 9b 3c a0 ef 1a bd 80 63 84 bc
       -0.011659408 0.019036513 -0.03782618 -0.016160727
0002c0 e1 57 c8 3b 55 49 a8 bc d4 32 15 3d 6d 37 bc 3b
       0.0061139916 -0.02054278 0.036425427 0.005743912
0002d0 59 80 17 bd 59 09 4a bb e8 1e 0b 3d 27 70 c8 bc
       -0.036987636 -0.0030828326 0.03396502 -0.02446754
0002e0 4a 9d 29 3d 41 f7 2d 3a dc a9 e1 bc 57 5d 29 bd
       0.04140977 0.000663627 -0.027546816 -0.04134878
0002f0 d3 14 6b 3c ca 3e 30 bc 2e c5 43 3d d0 ac e4 3c
       0.014348227 -0.010757158 0.047795467 0.027914435
000300 95 66 21 bc be c8 35 3d 05 98 06 3d a3 8d 03 bc
       -0.009851118 0.044380896 0.03285982 -0.008029374
000310 ec 35 24 bd 77 f6 42 bb 2a 7a e2 3c 13 f9 e3 3c
       -0.040090486 -0.0029748955 0.027646143 0.027828729
000320 15 f9 1b 3c 9b 29 47 3d cc 95 ae 3c 72 59 36 bd
       0.009519835 0.048623662 0.021311663 -0.044518895
000330 a2 db 8d bc 74 34 18 bd c4 a7 f2 bc 61 99 17 3d
       -0.017316643 -0.0371594 -0.029621013 0.037011508
000340 ab 44 0a bd a2 5b 56 3c 14 97 00 bb 39 f7 55 3d
       -0.033756893 0.01308337 -0.00196213 0.052237723
000350 2d dc 21 bd f2 c5 ab bb 20 4a fc 3c c3 51 4b bd
       -0.039516617 -0.005242103 0.030797064 -0.04963852
000360 af 6a 33 3d 81 4f dd 3b eb 5b 04 3d 36 ad e4 bc
       0.043802913 0.0067538624 0.032314222 -0.027914625
000370 60 09 f4 3c 2b 74 8f 3c 90 a3 96 3c 79 d4 d3 bc
       0.029789627 0.017511448 0.01838854 -0.02585815
000380 8e 77 0d bd f9 aa 61 bc 04 08 da bc 4f 05 64 bc
       -0.034537844 -0.013773673 -0.02661515 -0.013917281
000390 c0 af 29 bd 5c 5c 39 bd 28 22 ec ba 84 58 bb 3a
       -0.041427374 -0.045254096 -0.001801555 0.0014293347
0003a0 d9 d5 09 bc e8 83 88 bb e5 59 25 3d 96 29 1a 3d
       -0.008412802 -0.004166115 0.040368933 0.037637316
0003b0 ec 3f ce 3c 78 07 1a bd a9 41 e7 3c a1 d1 51 bc
       0.025176965 -0.03760478 0.028229551 -0.012806327
0003c0 cd 79 ec ba 87 83 17 bd 24 7e 28 3c 03 6c 51 bd
       -0.001804167 -0.03699067 0.0102839805 -0.0511284
0003d0 4d 35 b0 bc 52 08 79 3b be 18 b8 bb 94 1d 85 3c
       -0.02150979 0.0037999344 -0.005618184 0.016249456
0003e0 fe 7d 4c 3c 0e 5f 08 3d e9 cc d3 bb 5e d7 b5 3c
       0.012481211 0.033293776 -0.006463636 0.022197422
0003f0 fb e0 dd bb 00 f8 2a bd 01 d3 cc bc 8b 9b 86 bc
       -0.0067712045 -0.041740417 -0.025002958 -0.01643159
