checkpoint/social-stgcnn/val_best.pth (torch, 235003 bytes, 40 tensors)

lin_proj.weight f4 [64, 2]
00000000: 8262 b33e cb0b 5f3e 06fd 1b3e b240 dd3e
00000010: 72fe f1be c321 f8be 2957 71be e333 dabe
00000020: 0b49 ffbd 6272 d2be dab7 aabe be95 6d3d
00000030: 0fa0 c9be 60a7 af3d 7d8c 07bf 1d88 b73d
00000040: 2890 8e3d f71b ff3e 0731 023f 2aeb 06bd
00000050: 98e1 4bbe 355c 30bf 8a14 fbbe c411 02be
00000060: e683 e7bd 75ec fa3e e772 e53d 06f7 933e
00000070: 6ea5 823e b323 33be e106 e6bb 06e6 a3be
00000080: 97fc 8bbe 3431 16bd 364d 07be 90b5 c33e
00000090: cd1a e43e dd0d 27bf 599c f7be b418 24bf
000000a0: fc05 12bf 4caa ed3e 6b75 0ebf 57a0 a33e
000000b0: 2a51 823e bb18 a63e d1ff 9f3e e044 2dbf
000000c0: a220 be3e f44f ffbe b8f8 f7bd cddf f33d
000000d0: 2015 9f3d 7ace 0d3e e1dd e1be 5d32 cc3d
000000e0: f80b 813e fc8b 373e 2015 58be 03d6 f03d
000000f0: ea40 8ebe 5706 27bf db10 253f 0196 813e
00000100: cc75 373e 944b 07bf d0ac d03e 052d a33e
00000110: 886c e2be cf56 ff3e 4428 aa3e 1da8 11bf
00000120: 9469 02bf ecb0 84be 6732 d33e da02 aa3d
00000130: 8bd7 85be 3a6a 01bf 496b ee3e 8ac8 08bf
00000140: 13af 803a 54de 9d3e 6329 b93e d9a8 0ebf
00000150: 203f 95be f127 033f 6c60 e4be 68ba ffbe
00000160: 66ef 153f 16a7 233f 5837 fcbd be0e 37be
00000170: 0cd6 c63d 91ba 95bd 1793 1e3f fa8d bf3e
00000180: cd61 efbe 1f9e 3f3e 447a 94be 7f0e bcbe
00000190: 4220 473e d9dc fa3e cbbe ed3e 6344 b5be
000001a0: 41e3 443e 52d0 0abf a6e6 3c3e 3dfa 263e
000001b0: 8495 113f 1549 03bf 9bd5 cd3e fb68 203f
000001c0: fa35 aa3e 066b 21bf dfff 093f b2ad 113e
000001d0: 3642 c9be 903e 233f 9041 52be 54da 05bf
000001e0: 39fe 53be 9488 f73e efd7 86be 3f02 f03d
000001f0: efb8 e93d 95e7 ffbe 1348 c9be 90ba 133e
0.35036093 0.21781842 0.1523324 0.4321342 -0.4726444 -0.48463258 -0.23568405 -0.4261771
-0.12465104 -0.41102892 -0.33343393 0.058004133 -0.39379928 0.08576846 -0.52948743 0.089615084
0.069610894 0.49826023 0.5085606 -0.032939114 -0.19910276 -0.68890697 -0.49039108 -0.1270209
-0.113044545 0.49008527 0.112035565 0.288994 0.25516838 -0.17494087 -0.007019863 -0.3201143
-0.27341148 -0.036668018 -0.13213047 0.3822446 0.44551697 -0.6525553 -0.4836147 -0.64100194
-0.5704038 0.4641899 -0.55647916 0.31958267 0.25452548 0.32440743 0.3124986 -0.6768322
0.37134272 -0.49865687 -0.12107986 0.11907921 0.07767701 0.13848296 -0.44114593 0.099705435
0.25204444 0.17924494 -0.21101809 0.117595695 -0.277839 -0.6524405 0.64478844 0.25309756
0.1791603 -0.528497 0.40756845 0.31870285 -0.44223428 0.49870917 0.33233845 -0.56897146
-0.5094235 -0.2591623 0.4124939 0.08301325 -0.2614101 -0.50552714 0.46566227 -0.53431
0.0009817801 0.30833685 0.36164388 -0.5572639 -0.29149723 0.5123282 -0.44604814 -0.49946904
0.5856842 0.6392683 -0.123152435 -0.17876717 0.09708795 -0.07310975 0.6194319 0.37413007
-0.46754304 0.18712662 -0.2899953 -0.3672981 0.19445899 0.48996618 0.46434626 -0.35403737
0.19227315 -0.5422412 0.1844736 0.16306396 0.5686877 -0.5128339 0.4020203 0.6266019
0.33244306 -0.6305393 0.53906053 0.14226416 -0.39308327 0.6376734 -0.20532823 -0.5228627
-0.20702447 0.48346388 -0.2633662 0.117191784 0.114122264 -0.4998137 -0.393128 0.14426637

lin_proj.bias f4 [64]
00000000: 0ebd a9be e119 f63b afd4 c4bc a91f e7be
00000010: 6ec5 ff3e 2174 0cbf aed3 773d f603 42bf
00000020: a53f 15bf 39de 44bc c88c 85be ca12 9e3d
00000030: dc7e 1ebf 9f23 10bf 0999 e23c a741 0b3f
00000040: caa1 053f df4a d5be 73a9 ca3c b86f a0be
00000050: 59eb aa3e e03c f03e 6c41 0bbe 71d8 313f
00000060: fa09 ed3e 2375 f63d fafa 723e 89f5 98be
00000070: 0b14 8ebe fcf5 163e 27be e53e 79cc 66be
00000080: 4a94 193e 1e28 263f 1b4a 2fbe 5713 e33e
00000090: c34e a5bc 6a25 063f 23a8 803e de5b 0a3e
000000a0: 97d3 d1bd 5c46 ec3e a320 87be 4d09 91be
000000b0: f315 19be 0c3e 0ebf 5f12 04bf eb6e 0ebf
000000c0: a7c2 bebd 850d 753d df00 863e ac2a b83e
000000d0: 7e03 d83e b4d2 123f fb33 70be 65da 21bf
000000e0: 3eba d03d a0d0 183f b40e d8be 372b 13bf
000000f0: 4fa0 4dbb 670d b9be 06ca 31be 3d61 9bbe
-0.3315205 0.007510409 -0.024027197 -0.45141342 0.49955314 -0.548647 0.060504608 -0.75787294
-0.5830024 -0.012015873 -0.2608397 0.077184275 -0.6191232 -0.56304353 0.027660863 0.5439705
0.52199996 -0.41658685 0.024739003 -0.31335235 0.3338268 0.46921444 -0.13599175 0.6947089
0.46296674 0.12034061 0.23728552 -0.29874828 -0.27749667 0.14742273 0.44871637 -0.22538938
0.14997974 0.64904964 -0.17118113 0.44350693 -0.020179158 0.5240084 0.25128278 0.13511607
-0.10245436 0.4614743 -0.26392087 -0.28327408 -0.14949779 -0.55563426 -0.5159053 -0.55638
-0.09314471 0.059827346 0.2617254 0.35970056 0.42190164 0.5735276 -0.23457329 -0.6322387
0.10191773 0.59693336 -0.42198718 -0.57487816 -0.003137607 -0.36143038 -0.17362222 -0.30347624

adap_l.W.weight f4 [64, 512]
00000000: 70ff b3bc ee3a 143d 5502 883b 090f 4d3c
00000010: 5d2d c5bc 09c4 a4bc 9e38 7dbc f8f1 a1bc
00000020: 68c9 293c 79f8 1fbc 9d04 3cbc 46ef a9bc
00000030: 911b 933c ca66 433c 1b9d 0abd 200b 323d
00000040: 8777 5a3d ac0d 0abc ce02 033d 9138 45bd
00000050: be7c e73c 435e a7bc fc99 a7bc 6dee d93c
00000060: 26e0 c53c bc35 0b3d 5f37 11bd 65e8 3d3d
00000070: ac16 b6bc 0f1f 18bc d906 153d b5db d9bc
00000080: de9d 63bc b09b 153d 045a 7c3d 4837 c73c
00000090: ef1c 89bc 2696 363d 60ea 473d 6980 dbbc
000000a0: 12aa 793c efe9 003c 7150 133d 8c4f 44bd
000000b0: 6308 85bc bd9d 7d3c f768 79ba 757c 1c3d
000000c0: d5f5 b1bc 35bb bbbc 36bf 1cbd 67f6 f33c
000000d0: 5572 0a3d 260c 3c3d c85d f63c 33eb 17bd
000000e0: 7fd0 7d3c 8f9f 1abd 94aa 823c fca5 363d
000000f0: 7aeb 9dbb 0513 123d 1e87 cdbc b7bf df3c
00000100: 8c3c 223d 2847 5e3d 11ae 143d cce5 383b
00000110: 1860 fcbb f70f 5f3d 0a7f fdbc f270 313d
00000120: d2a0 d73c c48c 3fbd 252c 2bbd 925e e03c
00000130: bd5b 2f3c c7a0 9b3c 8259 763b 382a 743d
00000140: 4fff 023b 2be9 ce3c 973a 0ebd a7f9 fbbc
00000150: 297e c23c 398a fa3c df34 3a3d 34a7 53bd
00000160: e886 00bd 2234 b13c 0b9c 5bbd 6ffb 953c
00000170: 51db e2bc be69 bc3a 3ef4 1d3d dbe6 43bd
00000180: cb11 edbc ee00 81bc 2cf2 ea3c 41ec 11bd
00000190: af78 123d 6e41 ca3c 19f6 06bd ccd9 e0bc
000001a0: 8b5d 2e3d 5949 aebb 4e69 5ebb 76e8 9fbc
000001b0: 6fa2 923a c996 77bc 2cff acbc 4ca8 573d
000001c0: 6026 293d 9120 053d 5cd0 253c d476 ca3c
000001d0: da7e 75bc 91ac 503d bece d4bc 118f 063d
000001e0: 4405 02bd 0f31 a5ba 545b 27bc ee60 c43b
000001f0: 7956 813d fbab 9a3c 193a 783c 3a95 fe3c
00000200: 5da7 253d 0466 c93c de65 19bc 0e15 513b
00000210: 4c59 2fbd 036d 2c3d 0778 b6bc fd1c b3bb
00000220: 6bf3 073d 8f95 90bc 0a7f c3bc 7740 90bc
00000230: 2fa8 283d 1142 103d dade 223d 9d88 c23c
00000240: 249e d63c 9ffe 0dbc 91b6 61bc e7e3 0bba
00000250: 10bb 023d 9ae6 c63c c9f0 a0bb 454e 25bd
00000260: 44d1 1bbd 2fff acbc 0398 483c 6ad7 853b
00000270: c7c2 8dbb 775a 4d3d c6aa b03c 22df 73bd
00000280: bbf6 f5bc df1e e6bc cdd9 33bc e437 123d
00000290: ddde 293d 7e66 08bb 6099 a4bc 1462 8e3c
000002a0: 4642 b23c feb1 f93c 5926 703d e47f 343b
000002b0: f073 0cbd 61fd a33b 340e 1bbd e0d4 b6bc
000002c0: a6a8 15bc 1c3f d83a 84d2 18bc 60b5 ab3c
000002d0: c318 2dbd c35b 5e3d 303e f4bc 3e1d 9dbc
000002e0: 777b 12bd 0c0e 51bd 6bb9 89bc 4ad4 1c3c
000002f0: d6c7 5a3c 12eb da3c 0d38 973c 4a20 723d
00000300: fba2 d0bb 5a77 373d fb79 2bbd 1a89 bf3a
00000310: aeee 20bd fe9a c7bc 8bd1 2ebd d8f3 9fbc
00000320: 2fba 57bd 16ea 28bb 4cbc 163d a941 34bc
00000330: 5255 313a 13b8 263d d842 fc3c 1db1 6abc
00000340: 5d1f 473c 1a58 9dbc 23f5 42bd 089a 47bd
00000350: 2b2a bcbc ce26 edba db8c 913c 132b b4bc
00000360: 5b3c 913c 5cd5 183d 45da df3c 115c 42bc
00000370: 1a6b 89bc 1c9f 2ebd ea7a 143d 80ef 86bd
00000380: d6cd 8b3c 1faa ebbc 3656 613d ece5 ebbc
00000390: 6944 0c3d 4f55 913b d828 f0bc ddcd 0e3b
000003a0: d7d7 f83c f579 11bd c5db 00bc 7694 2fbc
000003b0: 2ebb 3dbd 0100 93ba 4fcd 953c 5c31 453c
000003c0: 80a4 e5bc 357a 013d 039d 3f3c 1846 173b
000003d0: 50ca 2abd 7d01 433d 48e5 5c3c ce31 66bc
000003e0: 473c f5bc a5c5 323c 766e 1cbc dc21 e03c
000003f0: 9b5f de3a bf6a 7a3d dc96 0abd 311c 693c
-0.021972388 0.036189012 0.0041506686 0.012515792 -0.024069482 -0.020113008 -0.015455393 -0.0197687
0.01036296 -0.00976383 -0.011475709 -0.020743977 0.01795748 0.011926362 -0.033841234 0.04346764
0.053336646 -0.008426111 0.031985097 -0.04814965 0.028257724 -0.02043069 -0.020459168 0.026602948
0.024154734 0.033986792 -0.035453197 0.046364207 -0.022227608 -0.009284749 0.036383484 -0.026594022
-0.013892619 0.03652543 0.061609283 0.024318352 -0.01673743 0.044576786 0.0488075 -0.02679463
0.015238302 0.007868274 0.035965387 -0.047927424 -0.01623935 0.015479502 -0.0009514237 0.03820463
-0.021723667 -0.022916416 -0.03826829 0.02978058 0.03380044 0.045910023 0.030074015 -0.037089538
0.015491604 -0.037749823 0.015950479 0.04459189 -0.0048193308 0.03566267 -0.025088843 0.027313096
0.039608523 0.05426708 0.036298815 0.0028213141 -0.007701885 0.054458585 -0.030944366 0.043320604
0.026321802 -0.046765104 -0.041790146 0.027388845 0.010703024 0.018997563 0.0037589972 0.059610575
0.0019988602 0.025257668 -0.034723844 -0.030758692 0.023741798 0.030583488 0.045460578 -0.05167313
-0.031378657 0.021631304 -0.05361561 0.01830837 -0.027692469 0.0014374775 0.038563006 -0.047827583
-0.028939148 -0.015747514 0.02867993 -0.0356257 0.035759624 0.024689402 -0.03294954 -0.027447604
0.04256968 -0.0053188023 -0.0033937278 -0.019520026 0.0011187325 -0.015111634 -0.02111777 0.052650735
0.041296363 0.03250176 0.0101204775 0.024714865 -0.014983857 0.050945822 -0.025977489 0.032851283
-0.031743303 -0.0012603122 -0.010214645 0.005993 0.063153215 0.018880835 0.01515057 0.031077016
0.040442813 0.024584778 -0.009362666 0.0031903419 -0.04280977 0.04209615 -0.02227403 -0.005466102
0.033191126 -0.01764944 -0.023864288 -0.017608864 0.041176017 0.035219256 0.03976331 0.023746783
0.026198454 -0.008666663 -0.013776437 -0.00053363893 0.031916678 0.024279881 -0.0049115163 -0.040357847
-0.038041368 -0.021117775 0.012243274 0.0040845172 -0.004326198 0.050135102 0.021565806 -0.059538968
-0.030024877 -0.028090892 -0.010977221 0.035697833 0.041472305 -0.0020813043 -0.020092666 0.017380752
0.021760117 0.030480381 0.05863032 0.002754205 -0.034290254 0.0050045704 -0.037855342 -0.022318304
-0.009134447 0.00164983 -0.009327535 0.02096051 -0.042259943 0.05428673 -0.02981481 -0.019178983
-0.035762277 -0.051038787 -0.016812047 0.009572098 0.013353309 0.026723418 0.018459344 0.059112824
-0.006367085 0.044791557 -0.041864377 0.0014613003 -0.039290123 -0.024365898 -0.042680304 -0.019525453
-0.052667793 -0.0025774292 0.036800668 -0.011001983 0.0006764728 0.04070289 0.030793592 -0.014324454
0.012153474 -0.01920705 -0.04759706 -0.04873088 -0.022969326 -0.001809323 0.01776736 -0.021993196
0.017728975 0.03731285 0.027325759 -0.011862771 -0.016774703 -0.042632207 0.036250032 -0.0658865
0.017065924 -0.028767643 0.055013858 -0.028796159 0.03424493 0.0044352184 -0.02931635 0.0021790185
0.030376358 -0.035516698 -0.007864897 -0.010716548 -0.046321087 -0.0011215211 0.018286375 0.012035694
-0.028032541 0.031610686 0.011695149 0.002308255 -0.041696846 0.04760884 0.013482399 -0.01404996
-0.029935969 0.01091138 -0.00954782 0.027359895 0.0016965749 0.061136957 -0.033835277 0.014227913

adap_l.W.bias f4 [64]
00000000: 3106 a93c 3ca6 933b ab07 583c 3dd1 403c
00000010: 29fd 373c 0a95 043c 0439 3a3d 047e 123d
00000020: 5eae 063d beb2 043d aceb 07bd bb26 923c
00000030: 1893 2abc a55a 693d 3e13 16bd cb04 7e3d
00000040: b2bf cebc 30ac 68bc d6d3 b83c 2dfd 5cbd
00000050: 0e37 0a3b b853 113d 2773 723d b4e4 82bc
00000060: a274 a0bc cec1 5cbd b435 abbc 6dfd 45ba
00000070: 4f55 053d 3fe6 29bd 691b a23c 0b31 51bd
00000080: d738 e73a 5932 a4bb 2ad8 59bd 55b9 813d
00000090: 0eff b9bc 974f 483d 85da 963c cd40 133d
000000a0: d8f5 13bd 9acc 1fba 2872 b0bc 7bb0 123d
000000b0: 8955 813c 09c7 603d ed60 dcbc 2734 9c3c
000000c0: a8ba 03bb 9dfa 5a3c b51c ac3c 3f7d 253d
000000d0: ba85 a5bd 6a74 8cbc 6ebd 163c f36f 243d
000000e0: 8436 ba3c d140 433d 6f2b d3bc b51a 5dbd
000000f0: d197 d43a 7d7f af3c ade4 f63c b751 2bbc
0.020632835 0.0045059007 0.013185422 0.011768636 0.011229792 0.008092174 0.04546453 0.03576471
0.032881133 0.032397024 -0.03318374 0.017840734 -0.010411046 0.05697121 -0.036639445 0.06201629
-0.025237892 -0.014201209 0.022561949 -0.053952385 0.0021089944 0.03548023 0.05919185 -0.015978195
-0.019586865 -0.053895764 -0.020899631 -0.0007552717 0.03255206 -0.041479345 0.01978846 -0.05107216
0.0017640841 -0.0050108847 -0.053184666 0.063341774 -0.022704627 0.048904028 0.018414745 0.03595047
-0.036123127 -0.00060958567 -0.021538809 0.035812836 0.015787857 0.054877315 -0.026901687 0.019067837
-0.002010027 0.013365415 0.021009782 0.040402647 -0.08082147 -0.017145354 0.009200437 0.040145826
0.022731073 0.047669236 -0.025777547 -0.053980548 0.0016219561 0.021423096 0.030138338 -0.010456494

adap_l.h.weight f4 [1, 64]
00000000: a245 1e3d 6304 de3d a59f 0d3c 9e21 0cbe
00000010: c69a 8dbd 87dc 723c 33e7 853d 4ded 913c
00000020: d035 853d fe07 4e3d 526c afbd 8dff e13d
00000030: e279 d7bd cb70 c83d 002b a8bc a0e9 a83d
00000040: 350d be3d b00b d6bd c162 883c ced5 88bd
00000050: 83a7 b9bc f7d4 023d 7403 2e3d e23c 0a3e
00000060: e3e4 dc3d 4e65 fbbd b552 963d d035 b039
00000070: 87e0 82bb 16a4 90bd 78bf e2bd 1f76 59bd
00000080: e407 d6bd 7d8a b5bd 6bb1 2abe 8f8e 0b3d
00000090: 1402 30bd b652 b63d 7fb0 a13d 534a 243d
000000a0: e02b 1dbe 7e8f da3d 00ee 2f3e 7596 543d
000000b0: 2df7 843d 35f4 a33d 405c 8abd 4980 323d
000000c0: 4da8 b53d 7075 df3d c26b 16bc 26f4 ef3c
000000d0: ea3d a3bd 7c53 c5bd 170b b5bd 03bb b83d
000000e0: f997 963d 4db4 af3d e445 38bd a414 e4bd
000000f0: fd06 a73d 9908 cf3c 7ddf ce3d fd60 833d
0.038640626 0.108406805 0.008644019 -0.13684699 -0.06914286 0.014823086 0.065382384 0.01781335
0.065044045 0.05030059 -0.08565582 0.110350706 -0.10521294 0.097871386 -0.020528316 0.082476854
0.09279863 -0.10451448 0.016648652 -0.06681405 -0.022662884 0.03194138 0.042483762 0.13499787
0.10785844 -0.12275182 0.07339994 0.0003360943 -0.003994051 -0.07062547 -0.11071676 -0.053091165
-0.10450724 -0.08864305 -0.16669242 0.0340715 -0.04297073 0.089024946 0.07894992 0.040109944
-0.15348768 0.106719 0.17180634 0.0519013 0.064924575 0.08005563 -0.067558765 0.043579374
0.088699915 0.10911071 -0.009180965 0.029291224 -0.079707935 -0.09635064 -0.08840006 0.09020045
0.07353205 0.085793115 -0.044988528 -0.111367494 0.0815563 0.025272654 0.10101221 0.064149834

st_gcns.0.gcn.conv.bias f4 [64]
00000000: a1f9 68bd 447c ecbd 2954 d23d 29bd bf3d
00000010: 48de d5bc f4d3 a8bd 4c93 223d f974 cc3d
00000020: a684 983d 8518 90bc ec4e ff3c 711c da3c
00000030: 1ce6 413d d4f6 a9bd 467a 263d 4f08 ee3a
00000040: 4b89 05be 71fc 6d3c aec4 e03d 2d8a 41bc
00000050: 27b9 c13d ad44 c0bd f8cf a5bd 737a c63d
00000060: ac70 08bd 86b8 f93c 4c70 913d f128 253d
00000070: 96bd b3bd f131 813c 4bfe ffbc 0825 fa3c
00000080: 17d5 583d 3c5f 843d dc5b f33d 0d63 cbbd
00000090: 1652 853a 7ec9 f63c e5b6 d03b 6f48 a43c
000000a0: ee0a a23d b8e8 553d 5b34 5e3d d3cf ce3d
000000b0: f253 9a3c 90a8 b93d 053a 03bd e238 623d
000000c0: 5f37 cd3c 94e5 f8bd 02b0 e1bd 9117 673d
000000d0: 591c adbd 37cc 6dbd 55b4 0cbd 1d34 1f3d
000000e0: a80c 353e b795 b53d 6171 8c3d db71 bcbd
000000f0: 431c 713d 200f cdbd d811 ecbd 5c4d 7b3d
-0.05687869 -0.11547139 0.102699585 0.09362251 -0.026106969 -0.08243552 0.039691254 0.09983248
0.07447176 -0.017589817 0.031165563 0.02662489 0.04733859 -0.08299032 0.040643953 0.0018160435
-0.13040654 0.014525519 0.10975014 -0.011812729 0.09459143 -0.09388099 -0.080963075 0.09691324
-0.033310577 0.030483495 0.07101497 0.040322248 -0.08776395 0.015770884 -0.031249186 0.030535236
0.052937593 0.06463477 0.11882755 -0.09931002 0.0010171558 0.030125376 0.006369459 0.02005407
0.07912241 0.05222389 0.05424915 0.10098233 0.018838856 0.09065354 -0.032037754 0.05523003
0.025050817 -0.121531636 -0.11019899 0.05641896 -0.084526725 -0.058056083 -0.034351666 0.03886806
0.17680609 0.088664465 0.06857563 -0.09201404 0.058864843 -0.100126505 -0.11526841 0.061353073

st_gcns.0.tcn.0.weight f4 [64]
00000000: 8092 813f 28cc 853f 993f 7e3f fbfc 813f
00000010: ee32 803f 6c20 793f c050 803f 9b4c 7b3f
00000020: 49b5 7a3f ad06 843f 6bd4 813f f27c 7c3f
00000030: 6cd6 7c3f dfed 813f 8255 7f3f fa99 843f
00000040: a4f2 7b3f 150c 813f c41c 803f f29c 803f
00000050: aaae 7c3f 3a33 803f fdba 773f 4f02 813f
00000060: d961 823f 401c 7d3f 57f4 803f 481b 813f
00000070: ddd0 803f 9364 7e3f 68c1 803f 825d 823f
00000080: 028d 7f3f 8b9a 7d3f 5831 7e3f 03ae 833f
00000090: ba34 793f 1097 7f3f af0f 813f ecf1 7e3f
000000a0: 769a 7e3f 2bc2 803f 02f8 7b3f f29b 813f
000000b0: 8e2a 7c3f 1cf7 783f 79d1 753f 4c68 813f
000000c0: 55c9 7e3f 821c 783f a967 803f 9a71 803f
000000d0: cf1b 803f 79f7 7c3f 5444 803f b41f 7f3f
000000e0: ea4e 863f ece8 803f 2716 813f 4db3 7d3f
000000f0: f276 803f 4252 7c3f f2f1 7d3f bfb2 803f
1.0122833 1.0452929 0.9931579 1.0155329 1.0015543 0.97315097 1.0024643 0.98163766
0.9793287 1.0314537 1.014295 0.9862815 0.9876468 1.0150717 0.9973985 1.035949
0.98417115 1.0081812 1.0008779 1.0047896 0.98704016 1.0015633 0.96769696 1.007883
1.0186111 0.9887123 1.0074567 1.008645 1.006374 0.99372214 1.0059023 1.0184786
0.99824536 0.9906394 0.9929404 1.0287479 0.9734608 0.9983988 1.0082911 0.99587893
0.9945444 1.0059255 0.98425305 1.0125716 0.98502433 0.9725206 0.96022755 1.0109954
0.9952596 0.969185 1.0031635 1.0034668 1.0008487 0.98815113 1.0020852 0.9965775
1.0492833 1.0071082 1.0084885 0.99101716 1.0036299 0.98563015 0.99197304 1.0054549

st_gcns.0.tcn.0.bias f4 [64]
00000000: c876 44b9 4aad a13d 7c6c b83c 76af f33c
00000010: 260c 43ba 5ccf 19bc 4aa7 373c aed7 70bc
00000020: 9e29 8dba dea7 943c f611 92bb 95b2 cd3c
00000030: 3071 86bc 268b 723c 5371 e3bb f258 dc3b
00000040: 6bb0 7dbc 95ae b33c 79a0 1d3b 66a5 cfbc
00000050: aa56 9d3c d9b4 cfbc f3bb 51bc a3ec e33c
00000060: de64 c03c 2be4 093b 8a09 24bb e383 a6bc
00000070: b29d 033c 67e1 f83b 4a6a 913c 54e0 543d
00000080: dfef a43c 80d8 073c 5526 6a3b 4de8 fb3b
00000090: 5a1e 35bc da8f 89bb 5b39 1c3c 1a14 f23c
000000a0: 3c15 b23c 03b5 70bc a3d6 193c d316 9a3c
000000b0: 4997 28bc 2769 c3bb 1d3b b43c 8980 023c
000000c0: f443 23bc 63ab 82bc 1dc7 8bbc 70c4 363c
000000d0: f206 7b3c cd45 f7ba a6b6 d63c 1586 04bc
000000e0: 3b57 cc3c 20e1 f93c f95c 88bc 6225 8336
000000f0: 6045 913c 93be 153c 0067 9eba d734 4c3c
-0.00018736266 0.078943804 0.022512667 0.029746752 -0.000744047 -0.009387817 0.011209318 -0.01469986
-0.0010769849 0.018146452 -0.0044577075 0.025109569 -0.016411394 0.014803683 -0.0069409995 0.0067244703
-0.015483956 0.021933833 0.0024051948 -0.025347423 0.019206364 -0.02535479 -0.012801158 0.027822798
0.023485597 0.002104054 -0.00250301 -0.02032656 0.008033203 0.0075952294 0.017750878 0.05197175
0.02013391 0.008291364 0.0035728414 0.0076876045 -0.0110546 -0.0041980566 0.009535159 0.0295506
0.021738641 -0.014691594 0.009389552 0.018809712 -0.010289975 -0.005963463 0.022000844 0.0079652155
-0.009964932 -0.015950864 -0.017062718 0.011155233 0.01532148 -0.0018865407 0.02621014 -0.008088608
0.024943938 0.030502856 -0.016645895 3.908456e-06 0.017733276 0.009139675 -0.001208514 0.01246377

st_gcns.0.tcn.0.running_mean f4 [64]
00000000: 99c2 f73e 86da 57bf aae7 44bd a5e2 213f
00000010: 9c30 a8be 9751 2fbf 7e30 53be 2c24 f03e
00000020: bcef 603f 4442 af3d 31bf 3f3e d290 6dbd
00000030: 4f7d ac3e b756 b6be c09c 6d3f d79b 6a3f
00000040: 8f2f 36bf d500 9cbe 7df2 283f f284 263f
00000050: 1d73 afbc 7517 ffbe 3b5d 83be 43d6 43bb
00000060: 199b 6abf b952 a4be 2e7b 02bc 2307 233f
00000070: 706a 90bf 0980 353e 96c1 4bbf fa7b f3be
00000080: 2d7a ab3d bb86 16bd d243 383f 00d9 b8bd
00000090: e36f 4cbf f7cc 313e 7b83 c33e 3638 a53e
000000a0: eabb 81bf 5eb7 34bf 0b19 20be 07a0 acbd
000000b0: b9fd 2cbf 7a72 80bc e7ff 36be 0017 ac3e
000000c0: 78c8 debd ffe9 01bf 19ba 0bbf e09a 0fbd
000000d0: a71c 30be 61d1 583f a571 033e 1f64 68be
000000e0: a6e1 23bd 0bd0 93bf d535 843d 5e8d 26bf
000000f0: 00ee 2bbf 8199 48be 8a02 ae3e 54cd 82be
0.48390654 -0.84317815 -0.048072495 0.6323646 -0.32849586 -0.6848387 -0.20623967 0.46902597
0.87865806 0.08557561 0.18725277 -0.05799944 0.33689353 -0.35613033 0.92817307 0.9164404
-0.7116632 -0.30469385 0.6599501 0.6504661 -0.021417195 -0.49822584 -0.25657067 -0.0029882349
-0.9164291 -0.32094362 -0.007963939 0.63682765 -1.1282482 0.17724623 -0.79592264 -0.47555524
0.083729126 -0.036749583 0.71978486 -0.090257645 -0.79858226 0.17363344 0.3818625 0.32269448
-1.0135472 -0.70592296 -0.15634553 -0.0842896 -0.6757465 -0.015679587 -0.17871056 0.33611298
-0.1087808 -0.50747675 -0.5458084 -0.03505981 -0.1719843 0.84694487 0.1283632 -0.22694443
-0.040010117 -1.1547865 0.0645558 -0.6505946 -0.67160034 -0.19589807 0.33986312 -0.25547278

st_gcns.0.tcn.0.running_var f4 [64]
00000000: a6f9 703d bb90 003e ff95 143d 06f1 8a3e
00000010: 87b7 583d f793 f73d ccb9 953d f4a6 3c3d
00000020: 318f 4a3e d0b5 223d 5534 7f3d 1420 253d
00000030: beee 603c 8f04 973d d9f1 f53d f210 4a3e
00000040: baa4 5d3d 7b88 b33e 5b96 e73e be03 163e
00000050: 31ae 5c3c ec1e ce3d 708f 683e 8558 103d
00000060: d9d2 1e3f 9085 2c3d f56d 943d 1a77 463d
00000070: 5fd5 103e 70d8 843c 7f73 3f3e e131 283d
00000080: 1adc 023e 4c98 933e 0cf1 943d c40c be3d
00000090: 2a42 723e b4a1 1d3d 067a 433d 21dd dc3d
000000a0: b560 da3d 7f0d 163e 8bc6 943c b54d 3b3d
000000b0: e9c2 4d3e 9631 0e3e c5ac 263d ae88 5c3e
000000c0: eae8 463d ad15 fd3d cdbb 163d bb89 273e
000000d0: ba77 b53d d33c 0b3e 8a56 833d 06e0 d53d
000000e0: b58d 8c3d c00d 8a3e e89c 1b3d e3b9 a03e
000000f0: bc25 cf3d 08d2 573e 4841 2f3d 6e66 443c
0.058831833 0.1255521 0.03627586 0.2713701 0.0529094 0.12088769 0.073108286 0.046057656
0.19781186 0.03972417 0.062305767 0.040313795 0.013728796 0.07373916 0.120090194 0.19733027
0.054112174 0.35065064 0.452319 0.14649865 0.013469265 0.10064492 0.22710967 0.03524067
0.6204048 0.042119563 0.07247535 0.048453428 0.14143895 0.016216487 0.18696402 0.041063193
0.12779275 0.2882713 0.072725385 0.092797786 0.23658052 0.03848429 0.047723792 0.107843645
0.10662977 0.14653586 0.018161079 0.045728404 0.20093884 0.13886103 0.04069211 0.21536514
0.048561968 0.1235765 0.036800195 0.16361134 0.08860727 0.13597421 0.064129904 0.1044312
0.06862966 0.26963615 0.037991434 0.3139182 0.10114619 0.21076214 0.042786866 0.011987312

st_gcns.0.tcn.2.weight f4 [64, 64, 3, 1]
00000000: dda7 3ebd 57b8 b6bc f5c7 5dbd 3493 64bb
00000010: f93a 8dbd 1d6c a3bc 155e 933c dad1 013c
00000020: ff4e 213d 3ba1 7dbd 0235 8dbd 4464 f3b9
00000030: 3510 a93c 58ca 883c 9aee 5bbd d242 7e3c
00000040: 0599 e73b be3e 72bb 3a46 b5bc f236 18bc
00000050: 3548 3fbc e80c 6fbc b6a5 59bd cb75 233d
00000060: 6012 573d ffec 2ebd 831d 5bbd 0594 893d
00000070: 9cc6 943d 40a5 d6bc 1b80 d03a 3216 8a3d
00000080: 1305 373c eb9d 8dbd 35c4 0bbd 930d 253d
00000090: b49c 183d 6471 53bd 98ef 38bd 4e97 acbc
000000a0: 2a49 a2ba c17a 243d 56d9 87bc 64b8 50bd
000000b0: eb79 383c f9eb 223d 0f79 1d3d 5c20 c0bd
000000c0: f5f9 ae3d 62a6 263d 3342 8d3c 7039 123d
000000d0: 5588 6ebd cc31 1dbd c8b1 aa3b f25f b53c
000000e0: dfae 1ebd bb16 5ebd 817c fc3c 1147 ccbc
000000f0: 478d bd3c aff2 453d e7cd 1fbd 46dd 2d3d
00000100: 4372 97bd e070 233d 3973 3c3d 652c 0abd
00000110: 4b05 60bd 27bd 6ebd f09d 38bc ba33 683c
00000120: 48cf 563c 78f4 9d3d 76aa 0e3b ed63 e93c
00000130: a7b6 08bd d36b dabc 6f4f 963c 99a0 7a3d
00000140: 6bcc 9d3b 03dc 98bb 749c a03d e12b 8fbc
00000150: 5c9b dc3c b939 17bd 3526 823c 70d4 443d
00000160: 8bd3 383c bc91 8c3d 7481 753b 60d0 6fbd
00000170: 5da5 2cbd 9b3e 843d f414 7ebd 1fc7 e53c
00000180: 44dc e7bc 698c 263d 354e 34bd f484 7abd
00000190: 3ad9 52bd 04d2 ddbb 6b9a 5dbd 90aa b9bb
000001a0: 789d 9bbd dbb3 1d3c c06b b6bc 9629 08bd
000001b0: e5fc 4abd fc0c 20bd c0e7 8d3d 75da 51bc
000001c0: 59ad ff3b 0052 373d 0f1a 67bd a4c2 8c3d
000001d0: 1b55 8abc 1829 4cbd a568 45bd 9d96 963b
000001e0: 969f 01bd 61b8 393c f0fa 95bc 2f80 97bd
000001f0: 5331 a53c 893a 913d d7c3 cc3c 0401 5bbb
00000200: 8032 e73c 20fb 263c dbcd 0f3c d038 58bb
00000210: 39f5 933d 1822 6b3d d60b 8d3b 65ca 3bbd
00000220: e783 3d3d b272 19bd 35b2 533d 90aa 803c
00000230: df74 82bd e304 6d3d a2ba 05bd 770a 603d
00000240: c37b 863d 8732 cebc 05fd 5fbd f01c 4abd
00000250: 45e5 c5bc 8c73 61bd d35d 2f3d a59b a0bd
00000260: f8f2 e83c 35b4 3dbc 0669 393d e79b f9bc
00000270: 1939 e6bc 1423 b4bc ebf8 8a3d 5916 3abd
00000280: 2afe a53d 51ef 29bd dbc5 4bbc baca 39bc
00000290: 0283 42bd 5911 8d3d 7a30 04bd ae3e a83b
000002a0: f0aa 40bd 8489 293d 32b5 1c3d f263 653d
000002b0: a4f0 05bd b2d5 7e3d daf0 4b3a a0a8 233d
000002c0: e43b 73bd 3cd8 7ebb 8190 e43c 4faf 95bc
000002d0: be5e 8ebd f535 783d 6d8a 103d 3dec 103d
000002e0: c298 213d f427 46bd 09d6 69bd 4164 9e3d
000002f0: 6fe4 8ebd b309 87bc 05a3 3e3d a2a9 47bd
00000300: 5a56 6a3c b1f5 c8bd 56e9 a13d 73c4 b5bc
00000310: ae59 bebc 3e9d 293d e4df 7dbd 88b9 56bc
00000320: 6f1e 043d bd5f 113d 8dbe dc3c 11da 5e3d
00000330: 62cb febc 1d81 81bc 22ba 51ba 4428 533d
00000340: 8210 7fbd 2ba4 af3b 9d13 62bd 6e42 98bd
00000350: e897 e0bc 82d2 8f3c 0c15 0a3c 331e adba
00000360: 44bb 233d fc90 2dbd aadf 88bd 4b59 163d
00000370: 46cd 913b 78b2 de3c 0abc 84bc 918f 8c3c
00000380: eb26 cd3c 22fc 8e3c 4014 3a3d 642e b93c
00000390: aae5 b2bc 5dd8 943b bf12 3bbd 4f63 8fbd
000003a0: 264d dfba 12cd 92bd b0c4 46bd 3b1c cbbd
000003b0: cd57 80bc 886b 2f3d 5b44 2fb9 3448 8a3d
000003c0: ce33 13bd abb9 4e3c 97e4 09bd a8f9 9bbd
000003d0: 6e5e 153d d116 e73c 5eac b5bc aa85 cc3c
000003e0: c5f3 153d 6b0b e5bc bb6b 85bd b87e 38bd
000003f0: ffee 403d 76c6 c93c 2920 ce3c 7717 7fbd
-0.046546806 -0.022304697 -0.054145772 -0.003487778 -0.06896014 -0.019949013 0.017989198 0.007923568
0.039381977 -0.06192134 -0.06894876 -0.00046423275 0.02063761 0.016698048 -0.053694345 0.015518861
0.007067802 -0.0036963667 -0.022128213 -0.009290444 -0.01167493 -0.014590479 -0.05313655 0.039907258
0.05250776 -0.042706486 -0.05349494 0.067176856 0.07264444 -0.026201844 0.0015907319 0.06742515
0.011170643 -0.06914886 -0.034122664 0.04029615 0.03725882 -0.05162181 -0.04515037 -0.021068241
-0.0012381424 0.04015613 -0.016583126 -0.0509571 0.011259536 0.039775822 0.03844553 -0.09381172
0.08543769 0.04068602 0.01724348 0.035699308 -0.058235485 -0.038377568 0.0052091815 0.022140477
-0.03874099 -0.054220896 0.030821087 -0.02493623 0.023138655 0.048327144 -0.039014723 0.04244735
-0.073948406 0.039902568 0.046008322 -0.033733744 -0.054692548 -0.05828586 -0.011268124 0.014172489
0.013110943 0.07712644 0.0021769083 0.028490031 -0.033377316 -0.026662743 0.018348424 0.061188314
0.0048156283 -0.0046648993 0.07842341 -0.017476978 0.02692955 -0.036920283 0.01588736 0.04805416
0.0112809045 0.06863734 0.0037461193 -0.05854833 -0.04214989 0.064572535 -0.0620317 0.02804905
-0.028303273 0.04066125 -0.044019897 -0.06116195 -0.051476695 -0.0067694206 -0.054102343 -0.0056660846
-0.07598394 0.0096254 -0.022268176 -0.033242784 -0.049557585 -0.039074883 0.069289684 -0.012808432
0.007802647 0.044755936 -0.056421336 0.06873062 -0.016886285 -0.049843878 -0.0481955 0.004595591
-0.031646334 0.011335463 -0.018308133 -0.07397496 0.020165121 0.07091243 0.024995727 -0.0033417353
0.028222322 0.010191709 0.008777107 -0.0032992847 0.07224507 0.05740556 0.0043043895 -0.045847315
0.04626837 -0.037462898 0.051683623 0.01570633 -0.06369948 0.05786599 -0.03264869 0.05469748
0.065665744 -0.025170578 -0.054684658 -0.049344003 -0.024157176 -0.055041835 0.042814087 -0.07842187
0.028436169 -0.011578609 0.045266174 -0.030469848 -0.028103398 -0.021989383 0.067857586 -0.04543147
0.081051186 -0.041487996 -0.012437309 -0.011339838 -0.04748822 0.068880744 -0.032272793 0.005134425
-0.04703802 0.04139091 0.03825874 0.05600352 -0.032700196 0.062215514 0.0007779725 0.039955735
-0.059383288 -0.003888621 0.027900936 -0.01827207 -0.069516644 0.060598332 0.035288263 0.035381544
0.03945232 -0.048377946 -0.057088885 0.07733966 -0.06977164 -0.016484117 0.046542186 -0.04874576
0.014302814 -0.09812487 0.079058334 -0.0221884 -0.023236122 0.041409723 -0.061981097 -0.013105758
0.032255586 0.035491694 0.02694633 0.054407183 -0.03110284 -0.015808636 -0.0008000453 0.051552072
-0.062271602 0.0053601465 -0.055194486 -0.074345455 -0.027416185 0.017556433 0.0084278695 -0.0013207853
0.039973512 -0.042374596 -0.066832855 0.03670625 0.0044495193 0.02718471 -0.016202945 0.017158302
0.025042972 0.01745421 0.04542947 0.022605129 -0.021838028 0.004542394 -0.045672175 -0.070013635
-0.0017036542 -0.0716802 -0.04852742 -0.09917494 -0.015666867 0.04282716 -0.00016714765 0.06752053
-0.035938077 0.012617509 -0.033665266 -0.076159775 0.03646701 0.028209122 -0.022176918 0.02496608
0.03660943 -0.027959546 -0.065146886 -0.045042723 0.047102924 0.024630766 0.02516182 -0.062278237

st_gcns.0.tcn.2.bias f4 [64]
00000000: 0347 c73c 733e 863c a255 3bbd acb5 543d
00000010: 24a3 233c e8c8 99b9 6b77 5fbd c57d d83c
00000020: 2f63 3bba 9fbf db3b 3fa5 323d 71fa 493d
00000030: 45cc cf38 6ca4 94bd 6856 57bd 3490 58bd
00000040: c68b 633d bb0d f73a 113f 34bb 1388 723d
00000050: 1732 b0bc 1555 84bd b9da 6d3c 3bda 543d
00000060: 5b7f f33c aba1 b5bc 44c7 1fbd 4f93 64bd
00000070: e6d3 c6bc f106 a8bb 76e0 e83c 2827 5abd
00000080: e09a ec3c a96e 9c3d 544c f1bc 2bda 59bd
00000090: 21c0 1dbd b7c8 67bb be8a e83c f42d 433d
000000a0: 7b3a 85bd 20b3 033d dbc1 63bc 9c48 e13c
000000b0: 83d3 693d 4a9b 88bd 02d1 0fbd 537e e03c
000000c0: 39db a0bd 6b77 d33c 7efa a83c 2954 58bd
000000d0: 5039 45bd df55 083d c4ce cd3c 44f5 143d
000000e0: 446a 1bbd 7b6a 80bd 3456 6dbd cfda 2abd
000000f0: 1021 8fbd 80af 87bd 0f5b 953c d266 933c
0.024325853 0.0163872 -0.045735963 0.05193107 0.009987626 -0.0002933212 -0.054557245 0.02642716
-0.00071482634 0.0067061926 0.043614622 0.049311105 9.908577e-05 -0.072579235 -0.052572638 -0.052871898
0.05555322 0.0018848696 -0.002750341 0.0592118 -0.02150826 -0.064615406 0.01451748 0.051965933
0.029723814 -0.022171816 -0.039008394 -0.055804547 -0.024270963 -0.0051277806 0.028427344 -0.05326
0.028882444 0.07638294 -0.029455341 -0.053186577 -0.038513307 -0.0035367438 0.02838647 0.047651246
-0.06505295 0.03215325 -0.013901199 0.027500443 0.05708648 -0.06670244 -0.035111435 0.027403986
-0.078543134 0.025813779 0.020627256 -0.052814636 -0.04815036 0.033285018 0.025123008 0.036366716
-0.03794314 -0.062703095 -0.057943538 -0.04171258 -0.06988728 -0.06625271 0.018231897 0.017993364

st_gcns.0.tcn.3.weight f4 [64]
00000000: a67d 793f 0983 7b3f 2f0d 803f 1f76 783f
00000010: 0484 6c3f cda8 7f3f a694 783f 63b8 7f3f
00000020: b101 7b3f 79f3 7c3f 13b8 7a3f b9bd 7d3f
00000030: b8b3 823f 38bf 783f 1944 813f 227d 793f
00000040: b1a0 803f 5595 7d3f 51eb 833f ed2d 7a3f
00000050: b45b 7e3f c61a 813f 78ac 7d3f cd76 803f
00000060: 1b08 813f 894c 783f 9bf6 813f c636 793f
00000070: 25eb 7a3f 3ac2 713f 5ba8 803f b43f 823f
00000080: 1b03 743f ede5 7f3f 4b9f 703f 7f92 7d3f
00000090: 838a 793f dbf4 783f 6711 7c3f 9f15 7a3f
000000a0: 66b2 773f 0dea 7b3f 3948 773f 24e3 7c3f
000000b0: a767 7d3f 07cf 7e3f 4786 7e3f 994c 7f3f
000000c0: 6dc4 7f3f 764d 7f3f c399 813f 663c 7e3f
000000d0: 7cf2 7b3f 548a 773f 040a 773f de5f 803f
000000e0: f318 7a3f 0e07 7a3f 9aa8 7c3f 3706 723f
000000f0: 5bdc 7b3f 84c9 7a3f 4db1 7b3f 538f 7a3f
0.9745735 0.9824682 1.0004023 0.9705524 0.9238894 0.99866945 0.9710182 0.99890727
0.98049456 0.9880901 0.97937125 0.9911762 1.0211096 0.97166777 1.0098907 0.9745656
1.0049039 0.9905599 1.0306188 0.9772633 0.9935868 1.0086296 0.9909129 1.0036255
1.0080599 0.96991783 1.0153383 0.973492 0.9801505 0.9443699 1.0051378 1.0175691
0.9531724 0.99960214 0.9399306 0.9905166 0.9747698 0.9724862 0.98464054 0.9768924
0.9675659 0.9840401 0.9659458 0.9878409 0.98986286 0.9953465 0.9942364 0.99726254
0.99909097 0.9972757 1.0125049 0.9931091 0.98416877 0.96695447 0.9649966 1.0029256
0.9769432 0.97667015 0.98694766 0.94540733 0.9838311 0.9796374 0.98317415 0.97874945

st_gcns.0.tcn.3.bias f4 [64]
00000000: 6d07 1dbc e427 c4bb 0cc1 83bc 04fd efbc
00000010: 4d72 9bbc b4aa d0bc 23c0 3ebc cc46 fdbc
00000020: b016 4d3d b864 00bd 6e56 4dbd fdab 4dbd
00000030: 9ec1 9dbc 42c4 03bd ab11 8dbb 5148 93bc
00000040: f040 1bbc c3b0 2cbc 130f 9dbb a1bf 57bd
00000050: 1939 63bd b8d5 29bd 330c 70bc 4fda 973c
00000060: 5556 04bd 4d21 cabc 6400 c63b 9b44 f6bc
00000070: 88ba 43bc 69c7 11bd 31bd 19bc c8b1 aebd
00000080: 513c 7ebd 984d 0cbd bb3a a5bc 1e17 a8bc
00000090: 64b5 f1bc b84d 4dbd e085 afbc 55f1 1bbd
000000a0: 812c f2bb ac95 ffbc a346 82bc 5b0e 25bd
000000b0: dd1a edbc 7c76 a7bb 3bf8 e33b 0170 8dbc
000000c0: 1885 13bc a9ba 46bd d4e9 f0bc 5e64 31bb
000000d0: 64a0 40bc 6188 163b c3d9 27bd fb55 a0bd
000000e0: 62ab 40bd cbb4 813d bab9 05bd c0b0 babd
000000f0: 846d acbb 76b8 c4bc 478c acbc b3f5 18bd
-0.00958429 -0.0059862006 -0.016083263 -0.029295452 -0.018975401 -0.025472023 -0.011642489 -0.030917548
0.050070465 -0.031346053 -0.050131254 -0.05021285 -0.019257363 -0.032169588 -0.0043050847 -0.01797882
-0.0094759315 -0.01054019 -0.0047930568 -0.052672986 -0.055474374 -0.041463584 -0.014651346 0.018536715
-0.032308895 -0.024674082 0.006042527 -0.03006201 -0.011946328 -0.035590563 -0.009383486 -0.08530003
-0.06206924 -0.034253687 -0.020169606 -0.020518836 -0.02950544 -0.050122947 -0.021426141 -0.03807195
-0.007390559 -0.031199299 -0.015902823 -0.040296894 -0.028943473 -0.00511056 0.0069570816 -0.017265322
-0.0090039 -0.048517857 -0.029408373 -0.002706788 -0.01175699 0.0022969472 -0.040979158 -0.078288995
-0.047038443 0.06333312 -0.032647826 -0.09115744 -0.0052620787 -0.02401374 -0.021062983 -0.037343692

st_gcns.0.tcn.3.running_mean f4 [64]
00000000: ed23 b0bd c14e b9bd 648c 893e 653e ae3d
00000010: 2106 d13e 62e3 b6be 4ee5 c0be 372a 873d
00000020: 15a8 8c3e a31d 71bd 8910 503e b755 ca3e
00000030: 0c01 753e 7f21 4dbd 2809 72be 2a3e ce3c
00000040: 4cd1 bfbe c2a0 febe d778 11bf 9fcf 26bd
00000050: 221d 7c3c 34dc 27bc ff40 f63d 4e47 8fbe
00000060: 2ce7 31bd 0578 f5bd fcca 483e d580 963e
00000070: 732a d4bc 03ac 49be c9d8 c73d 64a5 843e
00000080: 04ae b73e 420b 05bf e60e 78be c9c8 49be
00000090: 3e2a 213e 3832 163d 0f8c 463e 1d03 18bd
000000a0: db63 883d c3b3 943d ede4 ca3e de0a 953e
000000b0: 1122 7abd c2ba cebe 7101 05bc 65a3 0f3c
000000c0: 9a36 9bbe dc7a 373e 3d56 533e 2077 42be
000000d0: acb2 09be bdfb cfbe 710d 793e d488 313e
000000e0: 20ef c63e da53 b2bd d475 733e 5f49 203e
000000f0: e1c4 c7be 7eb5 97be 870e 80be 6fcd 153f
-0.08600602 -0.09048224 0.26864922 0.085079946 0.40824988 -0.35720354 -0.37674946 0.06599849
0.27471986 -0.058866154 0.20318808 0.3951852 0.2392618 -0.050080772 -0.23636305 0.025176127
-0.37464368 -0.49732023 -0.5682501 -0.040725347 0.015387805 -0.010245372 0.12024116 -0.2798409
-0.043433353 -0.119857825 0.19608682 0.29395166 -0.025899148 -0.19694524 0.09758145 0.25907433
0.3587495 -0.51970303 -0.24224433 -0.197055 0.1573877 0.036668986 0.19389366 -0.037112344
0.06659671 0.07260849 0.39627782 0.29109854 -0.061067645 -0.4037686 -0.008118019 0.008766984
-0.30315095 0.17917961 0.20638366 -0.18990755 -0.13447064 -0.4062175 0.24321534 0.17337352
0.38854313 -0.087074 0.23775417 0.15652989 -0.39017394 -0.29630655 -0.25011083 0.5851659

st_gcns.0.tcn.3.running_var f4 [64]
00000000: 38c3 243e 7892 433e 8d3f 3a3f 876a d43e
00000010: 982a 953e a6e6 963e a641 bb3e 8357 d43d
00000020: edc1 273f 7acd f73e 74fd 043f e94a c73e
00000030: fa4e 3f3e 39d1 8e3e af7c be3e 00c1 923e
00000040: 3364 dc3e cb83 953f 75d1 c83e 15ee 913e
00000050: 3fac 893e 2914 423e 5acc f43e e487 c13e
00000060: 72f9 913f f20a 7a3e e457 8c3e 4a5f 963e
00000070: 157f 493e a020 f43e d77e 393e 2d95 183f
00000080: be8d 6e3e f6a6 ef3e 091c 143f 89bd 643e
00000090: ed36 853e 6880 a23e feaf d53d 626a 6c3e
000000a0: e8c2 693e b6e5 a43e d895 253f c48b 7a3e
000000b0: 3b96 fc3e cad3 983e 5af9 773e 60af 9f3e
000000c0: 4398 033f ab35 423e 8f20 503f 59bf ab3e
000000d0: 72b2 d53e 8908 aa3e 1a5a b23e c78c 073f
000000e0: 2b9a 8b3e 0065 f83e 946e a63e 0000 c93d
000000f0: 2094 bc3e ced0 6c3e 3ab0 0e3f 5b27 023f
0.16090095 0.19098842 0.7275322 0.41487524 0.2913406 0.29472846 0.36573523 0.10368254
0.6553028 0.48398954 0.5194924 0.3892434 0.18682471 0.27894 0.372045 0.28662872
0.43045196 1.1680845 0.39222303 0.28501955 0.26889226 0.18953003 0.47812158 0.3779899
1.140425 0.24418238 0.27410805 0.29369575 0.19677384 0.4768114 0.18114792 0.59602624
0.23296258 0.4680707 0.5785528 0.22337927 0.26018468 0.3173859 0.104339585 0.23087457
0.22828257 0.32206506 0.6468177 0.24467379 0.49333367 0.29849082 0.24216214 0.31188488
0.5140421 0.18965785 0.8129968 0.33544424 0.41737705 0.33209637 0.34834367 0.52949184
0.27266058 0.48514557 0.3250624 0.09814453 0.3683176 0.23126528 0.5573765 0.508413

st_gcns.1.gcn.conv.weight f4 [5, 64, 1, 1]
00000000: bc83 e5bd 23c1 023e 3c01 dcbd 3d25 e33d
00000010: b553 e93b 5085 393c 215c 063c b51b 6ebd
00000020: c16e 913d dc9d 5f3c 83e9 4c3d a88b 5bbc
00000030: 6cbc 19be 5818 3bbd 0e7e 853d 3497 8c3d
00000040: 53f3 a4bd 8453 913d b835 cfbc 8bb0 bcbc
00000050: 5beb a3bc fb99 18bd 7ade 8e3d 8f84 c43d
00000060: 9d16 a3bd 5f7d 0cbd edbb 9fbd c81e 97bd
00000070: 4204 72bd 4e21 25bd 1cea 74bb 9797 acbc
00000080: 87c2 edbd 542f 85bc aeab 79bd e17d d43d
00000090: de60 e23d de95 94bc 373c 7a3c cb52 393d
000000a0: cdfa f63d e936 99bc e867 bbbc d421 11bb
000000b0: dd70 80bd 9c84 393d 42ee 97bd 3997 193c
000000c0: c5b8 2b3d d51e 37bd cec6 b8bc 64c7 093d
000000d0: 0586 b03d dc4f a93d d451 2ebd 3ade 403d
000000e0: 40f4 b4bd 65c7 fa3d 6209 4abd 3358 7cbc
000000f0: 39a5 9ebc 538a 2abb 899c 29bd ffc4 87bd
00000100: 94ce b03d 2a6c d6bd bf26 d4bd fb98 9b3c
00000110: 4f11 093b 354b 23be f9c6 9bbd 9bb4 6c3d
00000120: e043 cf3d 2714 cfbd 566a dfbd 35fc d93d
00000130: f822 d4bc cefc 6bbd 8b8c 90bd 45ac 48bd
00000140: 85a9 803d d640 cf3d c148 fb3b 22db 6dbc
00000150: 400b 493b 4054 da3c 3fe2 f8bd 574c 853c
00000160: 1101 96bd 40cf 0dbd 7f95 e23d 8265 9bbd
00000170: 96e4 d53d c676 4b3b 46ec 8bbd de8d 2bbc
00000180: 554b 623c c3e0 74bb b2a0 8d3d 5947 533b
00000190: fa2d c93d 18da 8fbd d6c7 ed3d 5398 443d
000001a0: ea89 da3d 5b0e 483d 72f9 b7bd c95c 583d
000001b0: c8e1 e5bd 9ba1 e0bd f09f 04be e12a 42bd
000001c0: af69 b83d 4191 8fbd bcb9 873d 8328 ab3c
000001d0: 0ca8 d23c c18f 123d 2ba0 0abe 533d 1b3d
000001e0: 6c33 01bd 378d ddbd e61f 02be 0baf d1bb
000001f0: 95a9 47bb 4715 843d f41a e3bd ad47 dc3d
00000200: b306 0bbc 48ca 1b3c 8039 473c d915 d63c
00000210: 1842 4fbc 7d49 88bd 6b97 db3d da18 a23d
00000220: ed03 f4bd 9a2c c23c 9b71 09bd f7d7 1e3d
00000230: 2147 e9bd b5a0 7f3d 9725 fd39 ab7f 56bd
00000240: 149a 20bc 4884 d8bc 4f4f 5f3d e7dc 8c3c
00000250: 6ac5 b83d 90cb 883c d30b 3d3c cdc2 c6bd
00000260: 690c 7cbc 7b22 83bb 389d 2cbd 3cf4 793d
00000270: 6d9d a2bb 787d 3cbd 514f 1cbe f59a 13be
00000280: 0b5c 243d c40c cb3d 6037 83bd a392 f73d
00000290: e989 a5bd ee06 c8bd 4c36 bf3c 621e ddbd
000002a0: 7a86 8e3c ae6e 23bc 3654 013e adad b7bd
000002b0: e0e4 c4bd 3ece 913c 137a 0ebe 3817 ed3d
000002c0: 0918 38bd 9fa1 a13d 0a71 8fbc afc0 f6bd
000002d0: fa47 51bd 9ccd 2abb 55da c13d 4cd1 84bd
000002e0: ecdb 89bd f9be 98bd f78b 103d 846b a33d
000002f0: 999d da3c 63a7 913d b98d 3f3d 9d62 01bd
00000300: 05f8 f33d cd8b 59bd 2b6a 4abc d8cf 783d
00000310: 3008 2fbc ab78 7fbd bf22 8fbd eec2 743d
00000320: c729 adbc 43dd 87bc 6faf d4bd 4bd1 063d
00000330: e46e 62bd d0e0 b2bc d6b9 e8bd 0134 fc3c
00000340: 4f46 c1bd 6a0e b23d a9fb ffbd ef84 973a
00000350: 3d10 0abd 33b3 143d c833 b53d d6a7 ebbd
00000360: 807f 3e3b a7c5 ce3d ff67 a8bd 3224 eb3d
00000370: a647 a2bd 2b0e 833c 472b 813d d6ab adbd
00000380: 3d60 543d 27e0 48bd 48a6 91bc 0260 a83d
00000390: 6671 f4bd b4aa 903c 0e66 2ebd 093b 6a3c
000003a0: de78 15bc bb78 d13d dc11 32bd 9f46 89bb
000003b0: 118c ac3d 2198 5a3d 19ee f13c 42a3 2cbd
000003c0: a969 7f3d dfb2 d63d e8a2 a8bc d7da 66bb
000003d0: f42c 03be 5f0d ab3d 980e dcbd 1319 e3bc
000003e0: 666e f53c 13b4 8abd a610 513c 728e b2bd
000003f0: 9905 fe3d 7330 87bd c7a9 7bbd edc8 893d
-0.11206767 0.12768988 -0.10742423 0.11091087 0.0071205744 0.011323288 0.008200676 -0.058131892
0.07101203 0.013648476 0.05002738 -0.013399996 -0.15013283 -0.045677513 0.06518184 0.06864777
-0.08054223 0.070960075 -0.02529417 -0.023033401 -0.020009687 -0.037256222 0.06976028 0.09595596
-0.079632975 -0.03429925 -0.07799516 -0.07378918 -0.05908609 -0.040314965 -0.0037370985 -0.021068377
-0.11609369 -0.01625792 -0.060954742 0.10375572 0.11053632 -0.018137868 0.015273145 0.045244973
0.12059555 -0.018702941 -0.022876695 -0.0022145407 -0.06271527 0.04529248 -0.07418491 0.009374433
0.041924257 -0.044707138 -0.022555735 0.03363742 0.08619312 0.08267185 -0.042558506 0.04708693
-0.088356495 0.12245063 -0.049325354 -0.015401888 -0.019365894 -0.002602239 -0.04140905 -0.06629371
0.08633152 -0.104698494 -0.10358953 0.018993845 0.0020914858 -0.15946658 -0.076063104 0.057789426
0.10120368 -0.10111266 -0.10908954 0.10643808 -0.02589558 -0.05761414 -0.070580564 -0.048992414
0.06282333 0.10119788 0.007668585 -0.014517577 0.0030676872 0.026651502 -0.12152528 0.016271753
-0.07324422 -0.034621477 0.1106367 -0.075877205 0.1044399 0.0031046136 -0.06832175 -0.0104708355
0.013811906 -0.0037365414 0.06915416 0.0032238571 0.098232225 -0.0702402 0.11610381 0.04799683
0.10670836 0.048841815 -0.08983125 0.05282286 -0.11224705 -0.10968324 -0.12951636 -0.047404174
0.090045325 -0.07010127 0.06627223 0.02089334 0.025714897 0.035781626 -0.13537662 0.03790028
-0.03154318 -0.1081795 -0.12707481 -0.0063990406 -0.003046607 0.06449371 -0.11089125 0.107558586
-0.008485484 0.009508677 0.012159705 0.026133465 -0.012650035 -0.06654642 0.1072224 0.07914896
-0.11914811 0.023702908 -0.03355561 0.03878018 -0.1139052 0.06240912 0.00048283927 -0.052367847
-0.00980236 -0.026430264 0.054518994 0.017195178 0.09022029 0.016698629 0.011538464 -0.09705124
-0.015383818 -0.004001913 -0.042142123 0.061023936 -0.0049626143 -0.046018094 -0.15264632 -0.1441458
0.04012684 0.09914544 -0.06407046 0.120885156 -0.08082945 -0.09766947 0.02334132 -0.10796811
0.017398108 -0.009975119 0.1262978 -0.08968673 -0.09613967 0.01779854 -0.13913755 0.11576694
-0.044944797 0.07892155 -0.017509956 -0.1204847 -0.051094033 -0.0026062494 0.09465472 -0.06485233
-0.067314 -0.074583 0.03528973 0.07979491 0.026686477 0.071120046 0.046766017 -0.031588186
0.1191254 -0.05311184 -0.012354414 0.06074509 -0.010683104 -0.062370937 -0.06989049 0.059756212
-0.021138085 -0.016584998 -0.10385024 0.03291444 -0.055281535 -0.021835715 -0.113635704 0.030786516
-0.094372384 0.086941555 -0.12499172 0.0011560003 -0.033706892 0.03630371 0.08847767 -0.115066215
0.0029067695 0.10096293 -0.08222961 0.11481513 -0.07923822 0.015997967 0.063070826 -0.08480041
0.051849592 -0.049041893 -0.017779484 0.08221437 -0.119356915 0.017659523 -0.042577796 0.014296302
-0.009123055 0.10228106 -0.043474063 -0.004189327 0.08425153 0.053367738 0.02953248 -0.042147882
0.062356625 0.10483336 -0.020585492 -0.0035225654 -0.12810117 0.0835216 -0.10744971 -0.027721917
0.029959869 -0.06772628 0.012760317 -0.087185755 0.124034114 -0.06601038 -0.06144121 0.06727777

st_gcns.1.gcn.conv.bias f4 [5]
00000000: 73fa bbbd 404d 843d fb0b 0cbd eba7 97bd
00000010: 2d3e ebbd
-0.09178629 0.06460047 -0.034191113 -0.07405075 -0.114864685

st_gcns.1.tcn.0.weight f4 [5]
00000000: 4166 7a3f 2bf4 833f 388d 863f 3436 693f
00000010: dc67 7f3f
0.9781228 1.0308889 1.0511847 0.9109833 0.9976785

st_gcns.1.tcn.0.bias f4 [5]
00000000: e0fe 813c 146c 833c 00ac 823d f637 58bd
00000010: 9662 9d3c
0.015868604 0.016042747 0.06380463 -0.052787744 0.019212049

st_gcns.1.tcn.0.running_mean f4 [5]
00000000: 82c7 81be f53e ecbe d75e dabe 342b dabe
00000010: e91e 46be
-0.25347525 -0.46141782 -0.42650482 -0.42611086 -0.19347729

st_gcns.1.tcn.0.running_var f4 [5]
00000000: 673f 573e 641c 613e a739 613e 6ea3 453e
00000010: bea1 003e
0.2102028 0.21983486 0.21994649 0.19300625 0.125617

st_gcns.1.tcn.2.weight f4 [5, 5, 3, 1]
00000000: c8e5 873e 6d6b cbbd ebf8 2f3e e5ab 10be
00000010: 9713 69bd a0ff acbd d883 433e 269f 80be
00000020: c5fc 5dbe 95b6 583e 1008 a9bd 34b0 a83d
00000030: 028d ac3d 7b98 06be db5a 743e 0aa3 1d3e
00000040: f34f 26be a679 863e 0174 07be d8a8 2a3e
00000050: f598 703e dedc 27be a667 dbbd 7d13 673e
00000060: 37c5 413e 725b a3bd 9a86 1dbe 3641 00be
00000070: 8a12 413e 35a4 f0bd b6ba 36bd 4c52 923d
00000080: e8d6 8c3e fbbe 85be e9f6 3f3e 24b3 693e
00000090: 9e81 4c3e d87e 8e3d df67 e1bc c6f7 303c
000000a0: 0503 393e b714 45be c2d8 3abe 2910 5abe
000000b0: c063 73be eb11 5dbe 8f1a d7bb f940 133e
000000c0: d85b 0bbe dba6 423e a5f0 3bbd defb 03be
000000d0: f781 80be 27c4 62be 92c6 523e 69d8 c8bb
000000e0: 4306 9e3d 9fc3 b23d da39 88bd d6e6 4abd
000000f0: aeda f13d 75df 793c 295f d6bc 3edb 04be
00000100: 43a3 94be 8eac f0bd 4bef 47be d5e1 883c
00000110: 2f92 8b3e 1af4 963d f3d5 44be dd58 073e
00000120: 0102 0a3e a261 99bc 544c 173e
0.26542497 -0.09932599 0.17184798 -0.14128073 -0.056903448 -0.08447194 0.19093263 -0.2512142
-0.21678455 0.211634 -0.08253491 0.08236733 0.084253326 -0.13144104 0.23862784 0.15394226
-0.16241436 0.26264685 -0.13227846 0.16665971 0.23495848 -0.16392848 -0.10713129 0.22566028
0.18922888 -0.07976426 -0.15383378 -0.12524876 0.18854728 -0.1175007 -0.044611655 0.07144603
0.2750771 -0.2612227 0.18746532 0.22822243 0.1997132 0.06957787 -0.02751535 0.010801261
0.18067558 -0.19246183 -0.18246749 -0.21295227 -0.2376852 -0.21588866 -0.0065644453 0.14380254
-0.13609254 0.19008963 -0.045883793 -0.12889048 -0.25099155 -0.22145139 0.20583561 -0.0061293137
0.07716038 0.08728718 -0.06651659 -0.04953655 0.11809288 0.01525103 -0.026168423 -0.1297426
-0.2903081 -0.11751662 -0.19524877 0.016709248 0.27259967 0.073707774 -0.1922224 0.13217492
0.13477327 -0.018723313 0.1477521

st_gcns.1.tcn.2.bias f4 [5]
00000000: e14b 92bb bf3d 643e 2629 6bbe 3eed 4a3e
00000010: d178 5a3d
-0.004464612 0.2228918 -0.22964916 0.19817063 0.053337876

st_gcns.1.tcn.3.weight f4 [5]
00000000: 4416 8a3f 4902 8a3f e64c 8a3f 905a 853f
00000010: 779b 7d3f
1.0788045 1.0781947 1.0804718 1.0418262 0.99065346

st_gcns.1.tcn.3.bias f4 [5]
00000000: e8df b23c 8f50 873d 7cf2 b53d 20ac 493d
00000010: 56f0 84bc
0.021835282 0.06607162 0.08884141 0.049236417 -0.016227882

st_gcns.1.tcn.3.running_mean f4 [5]
00000000: e9fd 03bc 815a c13e 6a50 37be ac12 693d
00000010: 6b34 f43d
-0.008056142 0.37764362 -0.1790177 0.056902573 0.119240604

st_gcns.1.tcn.3.running_var f4 [5]
00000000: c21b 373e a3da e93d 70c8 1c3e 8ed9 103e
00000010: 864e 403e
0.17881683 0.11418655 0.15310836 0.1414549 0.18779954
