experiments/training/6/checkpoints/epoch_200.pth (torch, 538788 bytes, 53 tensors)

lin_proj.weight f4 [64, 2]
000000 02 34 e0 be a8 39 90 3c cc 7b dc be 37 f1 b9 be
       -0.4378968 0.017605618 -0.430632 -0.36316845
000010 bf 61 8e 3e 26 57 b9 3e 4a f8 2f bf 87 e8 94 bc
       0.2780895 0.361993 -0.68738234 -0.018177284
000020 1a 0d 1b 3d 03 91 78 3e ad c6 73 be e2 f3 56 3e
       0.03785429 0.24274068 -0.23806258 0.20991471
000030 e5 42 97 3d 6d 23 0f 3f 8d 6f 92 3e f0 b8 06 bf
       0.07385806 0.5591343 0.28600731 -0.5262594
000040 36 b6 d7 bd e1 71 16 3f 64 2e 08 3f 41 41 3e 3e
       -0.10532801 0.58767515 0.53195786 0.1857958
000050 b3 d0 59 be 27 f3 80 be 41 65 15 3f a7 41 24 bf
       -0.21271019 -0.2518551 0.58357626 -0.6416268
000060 f0 be cc 3e 4f d0 1d 3f c8 68 96 3e 02 49 3a bf
       0.39989424 0.6164598 0.29376817 -0.7276765
000070 cf 0f 92 3e 9b 89 e8 be b7 d7 21 bd 14 22 24 be
       0.28527686 -0.45417485 -0.039512362 -0.16028625
000080 5d de be bd 28 32 91 be 1a a2 52 3e e1 1f 2b bf
       -0.09319756 -0.2835858 0.2056965 -0.6684552
000090 11 ba 0c 3e f0 05 89 bd 78 4a 0d bc 0d 6c a3 3e
       0.13742854 -0.066905856 -0.008623712 0.31918374
0000a0 fd 70 8b be ac 4b 2a 3f 58 a9 fc 3e ae 8e 21 bf
       -0.2723464 0.66521716 0.4934795 -0.63108337
0000b0 e1 e3 f5 be ec 3f f5 3e 56 82 16 be 25 5e 16 bf
       -0.4802542 0.4790033 -0.14698157 -0.58737403
0000c0 3c d0 20 3f e8 52 05 3e 25 64 92 3e fd f5 63 3c
       0.6281774 0.13019907 0.2859203 0.013913629
0000d0 63 1b 38 bf 98 f1 cf bd 63 7c 80 3c 3e d9 ed 3c
       -0.7191679 -0.10153502 0.015684312 0.029034253
0000e0 40 7c 07 3f d5 2c 11 be 68 d8 f1 3e 17 23 a0 3e
       0.52923965 -0.14177258 0.47235417 0.3127677
0000f0 5c f5 4f 3e 2d a5 00 3f ec cf 53 3e e6 81 9e be
       0.20308441 0.5025204 0.20684785 -0.3095848
000100 c4 5d 7b be 56 ea 29 3f 14 9b 82 be 2b b5 06 bf
       -0.24547487 0.66373193 -0.2550894 -0.5262019
000110 b7 4a 4b be f0 15 aa 3e f9 b2 1f bf 95 92 c5 be
       -0.1985272 0.33219862 -0.62382466 -0.38588396
000120 85 73 1a be be bf 0e be c3 17 af 3d 0f 57 00 3f
       -0.1508313 -0.13940331 0.08549454 0.5013284
000130 aa 79 a3 be 0e 97 d6 be 4f 3f 10 bf 30 69 11 3f
       -0.3192876 -0.4191212 -0.563466 0.5680113
000140 44 1c 19 bd a3 33 f2 be 87 d3 14 3f e1 b1 12 3f
       -0.03738047 -0.4730502 0.58135265 0.5730267
000150 3a 05 ea 3e 20 26 ef bd bd 04 a1 3e 02 31 41 3e
       0.45707113 -0.11677194 0.31448928 0.18866351
000160 c3 c1 2d 3f a0 c4 fd 3e fe 1b 47 3e 24 de 0c bf
       0.6787378 0.49564075 0.19444272 -0.5502646
000170 50 89 4a 3e 3b 96 41 3e 6d 5c cd 3e fa 08 0a 3f
       0.19778943 0.18904965 0.40109578 0.5391995
000180 0f d4 2c bf f9 2a 1a 3d 34 c1 e7 be 91 cf 12 be
       -0.67511076 0.03763864 -0.4526459 -0.14336993
000190 e0 58 0a 3f 68 c2 02 bf 3d 0a 12 be 6c bc 90 3e
       0.5404186 -0.5107789 -0.14261718 0.28268754
0001a0 26 87 4b 3e 09 43 fb be 09 32 b3 3e 5b 83 2c bf
       0.19875774 -0.4907458 0.3499911 -0.6738793
0001b0 a4 bd e5 3e 55 89 53 3e b5 f5 0d be ba 06 0d bf
       0.44871247 0.20657857 -0.13863261 -0.5508839
0001c0 31 5d e5 be 5e f8 9b 3d a1 69 30 bf cc cd d0 be
       -0.44797662 0.07615732 -0.68911177 -0.4078201
0001d0 ff 49 7b 3d 4f 1c 13 3f a9 b0 1f 3f 77 b6 2b 3f
       0.061349865 0.5746507 0.62378937 0.67075294
0001e0 f9 56 a8 be c5 88 a2 3e 1e c8 92 be a0 fc bc be
       -0.32878855 0.31744972 -0.28668302 -0.36911488
0001f0 7d 30 15 3f 0f b2 0e bf 7c 0a 39 bc 0c 13 22 bf
       0.5827711 -0.55740446 -0.011294004 -0.63310313

lin_proj.bias f4 [64]
000000 02 c5 32 3f 06 70 ba 3e 7a 05 09 bf 89 c9 c6 3e
       0.6983186 0.36413592 -0.5352398 0.38825634
000010 67 60 2e bf f3 d4 2d be a4 87 27 bf c2 47 d7 be
       -0.6811585 -0.16975765 -0.65441346 -0.42046934
000020 7c 82 d5 3e 27 5a e4 3e b2 d6 e3 3e f0 33 05 bf
       0.41701114 0.4460003 0.44499737 -0.52032375
000030 b4 53 07 3e ac 5d df be 28 ed 99 3e 75 a5 2d bf
       0.13215524 -0.43626153 0.30063748 -0.6783059
000040 82 1b 81 3e ab 47 24 3d df 84 24 bf de d9 b3 be
       0.252163 0.04010741 -0.64265245 -0.35127157
000050 f6 ab a2 3e d8 50 cb be 86 15 70 be c8 12 83 be
       0.3177182 -0.39710116 -0.2344571 -0.25600266
000060 45 01 28 3e ec 7b 38 3e 58 b8 c6 3e 91 9e 28 3f
       0.16406734 0.18016022 0.38812518 0.65866953
000070 d6 09 82 3e 06 88 9b 3e ff b1 81 3e cd c8 29 3e
       0.2539813 0.30377215 0.25331113 0.16580506
000080 96 b4 10 bf 11 b9 77 3e e2 ed 23 bf 90 da 42 3e
       -0.5652555 0.24191691 -0.64034855 0.19028687
000090 a9 3e c5 3e 79 cb 92 3e 89 06 e8 bc 6e e3 85 be
       0.38524368 0.28670862 -0.028323429 -0.26150078
0000a0 b9 76 0b 3f 1a ef df be 18 5f 1c bf 2d 22 9e be
       0.5447803 -0.43737108 -0.610826 -0.3088545
0000b0 a1 5a c9 be f8 ff 2c 3f 49 76 94 3e 52 45 c2 3e
       -0.39326957 0.6757808 0.28996494 0.37943512
0000c0 83 dd 88 3d 0e d3 20 3f ee 0b e6 3e 20 d7 14 be
       0.06682875 0.62822044 0.44930977 -0.14535189
0000d0 f1 bd ce 3e a1 e3 cf 3e a2 bd 69 be 78 a5 4a 3e
       0.4037929 0.40603355 -0.22826245 0.19789684
0000e0 e8 8e 0f 3f f0 1b 29 bf 57 30 d1 be 52 79 de 3d
       0.5607743 -0.66058254 -0.40857193 0.10862984
0000f0 12 d5 ac 3e 8d d4 0d 3e 61 d3 ea 3d 5d de ee 3d
       0.3375631 0.13850613 0.114660986 0.11663506

lin_proj_2.weight f4 [5, 64]
000000 de ad 3c 3e 2e 06 88 3d 75 cd 8d bd 0f 94 34 3e
       0.184257 0.06641804 -0.069239534 0.17634605
000010 72 c9 1d 3d e9 d9 dc bd ab 3d 92 3c d6 7c 3c bd
       0.03852219 -0.107837506 0.017851671 -0.04601749
000020 42 47 8d bc 23 a9 b0 bd c5 ed 6c bd 53 f9 8c 3d
       -0.017245892 -0.0862601 -0.057843942 0.06883492
000030 d0 7b 69 3d 1b 57 0c 3c c0 2d 7b 3c 28 b1 4d 3d
       0.057002842 0.008565689 0.015330732 0.050217777
000040 4b e1 36 3e 24 50 71 3c 5a fc 37 be 89 2f 15 bc
       0.1785938 0.01472858 -0.17967358 -0.009105572
000050 63 6d 2f 3e 95 75 06 be a0 db fe bc 62 be 46 3e
       0.17131571 -0.13130791 -0.031110585 0.19408563
000060 b7 fd ae 3d d4 a8 42 be 84 a9 8c 3d d0 7f 69 3d
       0.08544486 -0.19009715 0.0686827 0.057006657
000070 cf 45 cd 3d 13 2f 18 be 47 f5 e1 3c 4f 17 3d be
       0.100230806 -0.14861707 0.027582778 -0.18465923
000080 79 f7 23 3c cd d8 32 3e f2 d1 b0 3d ac 8a 48 3e
       0.010007733 0.17465515 0.08633794 0.19584149
000090 86 4c 93 3d 2c 87 21 be 55 36 de bd 5c dd 16 3e
       0.0719233 -0.1577422 -0.10850207 0.1473288
0000a0 16 73 23 bd bb be 2a be 91 fe a7 bd ed c9 55 bd
       -0.039904676 -0.1667432 -0.082028516 -0.052194525
0000b0 54 f1 b2 bd 1a 42 1a bd df 1f c1 bd 28 39 4d be
       -0.08737436 -0.037660696 -0.09429907 -0.20041335
0000c0 47 be c6 3d 0b fc 8b 3d ea ae 56 bd 11 dc b3 bd
       0.09704261 0.06835183 -0.052412905 -0.08782209
0000d0 a9 f9 80 3b 78 bb 5c bd ab a7 ae bd 23 eb 59 3d
       0.003936012 -0.05388972 -0.08528074 0.05320276
0000e0 bd ba af 3c 17 ff 35 3d 43 55 58 3c 8f 5d e1 bc
       0.021451348 0.044432726 0.013203922 -0.027510433
0000f0 28 2f c0 bd 11 f9 13 3d 7d a6 f4 3b 50 d8 bb bd
       -0.09383994 0.0361262 0.007466136 -0.09172118
000100 12 c0 29 3d cc 9b 62 3d e0 79 3f bd 08 d0 b8 bd
       0.04144294 0.05532436 -0.04674709 -0.09024054
000110 9d e2 16 bd 44 54 0e be 41 0d 4e 3d ac 55 f5 3b
       -0.03683721 -0.13899332 0.05030561 0.0074870195
000120 54 e0 15 bb ee 0f 53 be 79 d4 90 bd eb db 8e 3d
       -0.0022869306 -0.20611545 -0.07071776 0.0697554
000130 12 51 b5 bc b5 d1 a2 3d b0 b7 23 bd 52 fc 60 3d
       -0.022133384 0.07950155 -0.0399701 0.05492813
000140 b0 68 cb bd 69 4f 2c 3d f1 4b df 3d 9a de 1b bc
       -0.09932077 0.04206792 0.109031565 -0.009513522
000150 ac cb 05 be 9e dc 79 bd 62 91 73 3d e4 d7 54 bd
       -0.13065976 -0.061001413 0.05946482 -0.0519637
000160 21 87 c7 3c 45 6b 16 3e fe b0 6f bd 1a b4 2e be
       0.024356427 0.14689358 -0.058518402 -0.17060891
000170 5e 0b 9a bd 88 24 be 3d 89 db 95 bd e4 15 d7 3c
       -0.07521699 0.092843115 -0.07317264 0.026255555
000180 ed aa 56 3c 0d d8 27 bb 6d 9d 38 3d 4d cc 23 3e
       0.013102275 -0.0025610954 0.045072008 0.15995903
000190 a3 7c 73 3c 10 ea 34 be 58 a1 a9 3d a3 14 3e bd
       0.014861259 -0.17667413 0.08282727 -0.0464064
0001a0 09 e1 2c bb 25 8b 72 3d 21 b9 9b 3d 9b 77 d4 bd
       -0.0026379249 0.05921473 0.0760367 -0.103743754
0001b0 7e e9 cc bd 0f 03 30 3e 2e ec 2c 3e e2 63 07 be
       -0.100054726 0.17188667 0.1688697 -0.13221696
0001c0 b0 3b 02 be bc 4e cd 3d a5 12 25 3d fa 8a 45 3d
       -0.12718081 0.10024783 0.040300984 0.04822824
0001d0 97 e2 0e 3d d2 71 08 3d c1 81 ab 3c 77 4a 80 3d
       0.03488406 0.033311673 0.020935895 0.06264203
0001e0 61 05 63 bd 24 a3 17 bd 6e 4a 0d bd 1f 0d 95 bd
       -0.05542505 -0.037020817 -0.03449481 -0.07277893
0001f0 d6 df f2 bc 79 74 66 3b 79 ff 0b 3b 59 f6 0e bd
       -0.029647749 0.0035164638 0.002136199 -0.034902904
000200 2a 53 dd 3d bf 37 c0 bd d5 dd 4f bd 03 6a f9 3d
       0.10806878 -0.09385633 -0.050748665 0.12178423
000210 eb 22 c6 bd f0 5a 64 3d 5b 3c 9e bc 44 35 b6 bd
       -0.09674629 0.055750787 -0.01931589 -0.08896878
000220 5b 27 8f 3d ec 50 d7 bd 1b 0a 2b bc 9f 0d 58 bd
       0.06989928 -0.105134815 -0.010439421 -0.052747365
000230 2f 6f 5b 3d b7 0b 85 bc f9 2e 16 bd 21 7b 59 bd
       0.05357283 -0.016240938 -0.03666589 -0.05309594
000240 be 08 97 bc 05 ed ff 3c 6b d3 c9 bc 2e 99 1e be
       -0.018436786 0.03124095 -0.024636945 -0.15488121
000250 c3 09 c2 3d 19 f4 04 be 4b 51 0c 3e 5c 6f 8f 3d
       0.09474518 -0.12983741 0.13702886 0.07003662
000260 4e 05 a9 bd ff af 66 3d 5b 65 3d bd ad 91 1e bd
       -0.08252965 0.056320187 -0.04623924 -0.038713146
000270 ff b5 a1 bd d4 c1 80 3d 33 8e 88 3d 23 85 2f 3d
       -0.07896041 0.0628697 0.06667747 0.04285158
000280 27 9a ba 3d 63 76 71 3d 96 70 60 bd fd e3 c3 3b
       0.091114335 0.058950793 -0.05479487 0.005978106
000290 c4 86 49 bd 61 8d b2 3d 91 0b ff 3d 8d 88 bf bd
       -0.04920079 0.08718372 0.12453378 -0.09352217
0002a0 eb 58 87 3d a7 ce 91 bc 99 a2 03 3d c8 13 0c 3e
       0.06608757 -0.017798735 0.032137487 0.13679421
0002b0 ee 24 77 bc 39 c4 f9 bc 1e 5a 00 3e dc 59 99 ba
       -0.015084488 -0.030489074 0.12534377 -0.0011699754
0002c0 57 ca 24 3d 4b 45 44 bd cd e4 98 bd 1b f7 7e 3d
       0.04023203 -0.047917645 -0.07465515 0.062247377
0002d0 bf c9 14 be 2d 6b de bc 8e 2d d4 3d 0f 9b 86 bd
       -0.14530085 -0.027150715 0.10360251 -0.06572544
0002e0 50 53 aa bd af ff 3c bd c9 8e 1e be cd e9 5d bd
       -0.08316672 -0.046142276 -0.15484156 -0.054178048
0002f0 44 09 89 3d 8f b4 50 bd 63 ec 0b 3e 4b 3b a1 bc
       0.066912204 -0.050953444 0.13664393 -0.019681593
000300 d6 77 f1 3d dc f2 b0 3c 8b 00 8e 3d dc 6a e4 3d
       0.11790435 0.02160018 0.06933697 0.11153194
000310 29 b4 1d be 46 c3 ac bd cd 8c e3 3d 66 95 32 3d
       -0.15400757 -0.08435683 0.1111084 0.04359951
000320 2d 34 fd 3d ac 5e d2 3c 5a be 0c 3e e2 b2 b0 bd
       0.12363467 0.025679909 0.13744488 -0.08627869
000330 cf e0 ae bd 21 7a f1 3c dc 94 88 3c 6c 48 ce 3d
       -0.085389726 0.02947718 0.016672544 0.10072407
000340 72 f2 48 3d c4 75 13 3e 44 fe 4b bd 7d e7 1c be
       0.04905934 0.14400393 -0.049803033 -0.15322681
000350 a0 dc 30 3d a2 a0 be bd 99 22 0c 3e 85 d5 18 bd
       0.043179154 -0.09307982 0.13685073 -0.037313003
000360 6c 6e cf bd 86 c7 a4 bd d1 b7 02 3e 39 cb d4 3d
       -0.10128483 -0.080458686 0.12765433 0.10390324
000370 53 39 16 bd 3c 07 9d bd 47 17 05 bd a7 36 20 3e
       -0.036675762 -0.076673955 -0.032492902 0.15645848
000380 a1 33 2f bd 15 8e c5 3d 4f 4b bf bd 0c ba 85 bd
       -0.042773847 0.096462406 -0.09340536 -0.06529626
000390 4a fa 0c be 7b 6f 6b bd 3b 99 23 3d fa 91 b5 bc
       -0.13767353 -0.057479363 0.039941054 -0.022164334
0003a0 8c 0e d1 3d d1 7c cd bd 01 94 f5 3d 4a 68 0b 3d
       0.10207853 -0.100335725 0.1199112 0.034035005
0003b0 5f c8 82 bc 1e a4 18 3d 4a 30 b0 3d f9 98 4a 3c
       -0.015964685 0.03726589 0.086029604 0.012365573
0003c0 56 e6 7a bd 37 07 d4 3d 02 f0 cf 3d d7 82 42 3e
       -0.06125482 0.103529386 0.101532 0.18995224
0003d0 9b af 11 3d 30 6d 57 bd 43 46 e2 3d 75 10 2f bd
       0.03556786 -0.052594364 0.110485576 -0.042740304
0003e0 46 df 85 3d 17 b9 b0 3d 49 c0 0a be 55 76 9f 3d
       0.06536727 0.08629053 -0.13549913 0.07786242
0003f0 5d ee 1e 3d 9a 50 be bd 4b dd 86 bd 6f f4 81 3d
       0.03880154 -0.09292717 -0.06585177 0.0634545

lin_proj_2.bias f4 [5]
000000 e9 43 31 3c eb c6 1e bd d8 49 aa 3d 84 6b b7 bd
       0.010819414 -0.03876392 0.08314866 -0.08956054
000010 c4 80 51 bd
       -0.05114819

graph_attn_module.gat_conv.att_src f4 [1, 4, 100]
000000 43 53 6a bd 4b e9 dd bd ab bc f1 3d 39 ef 4a 3e
       -0.05720831 -0.10835513 0.11803564 0.19817819
000010 1b 90 fb 3d fa 72 c8 3d 77 3d 83 3d 0b 84 74 3d
       0.12283345 0.09787555 0.06408208 0.05969624
000020 d3 5f 2b 3d 51 ea 6c be 71 ce 5d be 48 6c 35 be
       0.041839432 -0.2313626 -0.21660782 -0.17717087
000030 24 1e 40 3e f6 df 43 3d 57 bf 2d bb a4 12 d7 bc
       0.18761498 0.047821008 -0.0026511753 -0.026254006
000040 2f cf 2f be 97 f9 49 3e 87 34 bb 3b 89 9d 3c 3d
       -0.17168878 0.19724117 0.005713049 0.046048675
000050 8b d9 91 be 14 2e bc bd 59 c7 6e be f6 59 35 bd
       -0.28486285 -0.09188476 -0.23318233 -0.044275247
000060 fb ed 81 bd d7 ee 6c be ac e8 94 3d 5c ef 5a be
       -0.06344219 -0.23137985 0.07270941 -0.21380371
000070 c4 61 ea 3c 2f d0 4e 3e ad 1e 50 be 5e a5 21 3e
       0.028611071 0.20196603 -0.20324202 0.15785739
000080 49 d7 33 3e 1d 2b 28 be 63 5b 93 bd 09 2f e4 3d
       0.17562594 -0.16422696 -0.07195165 0.11141784
000090 5b 65 08 3e cf 71 56 be 9a 58 ac 3d 35 17 19 3e
       0.13319914 -0.20941852 0.08415337 0.14950259
0000a0 36 a4 8a be 08 80 b2 3d ad c9 46 3d cf 6a 93 bc
       -0.27078408 0.08715826 0.048532177 -0.017995266
0000b0 07 52 99 bd 91 92 0c 3e b5 f6 53 3e 5d c1 16 3e
       -0.074863486 0.13727786 0.2069958 0.147222
0000c0 91 00 01 be 7a 28 3b bd 24 13 ad bd 58 c5 04 3d
       -0.12597872 -0.0456929 -0.084509164 0.032414764
0000d0 43 85 3b 3e 82 3a c0 3d bb e3 10 3e 1b 13 cd 3d
       0.18312554 0.093861595 0.14149372 0.1001341
0000e0 25 ad 15 3d b1 1d 90 3e db 3a 26 be 00 09 89 3c
       0.036542077 0.28147653 -0.16233389 0.016727924
0000f0 86 ee 05 3e f5 06 7e 3e 2b 92 94 3d d9 65 1f be
       0.1307927 0.24807341 0.07254442 -0.15566196
000100 9d fb 40 3e cc fe 80 be 6a c1 1e 3e f6 fa ec b9
       0.18845983 -0.25194395 0.15503469 -0.00045200408
000110 1a 4d ad 3d 3f ce d1 3d a6 c8 7d be d9 01 a6 be
       0.084619716 0.102444164 -0.24783573 -0.32423285
000120 2e cd 37 bc 1d 8c 1b 3e 20 39 46 3e 15 10 64 be
       -0.011218352 0.15190168 0.19357729 -0.2227176
000130 99 2e 1a 3e 0e 7b 68 3e 79 05 37 3e 1a 2c 67 3e
       0.15056838 0.22703192 0.17873181 0.22575417
000140 cf 97 00 be 2e 9f 2a 3e b9 de 92 be 65 9e 15 3e
       -0.1255791 0.16662285 -0.2868555 0.14611204
000150 50 19 3b 3e 00 fc bd 3d 20 a3 b4 bd 52 b2 89 be
       0.18271375 0.09276581 -0.08820176 -0.2689386
000160 1d db 1c bd 26 96 10 3e a4 80 76 be 06 a0 d9 bc
       -0.0382949 0.14119777 -0.2407251 -0.026565563
000170 5a 5c 76 3e 55 32 06 bd 98 ea 73 bc 5e 85 d1 3c
       0.24058667 -0.032762844 -0.0148874745 0.02557629
000180 5e 0f 82 3e ed 26 84 3e 88 17 59 3d 01 5b 52 3d
       0.2540235 0.25810948 0.053000957 0.05135632
000190 89 41 f7 bc 03 2b 4e 3c 3a 83 11 bd 69 c5 2d be
       -0.030182617 0.012583497 -0.035525538 -0.16969837
0001a0 97 ad 07 be ea f3 27 3e c9 ae 22 3d 9b f3 69 3c
       -0.13249813 0.1640164 0.03971747 0.0142792715
0001b0 aa df 36 be ae ef 82 be 99 4d 94 be 99 02 8c be
       -0.17858759 -0.25573486 -0.28965452 -0.27345732
0001c0 09 fa 27 be 61 5c 49 bd 6d fa b5 be 51 12 96 be
       -0.16403975 -0.049160365 -0.35542622 -0.2931085
0001d0 8c 07 1d be 6d 6f 68 be 4d 82 00 3e 2d c9 00 3e
       -0.1533491 -0.22698756 0.12549706 0.12576742
0001e0 fa b5 17 bb 61 57 50 be 3e 9f ca 3b ae 01 61 39
       -0.0023149238 -0.20345832 0.006183534 0.00021458298
0001f0 cc 22 4e 3e 3d c1 41 3e 2a a9 e4 bd 46 68 ad 3d
       0.20130461 0.18921371 -0.11165078 0.08467154
000200 32 f1 2c be 24 df 84 be d3 54 ec 3d 8d 61 5f be
       -0.16888884 -0.25951493 0.115396164 -0.21814556
000210 35 5c 17 3e 63 c4 7f be ea 0d e7 3a b0 85 1b bd
       0.14781268 -0.2497726 0.0017628048 -0.03796929
000220 6e 57 b2 3c 27 d0 68 3e 22 41 f3 bd 72 1c 71 be
       0.021770205 0.22735654 -0.118776575 -0.23546007
000230 bf 03 2f 3e 6b 2d b5 be 5a 13 33 3e bf be 69 3e
       0.17091273 -0.35386214 0.17487851 0.2282667
000240 27 88 1d 3e 49 0d 4e be 62 36 92 be ab 8b ab 3e
       0.15383969 -0.20122255 -0.28557116 0.33504996
000250 38 16 1d 3e a3 56 27 3e 87 e6 5b 3c af 18 d9 bd
       0.15340507 0.16341643 0.013421661 -0.10600411
000260 de 0e c6 be ad f2 97 be fc 68 c7 be b3 19 81 be
       -0.38683218 -0.29677334 -0.38947284 -0.2521492
000270 fe ae 8a be 1f 7f ae be 1d 34 80 3e 0a b2 c8 3e
       -0.27086633 -0.3408136 0.2503976 0.39198333
000280 38 6a 5c 3e ed 61 95 3e e0 33 13 be 54 40 71 be
       0.21524894 0.29176274 -0.14375257 -0.23559695
000290 e4 3e 79 3e f3 15 b3 be a0 77 2b be 9d 04 cd 3e
       0.24340397 -0.34977683 -0.16744852 0.40042582
0002a0 fe 80 c5 be 5e 9b ca 3e 5a 53 38 3e 83 32 82 be
       -0.38574976 0.3957166 0.18000546 -0.25429162
0002b0 ac 91 d7 be f8 8f 30 be 89 07 58 3e a2 d6 a5 3e
       -0.42103326 -0.1724242 0.21096624 0.32390314
0002c0 a5 19 b6 3e 16 7e 65 3d 61 7b a9 3e 23 e2 9b bd
       0.3556644 0.056028448 0.33101943 -0.076114915
0002d0 02 b0 44 be b4 70 bd be d9 ad ab 3e a4 51 86 3e
       -0.19207767 -0.37000048 0.33531073 0.26234162
0002e0 14 39 c1 bd 9e 98 7b be ac f0 d5 bd c3 22 35 be
       -0.09434715 -0.24569938 -0.10446295 -0.17689042
0002f0 1d b8 69 bd c1 cf 61 be 36 b5 85 be 5a 35 0b be
       -0.05706035 -0.22051908 -0.26114815 -0.13594571
000300 64 60 8f 3e 24 be f5 3d dc 1c 78 be 8a 9b 8f 3e
       0.28003228 0.11999157 -0.24229759 0.28048354
000310 0e 06 2f be 44 f3 53 3e c4 55 1d 3e a0 c8 72 be
       -0.17092153 0.20698267 0.15364748 -0.23709345
000320 99 64 ef bd 64 72 2c 3e cf 1d 0d be 32 e6 b9 3d
       -0.11689109 0.16840512 -0.13780902 0.090771094
000330 1b 90 27 3e f8 33 07 3d d9 59 a5 bc 49 de 66 be
       0.16363566 0.033008546 -0.020184444 -0.22545733
000340 be cf 90 3d 76 5c 12 be 06 b9 1a 3e ca f9 ca bd
       0.07070874 -0.14293084 0.15109643 -0.09910925
000350 71 a3 13 be 01 04 e0 3d 9b 22 28 3e 07 ea 58 3e
       -0.14417817 0.10938264 0.16419451 0.21183024
000360 63 b1 6c 3d e6 15 70 bd 9f bf ee 3d 01 b4 7c bc
       0.057786357 -0.058614634 0.116576426 -0.015423776
000370 3b ab ea bd 56 f5 ba 3c 72 74 21 3e a4 f5 21 be
       -0.11458441 0.022822063 0.15767077 -0.1581636
000380 15 6b 0d bc 5b b2 49 bd 98 5a 2a 3e 4d 94 a3 3d
       -0.008631487 -0.04924236 0.16636121 0.079872705
000390 e8 5b f2 bd 6c e0 93 3d 52 ac b2 bd de 0e ac 3d
       -0.11833936 0.072205395 -0.08724274 0.08401273
0003a0 55 c6 89 3e ad 34 ca bd f8 1d 6e be ad d8 1a be
       0.26909128 -0.09873328 -0.2325362 -0.15121718
0003b0 4b d3 1d 3e 6b ed 83 bd 2c cc 4e be f7 78 13 3e
       0.15412633 -0.06441768 -0.20195073 0.14401613
0003c0 99 ad cc bd ac c2 40 3c da be 80 3e 28 89 e9 bc
       -0.099940486 0.011765163 0.25145608 -0.028507784
0003d0 85 c3 60 3e 96 ef 25 3e 3e 7d 01 3d 0b 83 08 3e
       0.21949585 0.16204676 0.03161358 0.13331239
0003e0 53 40 77 bc 9d 9f 34 3e 60 ca 1e be 35 d4 e8 3c
       -0.01509102 0.17639013 -0.15506887 0.0284215
0003f0 b5 15 34 be 47 25 70 3e 92 2e 07 bc 9d 47 09 be
       -0.17586406 0.2345172 -0.008250849 -0.13406225

graph_attn_module.gat_conv.att_dst f4 [1, 4, 100]
000000 ba 2c 14 bd ab 70 6f 3e 9b 71 80 be 53 34 99 be
       -0.036175467 0.23382823 -0.25086674 -0.29922733
000010 68 f5 20 3e 09 14 28 3e 1c fb 85 be f5 b9 a6 3c
       0.15718615 0.16413893 -0.26168144 0.020352343
000020 b0 5f 35 3e e3 9e 18 be 7b 30 ba 3d 3b f1 40 3e
       0.17712283 -0.1490436 0.09091278 0.18842022
000030 e4 d0 90 3c 55 62 4f 3d a4 c7 2f 3e 92 2d 03 3e
       0.017677732 0.050630886 0.17166 0.12810352
000040 60 50 b7 bb 9b 5b 69 be 00 67 89 3e 50 ec e3 3d
       -0.0055942982 -0.22788851 0.26836395 0.111290574
000050 a2 76 9b 3c 25 a2 4c 3d 45 41 ba 3d e9 b2 77 3e
       0.018977467 0.04995932 0.090944804 0.24189343
000060 e2 be ec bd 98 10 58 bc 66 ac 7f be c9 00 81 3b
       -0.115598455 -0.01318755 -0.24968109 0.003936861
000070 21 68 94 3d 4a 6f 26 be ff 2b 82 be 1a 9a 78 3d
       0.072464235 -0.16253391 -0.2542419 0.060693838
000080 6b 88 59 3e bb e8 78 be df c8 0a 3e 66 f5 cb 3c
       0.21243446 -0.2430753 0.13553189 0.024897289
000090 53 5d aa bd 1e 06 42 3d e0 66 87 3e 60 b1 45 bc
       -0.083185814 0.047369115 0.26445675 -0.012066215
0000a0 97 6b 2a bd 7a 68 e1 3b 22 76 83 be 47 a0 ae 3e
       -0.041606512 0.0068789097 -0.25676066 0.34106657
0000b0 6e 21 f4 bd 6e 0f 0b bd ae 1f 2f be ac 16 28 3e
       -0.11920439 -0.03395026 -0.17101929 0.16414899
0000c0 83 04 61 be cd d4 8c 3e f4 b3 96 bd 2c 8c 9b bc
       -0.21974377 0.27506104 -0.07358542 -0.018987738
0000d0 3e 9b 1e 3e 7a 71 15 3e 57 ce 73 3e 25 48 3e 3e
       0.15488908 0.14594069 0.23809181 0.18582208
0000e0 eb 6b 32 be d2 54 a7 be 96 c7 f5 be 8c 78 d7 be
       -0.1742398 -0.326819 -0.48003834 -0.42084157
0000f0 c0 1c b7 bd 2e 48 0e 3e af 34 d7 3e 84 27 39 3e
       -0.089410305 0.13894722 0.42032382 0.1808148
000100 ef 14 1f 3e f9 d1 08 3d 1e 23 8e be 0e c1 99 be
       0.1553533 0.03340337 -0.27761167 -0.30030102
000110 68 b5 c9 3e 5f 9c 9d 3e d3 d7 4c be 6b 5c 66 bc
       0.39396214 0.30783364 -0.20004205 -0.01406012
000120 4a fd a9 3e 0b 9a af be 66 a1 81 be 6e 2e 5f 3e
       0.33201057 -0.34297213 -0.2531845 0.21795055
000130 d6 19 8b bd 54 16 dc 3d 24 bb 9e bd f8 b5 3f 3e
       -0.06792037 0.10746446 -0.07750538 0.1872176
000140 78 eb a3 3e 2b 05 c0 be 29 a2 61 3e 54 37 40 3e
       0.32015586 -0.37503943 0.22034515 0.18771106
000150 bd 52 90 bd 01 c9 c4 3e ac b5 5d 3e 20 c2 9f 3e
       -0.07047031 0.38434604 0.21651334 0.31202793
000160 1a e1 aa 3e 98 e3 2e 3e fd 79 0b be 47 f9 c8 3e
       0.33374864 0.17079008 -0.13620754 0.39252684
000170 55 9d 37 be 1a e3 5c 3e 7c 7e 98 be 6c 51 b9 3e
       -0.17931111 0.21571007 -0.29784 0.36194932
000180 0e 81 45 bc f9 44 8e be 95 b3 24 be 27 16 37 3e
       -0.012054695 -0.27786997 -0.1608413 0.17879544
000190 72 4b 9f bd 73 14 1f 3e f8 8f 52 3d d9 0a 71 3e
       -0.07778062 0.15535145 0.05140683 0.23539294
0001a0 da 93 37 3e 21 e7 72 be 4d aa 03 3d 0d 43 8b bd
       0.17927495 -0.23720981 0.032144833 -0.06799898
0001b0 85 12 59 3d 76 d7 61 3e 08 f0 8a bd 84 67 b8 bc
       0.052996177 0.22054848 -0.067840636 -0.022510298
0001c0 a9 53 d8 3d 16 98 16 3c 81 fc ae bd c1 14 8d 3e
       0.10562832 0.009191534 -0.08544255 0.27554896
0001d0 d7 fc c4 3d 61 fe 48 3d 9e ee 83 be 80 02 4a 3e
       0.09618538 0.04907072 -0.25767988 0.19727516
0001e0 ec 97 28 be d8 97 84 3e eb 7a 6b be a0 b7 e0 3d
       -0.16464204 0.25897098 -0.22996108 0.10972524
0001f0 ac d4 e4 bd 36 8e ea 3d 36 3a 86 3e 58 da 7f 3d
       -0.111733764 0.11452906 0.26216286 0.06246409
000200 ac 03 5b 3e 6f 7d 59 3c ea 00 e0 bd f4 e2 a9 3d
       0.2138812 0.013274535 -0.10937674 0.08295241
000210 15 c6 4e be 6a ff 2f 3e 89 a5 c8 bd 9d e6 3c be
       -0.2019275 0.17187276 -0.09797198 -0.18447347
000220 32 fb 6e 3d 40 91 0d be a6 97 a3 bc bc 93 18 be
       0.058345027 -0.1382494 -0.019969773 -0.14900106
000230 c5 22 d6 bd 64 e4 86 bd 45 09 ee bd c5 72 be 3c
       -0.104558505 -0.06586531 -0.11622862 0.023248086
000240 f9 d1 28 bd ce 4c af bc 07 99 b5 3c 88 4f 37 3e
       -0.04121587 -0.021398928 0.022167696 0.17901433
000250 85 46 a5 bd 52 44 87 be 33 92 83 3e 75 e6 6b bd
       -0.08070091 -0.26419312 0.2569748 -0.057592828
000260 93 da 36 3e 55 37 32 be df bc 16 3e 48 68 89 be
       0.17856817 -0.1740392 0.14720486 -0.26837373
000270 20 22 10 3e 7e 7a ad 3b b2 f5 88 be d4 0e ee bd
       0.14075518 0.005294143 -0.2674995 -0.11623922
000280 82 ee 2f 3e c8 e9 95 3d c7 95 00 3c 05 69 4e 3e
       0.17180827 0.07319981 0.00784821 0.2015725
000290 03 4d 0a be dd 3d 79 3d 40 d4 75 3e ed 95 54 be
       -0.1350594 0.060850013 0.24006748 -0.20760317
0002a0 f7 cd ff ba fb 12 df bd 9f b0 0e be d6 49 54 bc
       -0.0019516338 -0.10892292 -0.13934563 -0.012957057
0002b0 f2 2e 5f be c3 1b 29 3e 43 22 03 be ee 94 31 3e
       -0.21795252 0.16514497 -0.12806039 0.17341968
0002c0 72 9d 38 3e 77 9f 87 3e e7 bc 65 3c 65 25 d6 be
       0.1802881 0.2648885 0.014022089 -0.41825405
0002d0 b7 ad 80 3e ed ff bd 3d 45 96 0e be ae ff 29 3d
       0.25132534 0.092773296 -0.13924511 0.0415036
0002e0 57 c4 58 be 73 1c 8c 3d e0 e2 36 3d 68 cd 68 be
       -0.21168648 0.06841364 0.04464996 -0.22734606
0002f0 c0 0f 5a be 6f 56 7a 3e 1a 30 28 be 9b e3 8d be
       -0.2129507 0.24447034 -0.164246 -0.27712712
000300 ca 1a 1c be ad 8f 76 3e 1b ad e9 3d 87 47 0b be
       -0.15244594 0.24078245 0.114099704 -0.13601504
000310 d8 0d 27 bd b0 69 87 3e 90 98 00 3e 03 65 bb 3d
       -0.040784687 0.2644782 0.12558198 0.09150126
000320 b7 3c 2a bc b4 56 1b 3e 0c d1 0c be 39 5d be 3e
       -0.010390452 0.15169793 -0.1375162 0.37180498
000330 07 9d c9 3c 5e 22 ab 3d 92 f9 84 3d 52 cb 84 3e
       0.02461101 0.083561644 0.06492914 0.2593637
000340 cf c0 40 3e c7 fd 0f be 8a 2c 4c 3e b5 df 3c 3e
       0.1882355 -0.14061652 0.19938865 0.18444712
000350 42 88 92 3e e6 e7 52 bd f3 fd b4 bc 7e 4f 7c 3e
       0.2861958 -0.051490687 -0.022093749 0.24639699
000360 8c 2b 6c bd 42 4c 81 be 24 26 6d 3e 47 e0 4a 3e
       -0.057658717 -0.25253493 0.2315908 0.19812118
000370 5f a0 2c 3d a6 0e 23 be 3c 55 8a be 74 c7 42 3d
       0.04214513 -0.15923557 -0.27018154 0.047553495
000380 27 56 1d 3e e5 51 2e bd 88 67 a2 be a1 15 cd 3d
       0.15364896 -0.04255857 -0.31719613 0.10013891
000390 9c 18 90 3d c0 8e 6c 3d 72 03 18 3b 74 4c 1d 3e
       0.07035944 0.057753325 0.0023195413 0.15361196
0003a0 5e e5 e7 3d f5 b8 b0 bd 41 7d af bd e9 3e 54 3e
       0.11323045 -0.08629028 -0.08568812 0.20727123
0003b0 cf 05 a0 be c7 0b b1 3d 99 80 1d 3e 9e 43 5f bc
       -0.31254432 0.086448245 0.15381087 -0.013626961
0003c0 0e 24 94 3e ae 7a da 3d ce 29 e6 3d 6b 05 fb 3d
       0.28933758 0.106679305 0.11238442 0.12256893
0003d0 c1 40 92 bd ff 0b 77 3e 49 f0 45 3e 0a dc 47 be
       -0.07141257 0.2412567 0.19329943 -0.19517532
0003e0 60 9c 97 be 24 62 d8 3d 12 da 1f 3d 4d 74 52 bc
       -0.29611492 0.10565594 0.039026327 -0.012845111
0003f0 fd 08 13 3d c5 21 fd bc da 6c 1d 3d 7a c9 86 3e
       0.035897244 -0.030899892 0.038433887 0.2632559

graph_attn_module.gat_conv.bias f4 [100]
000000 09 b1 6e 3d db 62 94 3c e4 dd 06 3d 51 cb 86 bb
       0.058274303 0.018113544 0.032926455 -0.0041135927
000010 27 1a 36 3c 24 8e 3f bc 83 bf 22 bc 54 7b 75 3c
       0.011114634 -0.011691604 -0.009933355 0.014983017
000020 0d ef e9 3b 76 48 07 3d c8 38 4c 3b 17 f4 40 3c
       0.007139093 0.03302809 0.0031161774 0.011776946
000030 ce 1c d0 3c 3a 91 e1 3c 2f d7 0a 3c da 51 25 3c
       0.02540436 0.02753507 0.008474155 0.010090316
000040 dd 0e 91 bc 54 3b 2f 3b 65 4a 28 bc 9c 9a 2a 3c
       -0.017707283 0.0026738243 -0.010271643 0.010412838
000050 7b 21 03 bc 6e 28 8b 3b d0 8f 20 bc 64 a3 32 bc
       -0.008003588 0.004246763 -0.009799913 -0.010903213
000060 04 68 03 3c 7f 9c 11 bc 8e 06 e3 3a 15 92 90 3c
       0.008020405 -0.008887409 0.0017320679 0.017647782
000070 6c 56 b5 ba 2c 70 f8 bb 34 80 a7 3c b5 57 bc 3c
       -0.001383496 -0.0075817313 0.020446874 0.02299104
000080 de dd f4 3c b8 e1 3b 3c 74 a0 b7 bb 7a e0 6f 3c
       0.02989095 0.01146739 -0.0056038443 0.014640922
000090 fe c2 06 3d 90 25 3d 3d 32 65 01 3d 99 4a a1 3b
       0.032900803 0.0461784 0.031590648 0.004922223
0000a0 28 ae 06 3d 97 5a 43 3b 31 ab ed 3a cc 94 39 3c
       0.032880932 0.0029808634 0.0018132684 0.01132698
0000b0 70 7f d8 3b c2 92 d2 bc 56 3e 38 bc da 59 63 3c
       0.0066069886 -0.025704745 -0.011245331 0.013876403
0000c0 df e3 c7 3c 27 69 96 3c f2 34 48 ba 46 99 18 3c
       0.02440065 0.018360687 -0.0007637284 0.009313887
0000d0 d6 39 40 bd e5 03 c1 bb 8f 2f a3 bc d9 86 ac bc
       -0.046930157 -0.005890357 -0.019920139 -0.021060394
0000e0 97 2a 85 bd 00 00 00 00 00 00 00 00 00 00 00 00
       -0.06502264 0.0 0.0 0.0
0000f0 00 00 00 00 00 00 00 00 00 00 00 00 00 00 00 00
       0.0 0.0 0.0 0.0
000100 00 00 00 00 00 00 00 00 00 00 00 00 00 00 00 00
       0.0 0.0 0.0 0.0
000110 00 00 00 00 00 00 00 00 00 00 00 00 00 00 00 00
       0.0 0.0 0.0 0.0
000120 00 00 00 00 00 00 00 00 00 00 00 00 00 00 00 00
       0.0 0.0 0.0 0.0
000130 00 00 00 00 00 00 00 00 00 00 00 00 00 00 00 00
       0.0 0.0 0.0 0.0
000140 00 00 00 00 00 00 00 00 00 00 00 00 00 00 00 00
       0.0 0.0 0.0 0.0
000150 00 00 00 00 00 00 00 00 00 00 00 00 00 00 00 00
       0.0 0.0 0.0 0.0
000160 00 00 00 00 00 00 00 00 00 00 00 00 00 00 00 00
       0.0 0.0 0.0 0.0
000170 00 00 00 00 00 00 00 00 00 00 00 00 00 00 00 00
       0.0 0.0 0.0 0.0
000180 00 00 00 00 00 00 00 00 00 00 00 00 00 00 00 00
       0.0 0.0 0.0 0.0

graph_attn_module.gat_conv.lin_src.weight f4 [400, 100]
000000 aa 72 1a 3e 5d b5 c1 3d af 4e 0e be dd 2e 47 3d
       0.15082803 0.094584204 -0.13897203 0.048628677
000010 b9 3a d2 bd 81 fd 8c 3c 1e cf 37 bd a3 89 0c bd
       -0.10265107 0.017210724 -0.044875257 -0.034310948
000020 dd 63 95 bd fe 7c af bc cb c8 7c 3d 32 33 53 3c
       -0.07294438 -0.021421906 0.06171493 0.012890624
000030 4b 13 8b 3d 07 26 c2 bc 69 d0 4a bd 6b fc eb 3b
       0.06790789 -0.023699773 -0.04951516 0.0072017214
000040 d4 61 a8 bd 9e 44 d6 bc 2c bd 30 bd c2 70 fd 3c
       -0.08221784 -0.026155766 -0.04314916 0.030937556
000050 29 11 a1 3d 47 33 e7 bd 0e f0 54 3c 0a 49 d1 3a
       0.07864601 -0.11289077 0.012996687 0.0015967202
000060 d8 ff 54 3d b1 b4 14 bd 1e 56 cb bc 92 47 c2 ba
       0.052001804 -0.036305133 -0.024821337 -0.0014822355
000070 16 51 2d 3d 59 3b f6 3d 84 75 e2 bd 33 b5 7c bd
       0.042313658 0.120230384 -0.110575706 -0.061696243
000080 a1 9e b8 bd 7c 1b e4 bd 99 4d df 3c f9 0c b8 3c
       -0.09014631 -0.11138055 0.027258681 0.022467123
000090 02 86 5c bc 16 9c c3 3d 4c 4e 65 bd 4a 30 ac 3d
       -0.013459684 0.095512554 -0.055982873 0.08407648
0000a0 f0 dd e8 3d 39 4b 6e 3d 45 b4 0e bd 9d 1c 92 bc
       0.11370456 0.058177207 -0.034839887 -0.01783591
0000b0 8c 8e e2 3d f6 8b c8 bc b4 b3 81 3d f9 42 6f bd
       0.11062345 -0.024480801 0.06333104 -0.05841348
0000c0 2a 54 ad bd ce 14 07 3d 35 4e 57 3d a1 83 4d bd
       -0.08463319 0.032978825 0.05256482 -0.05017436
0000d0 1a 34 01 be 7c 82 18 3d 7a 09 04 bb 61 10 b6 bd
       -0.12617531 0.037233815 -0.002014725 -0.08889843
0000e0 24 60 9b bc 7b 54 05 3d 00 89 62 3d 3b 24 e4 3c
       -0.018966742 0.03255127 0.055306435 0.027849307
0000f0 af 1c ac 3d 87 95 e9 bc 92 a5 e3 bc d1 37 6a bd
       0.084039085 -0.028513683 -0.027788911 -0.057182137
000100 0a fc c9 bd e6 0a bb bd 19 64 a8 3d e9 8e 98 bd
       -0.09862526 -0.09132938 0.08222217 -0.07449133
000110 5f d8 39 3d 70 68 86 3d 81 b1 4e 3c 1e 7d 27 bd
       0.045372363 0.065628886 0.012615562 -0.040890805
000120 f6 1f 89 bd a0 df ac 3d f7 e8 60 3d 76 0a e4 bc
       -0.06695549 0.084410906 0.054909673 -0.02783702
000130 9d b1 01 bd 55 f1 54 3d f8 5b 8c 3c 0a ac 90 3c
       -0.031663526 0.051987965 0.017133698 0.01766016
000140 bf 0c 26 3c e3 5a 02 bd b1 8a be 3d ca e4 b9 bc
       0.010134875 -0.031824958 0.09303797 -0.022692103
000150 13 8d 39 bd bc e9 a9 3d 6b 72 78 b8 ac 03 a4 bc
       -0.045300554 0.082965344 -5.9234368e-05 -0.020021282
000160 3e c4 dd 3d da ec 22 bc 74 52 48 bd 73 cc b0 bc
       0.10828446 -0.009944165 -0.04890676 -0.021581864
000170 62 03 96 3d 17 e3 31 3d dd 97 e6 bc 19 b3 54 bd
       0.07324864 0.04342946 -0.028148586 -0.051928613
000180 08 51 1e 3d a7 c4 d2 3d e7 1a e6 3a 46 8f 84 bc
       0.038651496 0.10291415 0.0017555625 -0.0161816
000190 0e 6a 9d 3d f6 81 35 3d 22 d9 ab 3d 62 d7 98 3d
       0.07686244 0.044313394 0.08391024 0.07462956
0001a0 ee 56 54 3d 59 46 83 3c 1f c0 a3 3c bc 89 2b bd
       0.051840715 0.016024755 0.019989071 -0.0418794
0001b0 90 48 06 bd f4 ce 56 3d d9 0e 65 bd 01 e3 94 bd
       -0.032784045 0.05244346 -0.055922363 -0.0726986
0001c0 a2 3a 17 3c 4c c9 eb 3c d2 3c 3b 3d f4 1c 1f ba
       0.009230288 0.02878251 0.0457123 -0.0006069683
0001d0 38 80 aa 3d 3b fd 3e bd 61 e4 df 3d fb 7d e1 3b
       0.08325237 -0.04662822 0.10932232 0.006881473
0001e0 a7 f8 b6 bd f0 b0 92 3c 8a 14 95 3b f5 97 98 bc
       -0.089341454 0.017906636 0.0045495676 -0.018627146
0001f0 46 aa 51 3d 09 37 63 bb 1d 2b 34 3d 71 7c 1d 3d
       0.051187776 -0.0034670255 0.04398643 0.038448755
000200 79 7e cb 3c 1b fd 9a 3c 81 de 81 bd 16 c7 72 bd
       0.02484058 0.018919518 -0.063412674 -0.059271894
000210 0e 76 8e bc c4 ed 49 3d 7a 3c 64 3d ac 5f 14 3c
       -0.017390277 0.049299017 0.055721737 0.009056013
000220 8d df 3f bd f8 d3 c5 bc c0 7b 43 bc c7 cc 96 bd
       -0.046844054 -0.024148926 -0.01193136 -0.07363277
000230 d6 08 5d 3d 09 92 5c 3d f3 39 40 3d 6d 56 38 bd
       0.053963505 0.053850207 0.046930265 -0.045004297
000240 d6 ac 8e 3c 88 8d 0b 3e 8a dc e3 3d fc cb 9b bb
       0.017416399 0.13628209 0.11126049 -0.0047545414
000250 5f ba be bd 48 a5 ba 3d 20 6b 27 bc cf 5d b1 3d
       -0.09312891 0.09113556 -0.010218412 0.08660471
000260 42 9c 66 bc d7 79 cb bd 43 3d 3a 3c 51 e9 e3 bd
       -0.014075341 -0.099353485 0.011367145 -0.11128486
000270 a4 98 96 bd da 11 61 bd 4b a8 af 3d f2 9a 1e 3c
       -0.07353333 -0.054948665 0.08577021 0.0096804965
000280 e9 1e 3b 3d 95 02 fa bc 9a 36 8f 3d c9 cc c0 3d
       0.045683775 -0.03051881 0.06992836 0.0941406
000290 41 b3 c6 3d 91 c5 79 3a 17 14 89 3d ec d7 bd 3d
       0.09702159 0.0009528036 0.06693285 0.092696995
0002a0 f7 51 e4 bc af 6b db 3c 22 86 9e bc af 43 08 bd
       -0.027871115 0.026784746 -0.019351069 -0.033267673
0002b0 5e b5 93 3d ec 7f 01 bd 91 ed 88 3d 60 26 0c bd
       0.072123274 -0.031616136 0.06685937 -0.034216285
0002c0 fc 3f 9e 3d c8 e9 8b 3d aa 2c 3f bd d2 3f c0 bd
       0.07727048 0.068316996 -0.046673454 -0.09387173
0002d0 f3 b3 b7 3d b4 a5 94 bd b8 3a db 3a 8f ec ab 3d
       0.089698695 -0.07258168 0.0016725874 0.08394729
0002e0 c7 3b d2 3d 19 a6 1a bd 19 e2 bb bd 9d 79 c1 bd
       0.10265308 -0.03775606 -0.09173984 -0.09447024
0002f0 15 bc 4d bd c4 92 c2 ba 48 0a 78 bd 35 db ff 3c
       -0.050228197 -0.0014844765 -0.06055668 0.031232456
000300 4a 29 b1 3d 41 53 d8 3d ec fd e4 bc 7a d0 ab bd
       0.086504534 0.105627544 -0.02795311 -0.08389373
000310 1b 52 95 bc 6a 3d ba bd 5e d1 a4 bd 01 e1 a4 3d
       -0.018227628 -0.09093745 -0.08047746 0.080507286
000320 de ea c0 bb 03 b4 87 bc d5 cb 97 bb a2 9b 1d 3b
       -0.0058873734 -0.016565328 -0.004632453 0.0024049063
000330 d7 45 dc bd 72 df 82 3d d6 5c 51 3c b3 97 be 3b
       -0.107555084 0.06390275 0.0127784815 0.005816424
000340 bc 61 5a 3d a6 b7 9f bb c6 43 fe 3c d6 38 b2 3d
       0.053315863 -0.0048741875 0.031038176 0.08702247
000350 95 19 ab 3c 72 48 d5 3a 45 ff 71 bd 58 23 85 3d
       0.020886222 0.0016272201 -0.059081335 0.06500882
000360 98 bb a4 bb df e1 0a be ab 77 34 3d 67 46 00 be
       -0.0050272457 -0.13562725 0.044059437 -0.12526856
000370 ea 34 fe bd e7 b2 0f be 17 1a ab bd a1 63 65 3d
       -0.12412436 -0.1403309 -0.083545856 0.056003217
000380 ca 6e b1 bd e1 0c ba bd 35 b3 aa 3d c1 43 1c 3d
       -0.086637095 -0.09084488 0.08334962 0.038150553
000390 ed 0b 5a 3d b3 84 11 3d a2 fb 4b 3d 80 21 42 bd
       0.05323403 0.035526942 0.049800523 -0.04739523
0003a0 31 2b ea 3c 23 69 2b 3d c9 7d 95 bc f9 10 91 3c
       0.028585048 0.041848313 -0.018248456 0.017708289
0003b0 2f 52 c5 3c ab 92 3f be 5a 97 8f b9 52 c5 15 be
       0.02408704 -0.18708293 -0.0002738785 -0.14626053
0003c0 14 26 a2 3c af f4 3c bc 82 e3 00 be 9e ac d3 bd
       0.019793548 -0.0115329465 -0.12586787 -0.103356585
0003d0 ab 05 b1 3c a9 76 a0 bd ca 7d 18 3d df e9 03 be
       0.021609148 -0.07835133 0.037229337 -0.12882183
0003e0 6a d9 b1 3d 11 d3 b3 bd 28 26 66 3c b4 50 9b 3d
       0.086840466 -0.08780492 0.014047183 0.07583752
0003f0 2e cb d3 3b 0d 81 25 bd 2c 2f aa 3c 1e dc 99 bd
       0.00646343 -0.040406276 0.020774446 -0.07512687

graph_attn_module.gat_conv.lin_dst.weight f4 [400, 100]
000000 aa 72 1a 3e 5d b5 c1 3d af 4e 0e be dd 2e 47 3d
       0.15082803 0.094584204 -0.13897203 0.048628677
000010 b9 3a d2 bd 81 fd 8c 3c 1e cf 37 bd a3 89 0c bd
       -0.10265107 0.017210724 -0.044875257 -0.034310948
000020 dd 63 95 bd fe 7c af bc cb c8 7c 3d 32 33 53 3c
       -0.07294438 -0.021421906 0.06171493 0.012890624
000030 4b 13 8b 3d 07 26 c2 bc 69 d0 4a bd 6b fc eb 3b
       0.06790789 -0.023699773 -0.04951516 0.0072017214
000040 d4 61 a8 bd 9e 44 d6 bc 2c bd 30 bd c2 70 fd 3c
       -0.08221784 -0.026155766 -0.04314916 0.030937556
000050 29 11 a1 3d 47 33 e7 bd 0e f0 54 3c 0a 49 d1 3a
       0.07864601 -0.11289077 0.012996687 0.0015967202
000060 d8 ff 54 3d b1 b4 14 bd 1e 56 cb bc 92 47 c2 ba
       0.052001804 -0.036305133 -0.024821337 -0.0014822355
000070 16 51 2d 3d 59 3b f6 3d 84 75 e2 bd 33 b5 7c bd
       0.042313658 0.120230384 -0.110575706 -0.061696243
000080 a1 9e b8 bd 7c 1b e4 bd 99 4d df 3c f9 0c b8 3c
       -0.09014631 -0.11138055 0.027258681 0.022467123
000090 02 86 5c bc 16 9c c3 3d 4c 4e 65 bd 4a 30 ac 3d
       -0.013459684 0.095512554 -0.055982873 0.08407648
0000a0 f0 dd e8 3d 39 4b 6e 3d 45 b4 0e bd 9d 1c 92 bc
       0.11370456 0.058177207 -0.034839887 -0.01783591
0000b0 8c 8e e2 3d f6 8b c8 bc b4 b3 81 3d f9 42 6f bd
       0.11062345 -0.024480801 0.06333104 -0.05841348
0000c0 2a 54 ad bd ce 14 07 3d 35 4e 57 3d a1 83 4d bd
       -0.08463319 0.032978825 0.05256482 -0.05017436
0000d0 1a 34 01 be 7c 82 18 3d 7a 09 04 bb 61 10 b6 bd
       -0.12617531 0.037233815 -0.002014725 -0.08889843
0000e0 24 60 9b bc 7b 54 05 3d 00 89 62 3d 3b 24 e4 3c
       -0.018966742 0.03255127 0.055306435 0.027849307
0000f0 af 1c ac 3d 87 95 e9 bc 92 a5 e3 bc d1 37 6a bd
       0.084039085 -0.028513683 -0.027788911 -0.057182137
000100 0a fc c9 bd e6 0a bb bd 19 64 a8 3d e9 8e 98 bd
       -0.09862526 -0.09132938 0.08222217 -0.07449133
000110 5f d8 39 3d 70 68 86 3d 81 b1 4e 3c 1e 7d 27 bd
       0.045372363 0.065628886 0.012615562 -0.040890805
000120 f6 1f 89 bd a0 df ac 3d f7 e8 60 3d 76 0a e4 bc
       -0.06695549 0.084410906 0.054909673 -0.02783702
000130 9d b1 01 bd 55 f1 54 3d f8 5b 8c 3c 0a ac 90 3c
       -0.031663526 0.051987965 0.017133698 0.01766016
000140 bf 0c 26 3c e3 5a 02 bd b1 8a be 3d ca e4 b9 bc
       0.010134875 -0.031824958 0.09303797 -0.022692103
000150 13 8d 39 bd bc e9 a9 3d 6b 72 78 b8 ac 03 a4 bc
       -0.045300554 0.082965344 -5.9234368e-05 -0.020021282
000160 3e c4 dd 3d da ec 22 bc 74 52 48 bd 73 cc b0 bc
       0.10828446 -0.009944165 -0.04890676 -0.021581864
000170 62 03 96 3d 17 e3 31 3d dd 97 e6 bc 19 b3 54 bd
       0.07324864 0.04342946 -0.028148586 -0.051928613
000180 08 51 1e 3d a7 c4 d2 3d e7 1a e6 3a 46 8f 84 bc
       0.038651496 0.10291415 0.0017555625 -0.0161816
000190 0e 6a 9d 3d f6 81 35 3d 22 d9 ab 3d 62 d7 98 3d
       0.07686244 0.044313394 0.08391024 0.07462956
0001a0 ee 56 54 3d 59 46 83 3c 1f c0 a3 3c bc 89 2b bd
       0.051840715 0.016024755 0.019989071 -0.0418794
0001b0 90 48 06 bd f4 ce 56 3d d9 0e 65 bd 01 e3 94 bd
       -0.032784045 0.05244346 -0.055922363 -0.0726986
0001c0 a2 3a 17 3c 4c c9 eb 3c d2 3c 3b 3d f4 1c 1f ba
       0.009230288 0.02878251 0.0457123 -0.0006069683
0001d0 38 80 aa 3d 3b fd 3e bd 61 e4 df 3d fb 7d e1 3b
       0.08325237 -0.04662822 0.10932232 0.006881473
0001e0 a7 f8 b6 bd f0 b0 92 3c 8a 14 95 3b f5 97 98 bc
       -0.089341454 0.017906636 0.0045495676 -0.018627146
0001f0 46 aa 51 3d 09 37 63 bb 1d 2b 34 3d 71 7c 1d 3d
       0.051187776 -0.0034670255 0.04398643 0.038448755
000200 79 7e cb 3c 1b fd 9a 3c 81 de 81 bd 16 c7 72 bd
       0.02484058 0.018919518 -0.063412674 -0.059271894
000210 0e 76 8e bc c4 ed 49 3d 7a 3c 64 3d ac 5f 14 3c
       -0.017390277 0.049299017 0.055721737 0.009056013
000220 8d df 3f bd f8 d3 c5 bc c0 7b 43 bc c7 cc 96 bd
       -0.046844054 -0.024148926 -0.01193136 -0.07363277
000230 d6 08 5d 3d 09 92 5c 3d f3 39 40 3d 6d 56 38 bd
       0.053963505 0.053850207 0.046930265 -0.045004297
000240 d6 ac 8e 3c 88 8d 0b 3e 8a dc e3 3d fc cb 9b bb
       0.017416399 0.13628209 0.11126049 -0.0047545414
000250 5f ba be bd 48 a5 ba 3d 20 6b 27 bc cf 5d b1 3d
       -0.09312891 0.09113556 -0.010218412 0.08660471
000260 42 9c 66 bc d7 79 cb bd 43 3d 3a 3c 51 e9 e3 bd
       -0.014075341 -0.099353485 0.011367145 -0.11128486
000270 a4 98 96 bd da 11 61 bd 4b a8 af 3d f2 9a 1e 3c
       -0.07353333 -0.054948665 0.08577021 0.0096804965
000280 e9 1e 3b 3d 95 02 fa bc 9a 36 8f 3d c9 cc c0 3d
       0.045683775 -0.03051881 0.06992836 0.0941406
000290 41 b3 c6 3d 91 c5 79 3a 17 14 89 3d ec d7 bd 3d
       0.09702159 0.0009528036 0.06693285 0.092696995
0002a0 f7 51 e4 bc af 6b db 3c 22 86 9e bc af 43 08 bd
       -0.027871115 0.026784746 -0.019351069 -0.033267673
0002b0 5e b5 93 3d ec 7f 01 bd 91 ed 88 3d 60 26 0c bd
       0.072123274 -0.031616136 0.06685937 -0.034216285
0002c0 fc 3f 9e 3d c8 e9 8b 3d aa 2c 3f bd d2 3f c0 bd
       0.07727048 0.068316996 -0.046673454 -0.09387173
0002d0 f3 b3 b7 3d b4 a5 94 bd b8 3a db 3a 8f ec ab 3d
       0.089698695 -0.07258168 0.0016725874 0.08394729
0002e0 c7 3b d2 3d 19 a6 1a bd 19 e2 bb bd 9d 79 c1 bd
       0.10265308 -0.03775606 -0.09173984 -0.09447024
0002f0 15 bc 4d bd c4 92 c2 ba 48 0a 78 bd 35 db ff 3c
       -0.050228197 -0.0014844765 -0.06055668 0.031232456
000300 4a 29 b1 3d 41 53 d8 3d ec fd e4 bc 7a d0 ab bd
       0.086504534 0.105627544 -0.02795311 -0.08389373
000310 1b 52 95 bc 6a 3d ba bd 5e d1 a4 bd 01 e1 a4 3d
       -0.018227628 -0.09093745 -0.08047746 0.080507286
000320 de ea c0 bb 03 b4 87 bc d5 cb 97 bb a2 9b 1d 3b
       -0.0058873734 -0.016565328 -0.004632453 0.0024049063
000330 d7 45 dc bd 72 df 82 3d d6 5c 51 3c b3 97 be 3b
       -0.107555084 0.06390275 0.0127784815 0.005816424
000340 bc 61 5a 3d a6 b7 9f bb c6 43 fe 3c d6 38 b2 3d
       0.053315863 -0.0048741875 0.031038176 0.08702247
000350 95 19 ab 3c 72 48 d5 3a 45 ff 71 bd 58 23 85 3d
       0.020886222 0.0016272201 -0.059081335 0.06500882
000360 98 bb a4 bb df e1 0a be ab 77 34 3d 67 46 00 be
       -0.0050272457 -0.13562725 0.044059437 -0.12526856
000370 ea 34 fe bd e7 b2 0f be 17 1a ab bd a1 63 65 3d
       -0.12412436 -0.1403309 -0.083545856 0.056003217
000380 ca 6e b1 bd e1 0c ba bd 35 b3 aa 3d c1 43 1c 3d
       -0.086637095 -0.09084488 0.08334962 0.038150553
000390 ed 0b 5a 3d b3 84 11 3d a2 fb 4b 3d 80 21 42 bd
       0.05323403 0.035526942 0.049800523 -0.04739523
0003a0 31 2b ea 3c 23 69 2b 3d c9 7d 95 bc f9 10 91 3c
       0.028585048 0.041848313 -0.018248456 0.017708289
0003b0 2f 52 c5 3c ab 92 3f be 5a 97 8f b9 52 c5 15 be
       0.02408704 -0.18708293 -0.0002738785 -0.14626053
0003c0 14 26 a2 3c af f4 3c bc 82 e3 00 be 9e ac d3 bd
       0.019793548 -0.0115329465 -0.12586787 -0.103356585
0003d0 ab 05 b1 3c a9 76 a0 bd ca 7d 18 3d df e9 03 be
       0.021609148 -0.07835133 0.037229337 -0.12882183
0003e0 6a d9 b1 3d 11 d3 b3 bd 28 26 66 3c b4 50 9b 3d
       0.086840466 -0.08780492 0.014047183 0.07583752
0003f0 2e cb d3 3b 0d 81 25 bd 2c 2f aa 3c 1e dc 99 bd
       0.00646343 -0.040406276 0.020774446 -0.07512687

attention_module.W.weight f4 [64, 512]
000000 e4 55 8f 3d d0 5f bf 3a 0c 5d e9 bc 7c 63 1a 3d
       0.06998804 0.0014600698 -0.028486751 0.037692532
000010 da 42 3f bd a7 28 34 bd 3c 9e 83 3c 43 70 a2 3d
       -0.046694614 -0.04398408 0.016066663 0.079315685
000020 07 ec 6a 3c 3b 45 3b 3d 58 55 3b bd c5 27 49 3d
       0.0143385 0.04572032 -0.045735687 0.049110193
000030 85 5a ac bc 9e b7 b3 bc d7 f8 ed 3c 53 3d 41 3d
       -0.021039257 -0.021938141 0.02904932 0.047177624
000040 64 34 d5 bc 80 e8 31 bc 6d 43 0b bd 9c df 1b 3d
       -0.026025958 -0.010858655 -0.03399985 0.038055047
000050 cf cc f3 3b 39 b5 8b bc 42 a2 0c bb a8 43 78 3c
       0.0074401866 -0.017054187 -0.0021459018 0.015152849
000060 a6 56 83 3b c5 22 6b 3d 00 e0 96 3c 74 3c 6a bc
       0.004008132 0.057406206 0.018417358 -0.01429664
000070 6d 41 78 3d 1a d3 24 ba a6 d0 67 3d a4 d0 3e 3b
       0.06060927 -0.000628756 0.056595467 0.0029116059
000080 cd e5 dd bb 67 23 17 bd d1 8b 8b 3d b4 35 93 3d
       -0.006771779 -0.036898997 0.06813777 0.071879774
000090 d1 06 08 bd bb bb 21 bd 4e c1 07 bc cf 1a 79 3b
       -0.033209626 -0.039485674 -0.0082858335 0.0038010364
0000a0 5b de ac 3c 15 82 f0 3c b0 e2 0e bc 34 ad a2 3a
       0.021102121 0.029358903 -0.008721039 0.0012411238
0000b0 16 f9 0a 3d 4d b3 48 bb 3d 39 d0 bb 3c 2c 98 bc
       0.033928953 -0.003062445 -0.0063544796 -0.01857578
0000c0 15 66 17 3d 26 4a 33 bc 13 56 96 3b 22 48 89 3d
       0.036962587 -0.010942971 0.0045878976 0.06703211
0000d0 b6 79 9b 3d 9c 08 02 3d 0b 61 42 3d b2 72 4f 3b
       0.07591574 0.03174649 0.04745583 0.0031654057
0000e0 33 00 d5 bc 15 eb ee bc be 5d df 3c f9 6e 83 3d
       -0.026001072 -0.02916483 0.02726638 0.06417651
0000f0 c9 b9 4e bc d3 8a 41 3c 2a aa c9 3b 40 3f dc bc
       -0.012617537 0.011812883 0.0061543183 -0.026885629
000100 ce ec 8b bc b9 e4 c5 bb 5d 4b 9d 3b 01 69 d6 3c
       -0.01708069 -0.0060392288 0.004800244 0.026173117
000110 a2 19 99 3d 66 95 1b 3c 92 03 a6 bc 5f dd 77 bb
       0.07475592 0.009496069 -0.020265374 -0.0037821156
000120 b2 c8 a7 bc 59 85 c9 3b 81 c8 38 3d d4 2d 29 3d
       -0.020481441 0.0061499295 0.04511309 0.04130347
000130 38 42 3c bd 77 b9 cf 3b 70 d6 01 bd 40 13 c5 bc
       -0.04596159 0.006339248 -0.031698644 -0.02405703
000140 35 7c a5 bc fe 0e 15 3c 9a 9a 45 bc 3e 0a 7c 3a
       -0.020200828 0.009097813 -0.012060786 0.00096145633
000150 05 0a 0b 3d fa 5a e6 bc 4f 74 06 bd e0 66 0c 3b
       0.033945102 -0.028119553 -0.032825764 0.0021423623
000160 3f a7 19 3c 68 fd 03 3d df f2 2f bb b3 ca 34 bc
       0.0093782535 0.03222409 -0.0026847643 -0.011034655
000170 3f e1 0b bb 44 4d 44 bd 9b 29 09 bd ac e1 bb 3c
       -0.0021343974 -0.04792525 -0.033486944 0.022934757
000180 03 4b 2f 3d 50 4c a9 3c e7 a9 27 3d df 06 ec 3c
       0.042796146 0.020666271 0.040933516 0.02881187
000190 58 96 88 3c fc 28 55 3d dd f7 96 3d 6e 67 3f 3b
       0.016673252 0.05204104 0.07371495 0.0029205936
0001a0 bf c8 17 bd dc c2 ee 3b 42 42 a6 bc cc 8f 24 bd
       -0.03705668 0.0072864126 -0.020295266 -0.040176198
0001b0 1a 4a 8c bc 8c 58 35 3d 17 45 34 3c 01 6c b9 3c
       -0.017125178 0.044273898 0.0110028 0.022634508
0001c0 f6 7a 5b 3d 15 3e a1 3c 11 e8 e6 3c 5e b2 87 bc
       0.05358406 0.019682923 0.02818683 -0.016564544
0001d0 d2 fd 5f bc 2f 57 42 3d 6c 39 eb 3c 16 6c c8 3c
       -0.013671355 0.047446426 0.028713904 0.024465602
0001e0 9e 07 2d bd 90 5f 31 bb 34 f7 95 bc 91 61 e8 3c
       -0.042243592 -0.0027065016 -0.018306352 0.028366836
0001f0 57 19 c1 3c e0 cd 55 bd 60 fa 6f bd 58 c4 44 3d
       0.023571653 -0.05219829 -0.058588386 0.04803881
000200 39 75 92 3c 41 ba 4e ba d1 b7 e6 bc 38 96 6b 3c
       0.017878162 -0.00078860304 -0.028163822 0.014379077
000210 a5 a0 2f bd 9c 51 df bc c7 e2 95 3c 9a 5f f3 bc
       -0.042877812 -0.027260594 0.018296612 -0.029708672
000220 08 8a 83 3d 27 ca 84 bc e7 37 0a 3d 86 2f 06 bd
       0.06422812 -0.016209675 0.03374472 -0.032760166
000230 3f 85 3d bb ef 8c 1e 3c 0b bc 4d 3d 0a ab 38 3d
       -0.0028918532 0.009677156 0.05022816 0.04508499
000240 46 5b 26 39 93 b8 ad 3c 5c 38 36 bc d5 8c 05 bc
       0.00015864996 0.021206176 -0.011121836 -0.008151253
000250 20 d1 2a 3d f2 4b 5d 3d 76 9d 86 3d f0 0e fc b7
       0.041703343 0.054027505 0.06573002 -3.0047697e-05
000260 8c 55 3a bd d6 75 a3 3b ad d6 4f 3d 5c 51 b8 bc
       -0.04549174 0.0049884124 0.05074184 -0.022499733
000270 ed d7 27 3d 88 68 0f 3d ed c8 96 3b 2c 69 e8 bc
       0.040977407 0.0350118 0.004601589 -0.028370462
000280 b2 05 27 bd fa 6e 06 3d 0b c6 df 39 77 30 83 bc
       -0.040776916 0.03282068 0.00042681428 -0.01601432
000290 a8 ba 72 3d 21 d4 3b bc 87 1d 9b 3d 6b dd 57 3b
       0.05926004 -0.01146415 0.07573991 0.0032938372
0002a0 dd b6 aa 3d f8 eb cc bc 4e 6c 8f bc db ed 97 ba
       0.0833566 -0.025014862 -0.017507698 -0.0011591272
0002b0 5f b2 38 3d 7b de cd 3b 3c d0 58 bc 4c 1d 41 bd
       0.045091983 0.0062826253 -0.013233241 -0.04714708
0002c0 c9 28 75 3d 53 97 f9 bc 16 86 aa 3a 55 e6 05 bc
       0.05985335 -0.030467665 0.0013009931 -0.008172591
0002d0 84 1e 14 3d b4 b4 a8 3c 22 9d f4 bc b3 6e ce bc
       0.036161914 0.020593978 -0.029860083 -0.02519927
0002e0 b8 9c bd bb 22 d6 55 3d 28 86 82 3d 54 fd e6 bb
       -0.0057865046 0.052206166 0.063732445 -0.007049242
0002f0 40 52 d5 3c ab 4f 6b bc 05 24 39 3c d1 35 49 3d
       0.026040196 -0.014362256 0.011300092 0.04912359
000300 1f b7 c1 3c 8b 48 4b bb 73 98 6f 3b 53 ff 7f 3b
       0.02364689 -0.003101858 0.0036559373 0.0039062097
000310 19 00 04 3d 26 5f a0 bb 66 26 10 3d 38 fc 34 bc
       0.032226656 -0.004894155 0.03519287 -0.011046462
000320 2f ab 36 3d 8c 05 ef bc 27 2a 9e bb 90 85 95 bc
       0.044596847 -0.02917745 -0.0048268023 -0.018252164
000330 26 e1 4e 3d 0d 56 62 bc 72 65 99 3c 2e f8 13 3d
       0.050507687 -0.013814461 0.01872513 0.036125354
000340 8e f8 53 bc 79 d8 c5 b9 b3 a9 c3 bc 9c bb 00 bd
       -0.012937678 -0.00037736053 -0.02388463 -0.03142892
000350 e2 2d 18 3d d8 3b 22 bd b4 58 46 3d 5a ae ac 3c
       0.037153132 -0.039607853 0.048424438 0.021079231
000360 5f f7 09 bc d7 b3 40 bb 66 48 f8 3c 37 21 dc 3c
       -0.008420794 -0.0029404068 0.03030796 0.026871307
000370 31 bf 7a bc 87 79 44 3d 29 66 a7 3c b6 8d e7 3b
       -0.015304373 0.04796746 0.020434456 0.007066454
000380 5d 80 10 bd 46 04 9b bc 5a cf a1 3c fb 44 2b 3d
       -0.035278667 -0.018922936 0.019752193 0.04181383
000390 4a 3f 4c 3d 02 72 08 3d b0 b8 7c 3d 74 1e 22 3d
       0.049865045 0.03331185 0.06169957 0.039579824
0003a0 d1 9e 9a 3d a0 ef 17 bc 26 c7 b4 3b f0 4f f1 bc
       0.07549823 -0.00927344 0.0055169044 -0.029457062
0003b0 7e de 51 3c 26 45 71 3d ae 7b 2e 3d e7 10 80 bd
       0.012809394 0.058903836 0.04259842 -0.06253224
0003c0 20 4e 28 bc fd 57 ff 3c c2 35 61 3c f3 4a 89 3d
       -0.010272533 0.031169886 0.013745727 0.067037486
0003d0 ab 4f 43 3c a6 25 cb 3c db b1 e7 bc c8 a1 57 b7
       0.01192085 0.024798226 -0.02828305 -1.2852666e-05
0003e0 69 3e 95 3c 39 90 b6 3c 7a 69 ae 3c 79 f6 01 bd
       0.018218236 0.022285568 0.02129053 -0.031729195
0003f0 07 09 80 3d a9 23 48 ba af 19 2b bc ff 96 ce 3c
       0.06251722 -0.00076347083 -0.010443135 0.025218485
