experiments/training/1/checkpoints/epoch_200.pth (torch, 538788 bytes, 53 tensors)

lin_proj.weight f4 [64, 2]
00000000: 4aeb 1fbe 4800 df3e 3d1e c6be 1f83 edbe
00000010: 3c83 96bd 1d23 a03e fe7b a3be cfcb 3a3e
00000020: 4de2 903e 5ad0 023e f277 00bf f05a dabe
00000030: f5ab 14be fc95 863e d29f 67be f13d fdbe
00000040: 1d63 253c fd04 2c3f 91e8 bfbe 545c 063f
00000050: d100 0a3f d9ea 38bf 16d9 a03d e577 303f
00000060: 0308 16bf 373a 2ebf 280d 593e 290e 193f
00000070: dcd7 15be a869 acbe a62f 373f 76fc 403e
00000080: 9450 913e f8f8 c33e a046 b0be d930 e43e
00000090: f726 653e b8be 4ebe 8e28 21bf d05e b53e
000000a0: 9963 a13e 1f81 b03d 2d07 713e 3777 973d
000000b0: fd2c 223e 0834 313e 7da2 07be c81f 2b3f
000000c0: cea3 d1be 0a62 3e3e 8c53 5c3e 4ca5 1dbe
000000d0: 2fbb 0cbd 7809 873d 3d07 08bf f1de 013f
000000e0: 17e8 1ebe cf84 8b3d ee27 2f3f 1785 a0be
000000f0: da8d abbe 57f1 c73e ceef 843d c39e 1b3f
00000100: 8d38 f4bd 3d7e 9bbe 6902 ea3d bbd6 16bf
00000110: 6139 adbd 3b1e 163e 94c4 503e def7 fcbe
00000120: 8467 97be 8696 923e 58bb c53e 02a8 ba3e
00000130: bc7e 86be 4873 863e 5f0f b83e eecd 033f
00000140: 4520 2b3f c71b 203d 05ee b53e d877 d9be
00000150: 5a43 973e df11 1a3f 5fb2 ce3d 5c0a 373f
00000160: 9cb1 973c f74e c73e 58b9 ed3e e5e2 7b3e
00000170: 7838 313f 7079 be3e e635 b43a adf5 ca3e
00000180: ea0b 203e 34c8 9dbe 88f6 30bd cfa1 71bd
00000190: 10a5 f83e 8e10 a2be ad98 e93d 5520 7e3e
000001a0: 4d62 723e 36ec cc3e fe99 2abd 289d 33bf
000001b0: 16dd 1fbf 59ee 043f 112d 32bc c95e 8cbe
000001c0: 7a59 2cbe b016 1f3f 8479 033e 9156 80be
000001d0: 851f 503e edd7 b5be 90be 173f 1df7 f83e
000001e0: 6eac 163f 852d d63c 96c5 f0be 729c d6be
000001f0: ea74 0dbf 4202 a03e 4405 53be 0268 5f3e
-0.156171 0.43554902 -0.38694945 -0.463891 -0.0734925 0.3127679 -0.31930536 0.1824181
0.28297654 0.12774792 -0.5018302 -0.42647505 -0.14518721 0.26286304 -0.2261956 -0.4946132
0.010094431 0.6719511 -0.37482122 0.5248463 0.53907496 -0.7223335 0.07853906 0.68932945
-0.58605975 -0.6805758 0.21196425 0.5978723 -0.14633125 -0.3367436 0.7155708 0.18846306
0.2838179 0.38275886 -0.34428883 0.44568518 0.22378145 -0.20189941 -0.62952507 0.354239
0.315213 0.08618378 0.23537894 0.07395785 0.15837474 0.17305005 -0.13245578 0.6684537
-0.40945286 0.18592086 0.21516246 -0.15395087 -0.0343582 0.06593603 -0.53136045 0.50730807
-0.15518223 0.068124406 0.684203 -0.3135154 -0.33506662 0.39051315 0.064910516 0.60789126
-0.11924849 -0.3036975 0.11426241 -0.589214 -0.0845821 0.1465997 0.20387489 -0.49407858
-0.29571164 0.28630465 0.38619494 0.36456305 -0.26268566 0.26259828 0.35949227 0.514861
0.66846114 0.03908899 0.35533157 -0.42474246 0.29543573 0.6018352 0.10092615 0.7150018
0.018517308 0.38927433 0.4643047 0.24598272 0.6922679 0.37202024 0.0013748973 0.3964056
0.15629545 -0.30816805 -0.04320386 -0.058992203 0.48563433 -0.31653255 0.11406074 0.24817021
0.23670311 0.40023965 -0.041650765 -0.70161676 -0.62446725 0.5192619 -0.0108750025 -0.27416065
-0.16831008 0.62143993 0.12839323 -0.25066045 0.20324524 -0.355163 0.5927515 0.48626032
0.58856857 0.026144752 -0.47025746 -0.41916233 -0.5525652 0.31251723 -0.20607477 0.2181702

lin_proj.bias f4 [64]
00000000: 216c 063e 2626 85bc 1b29 293f 7551 3abe
00000010: 05ce 5abe 1c72 a03e e7ad 0a3f 9b3f 253e
00000020: d374 6e3c b464 e33b d687 26bf 6aaf 05bf
00000030: a0f3 bc3e 1015 d03e 2921 15bf deab 0fbe
00000040: 8099 28bf 27e0 61be 39d2 273f 200e b23e
00000050: 140a 95be c708 1d3f c691 03bf 626b f33e
00000060: 8c24 83be 6c0a 15bf 7769 5abd 2992 003f
00000070: d9a6 963d 5a41 4fbe 7d1b c53e fdff 87bd
00000080: 6b02 cdbe ae06 673e 7fc5 76be 06e2 a73e
00000090: 7843 10bf 4f69 0cbb 86c0 603e 94b1 1abf
000000a0: 4873 e33e 910e 863e d5d9 2cbf a358 863e
000000b0: 22ec 233f a688 163f 494b 903e 824b 1cbf
000000c0: 5dee 22bf e0ee 453e 39d7 a7be ba99 913d
000000d0: d021 0cbf 3c13 ab3e bfe2 8ebc a41a fabe
000000e0: 1bb4 0a3e da2e b13e 4679 e7bc 4b15 34bd
000000f0: 1d5e 13bf 2656 c33e b1f3 dd3c 153c 123e
0.13127185 -0.016253542 0.66078347 -0.18195136 -0.21367653 0.3133706 0.54171604 0.16137545
0.01455422 0.006939495 -0.6505102 -0.52220786 0.3690462 0.4064107 -0.58253723 -0.14030406
-0.6585922 -0.22058164 0.6555515 0.34776402 -0.29109251 0.6134152 -0.5139431 0.47542864
-0.2561382 -0.5821903 -0.053323235 0.5022302 0.073560424 -0.20239773 0.38497534 -0.06640623
-0.40040907 0.22561142 -0.24098776 0.3278963 -0.5635295 -0.0021425074 0.21948442 -0.6042721
0.4442389 0.26182988 -0.67519885 0.262395 0.64032185 0.5880226 0.28182438 -0.61052716
-0.63644964 0.19329405 -0.3278139 0.07109399 -0.54739094 0.33413112 -0.017442105 -0.4884845
0.13545267 0.34606057 -0.02825607 -0.04396562 -0.5756548 0.38151664 0.02709374 0.14280732

lin_proj_2.weight f4 [5, 64]
00000000: 4b3d 21bd 60ca 58bc e05a a5bd eea4 0c3d
00000010: a5ab 8c3c fdda b5bd 11e6 303d 9323 aa3c
00000020: fc38 143e 927f 5c3d 99f7 a63d ba20 d23b
00000030: 3635 933d 3a54 db3a 73ce 93bc 46a5 c93d
00000040: ddb5 0e3e c4ff c5bd 9451 1e3d 4fb1 323d
00000050: 9ca5 fd3d 5d6d bbbd 8c1d bf3b 349e 663c
00000060: 6643 313e 1bc9 723d 462a 3c3e 4a93 cabd
00000070: 94f8 88bd 0362 16bd 36dc 02bd 3e0f ea3d
00000080: 918b bbbd 9148 e0bd 0058 7d3d 7d9f 2c3b
00000090: c180 2b3c 2479 adbd b3e7 63bd 90e4 1a3d
000000a0: 86f2 d1bb b35c d73d 6004 a6bd a76e c2bd
000000b0: 67c2 c13d 99e0 87bd e4ed cebd f0e7 6abd
000000c0: 7add 7bbd 9a02 b13d b88a 26bc 1465 1e3d
000000d0: 8f05 a23d da7d 253c 1856 81bd c905 503c
000000e0: 28e9 3bbb e1be db3d 79f9 053e 5a31 99bd
000000f0: 2bfb 92bd 5815 cc3d d140 9fbd fe8d 9dbc
00000100: c14b 193d 5b92 24bc 4808 e1bd d12d e8bc
00000110: eb36 893d 39bc b23d 263c d93c 8fd1 f8bc
00000120: cfc6 7a3d 3892 c33d 4e2e 2a3d 9990 233d
00000130: 9ebc 8abd e5c9 a33d 0581 afbd d749 033d
00000140: cb2b 2c3d ca0b 023e b9af 113b 7c39 cebd
00000150: 52e0 54bd 18e9 7dbd b287 b7bd 2678 f23d
00000160: 5971 3ebd 95c2 adbd 7ac5 20be e202 9c3d
00000170: 62de 9e3d 53c9 92bc c598 09be 69b9 09be
00000180: 6e5c b33d 0155 4b3d bfe8 053e e853 2cbd
00000190: 8431 73bd f57d 7ebd 4ee7 333d 0557 703d
000001a0: 990c f33c 7b7d ce3d 6c73 693d b542 bc3d
000001b0: 87e3 823d debf 6f3d 8261 ebbd 2d12 be3c
000001c0: 6c0f e53c 6e14 b93d 0b00 3d3d fc75 303c
000001d0: c734 acbd 16f0 73bd d425 ae3c 0a4d 70bd
000001e0: 2f07 6e3c ebf1 d7bd 7271 413d 7a7b 873d
000001f0: 2b7a 293d 1107 d3bd b58a 333d ea1b febd
00000200: 5d32 bdbc 3c35 c5bc 936f 043e 1d55 8cbd
00000210: 05f2 35bc f306 83bd 4b51 12bd 2c69 a1bd
00000220: c8d7 d1bd 9442 91bd 2744 a03d ae7b 72ba
00000230: 0e48 6abd 3c84 54bc 2ab2 cbbc 144c 9d3d
00000240: 7890 403d 426f 89bd 6df5 8cbd eb20 df3d
00000250: a68c 163d a184 94bd 5a85 cbbc fd33 1d3d
00000260: 1e38 7e3d 4649 cbbc 9e96 a93a 6a3c a0bc
00000270: c682 35bd c180 61bd c828 023e 9001 a63d
00000280: d1fd f1bc 2588 4b3d 36ee 693c 9c57 ce3c
00000290: 81c8 903c b668 e6bd f5d7 e5bd 5532 ebbd
000002a0: 241a cd3c 4863 efbc db39 ed3d 085a e4bd
000002b0: 8818 05be 09c0 a4bd 729c 5abd 0873 9d3d
000002c0: d209 0e3a cdad 14be e549 ebbd 55de fcbc
000002d0: 3585 ae3d c0b5 223d 8286 083b c286 003e
000002e0: ea58 d4bd 286b 61bc 5d0f ddbd 0ed5 9e3d
000002f0: 8714 c43d 7b20 b43d 8ae9 013e 26f4 093e
00000300: 031e b4bd fb7b 963d 3ed3 b6bd d6d0 22bc
00000310: 68a9 bebd 0dcd 013d 3333 e6bd 82bd 873d
00000320: fd2c 1cbd 6551 e6bc 4531 11bd 7ea1 a63d
00000330: 8bb1 213c 0658 89bd d712 b5bc 0103 693d
00000340: dfc7 70bd 903e 073b f906 e5bd 92fd debc
00000350: b7cd 9a3d e4d2 bdbd f562 82bd 05ce 30bd
00000360: 1da6 493d 73bd 60bd bb8d 8b3d 3c68 36bd
00000370: 8718 47bd 54e9 d0bd 5a2c d6bd b78b c53d
00000380: d989 683d 358e 2abd 4baa cb3c 6a93 71bd
00000390: a5bf 2e3c 1e70 e93d e2be 5e3d 9033 8d3b
000003a0: 808c cebd 1994 eebd 478c 8dbd 60db 4cbd
000003b0: abe1 d8bc d683 053c 6a29 c8bc 47ab cebd
000003c0: b325 e7bd 3db7 1dbd 9d04 80bd fe4d dd3d
000003d0: c715 dabd 16cb 9dbd fd61 693d 419c d73c
000003e0: be77 af3d 5ecc 4e3c 4e79 163b 1080 87bd
000003f0: b635 e9bc 4454 ea3d b9d9 b53c 92dc ea3d
-0.039365094 -0.013231844 -0.08073974 0.034336977 0.01717169 -0.08879659 0.04318816 0.020768916
0.14474863 0.053832598 0.08152694 0.0064125927 0.071878836 0.0016733475 -0.018042779 0.098459765
0.13936563 -0.09667924 0.038652018 0.043626126 0.12385103 -0.09151719 0.0058323797 0.0140758045
0.17310867 0.05927382 0.18375501 -0.098913744 -0.066880375 -0.036714565 -0.03194829 0.114286885
-0.091574796 -0.10951341 0.0618515 0.002634018 0.010467709 -0.08470371 -0.055640887 0.03781563
-0.006407085 0.10515728 -0.08106303 -0.094937615 0.094609074 -0.066346355 -0.10103968 -0.0573501
-0.061490513 0.08643074 -0.010164909 0.038670614 0.079112165 0.010100806 -0.06315249 0.012696692
-0.0028672908 0.10729767 0.13083448 -0.07480116 -0.07176813 0.099650085 -0.077760346 -0.019232746
0.03742576 -0.0100446595 -0.10987908 -0.02834216 0.06699928 0.08727307 0.026517939 -0.030373363
0.061224755 0.095493734 0.041548066 0.03993282 -0.06774257 0.07997493 -0.085695304 0.03205284
0.04203395 0.1269981 0.0022229983 -0.10069558 -0.05197174 -0.061989874 -0.08961429 0.11839323
-0.046494815 -0.08484379 -0.15700331 0.07617737 0.0775726 -0.017918264 -0.13437183 -0.13449635
0.08757864 0.049641613 0.13077067 -0.042072207 -0.059373394 -0.06213184 0.04392176 0.05867674
0.029669093 0.10082527 0.05699484 0.09192411 0.06391054 0.05853259 -0.114932075 0.023202026
0.027961455 0.090371 0.04614262 0.010770317 -0.08408504 -0.059555136 0.021258272 -0.05866722
0.01452808 -0.10544189 0.04722733 0.06615348 0.041376274 -0.10304082 0.043833453 -0.12407668
-0.023095304 -0.024073236 0.12933187 -0.068521716 -0.011105065 -0.0639781 -0.03572206 -0.07881388
-0.10246235 -0.07092777 0.07825499 -0.0009249997 -0.057197623 -0.01297098 -0.024865229 0.076805264
0.047012776 -0.06710674 -0.06882749 0.108949505 0.036755227 -0.072518595 -0.02484386 0.038379658
0.062065236 -0.024815213 0.0012938564 -0.019560058 -0.04431417 -0.05505443 0.1271087 0.08105767
-0.029539974 0.049690384 0.014277985 0.02518826 0.017673733 -0.11250441 -0.11222831 -0.114842094
0.025036879 -0.029222146 0.11583301 -0.111499846 -0.12997639 -0.0804444 -0.053371854 0.07687956
0.00054183335 -0.14519425 -0.11488704 -0.030867735 0.08521501 0.03972411 0.0020832126 0.12551406
-0.103685215 -0.013758458 -0.10793946 0.07755481 0.09574228 0.08795258 0.12686744 0.13472041
-0.08794787 0.07347866 -0.0892701 -0.009937486 -0.093096554 0.031689692 -0.11240234 0.066279426
-0.03812884 -0.028114984 -0.035447378 0.08136271 0.00986899 -0.06706242 -0.02210371 0.05688763
-0.058784362 0.0020636655 -0.111829706 -0.027220521 0.07558768 -0.0926874 -0.06366531 -0.043165226
0.049230684 -0.054868173 0.06814142 -0.044533 -0.048607375 -0.10200754 -0.10457678 0.09645789
0.056772087 -0.041639525 0.024861475 -0.058978476 0.010665809 0.11398338 0.05438126 0.0043091252
-0.10085392 -0.11649341 -0.069115214 -0.0500139 -0.026474794 0.008149108 -0.02443381 -0.10091262
-0.112864874 -0.038504828 -0.0625088 0.108058915 -0.10648685 -0.07704751 0.056978215 0.026319625
0.08567761 0.012621967 0.0022960487 -0.06616223 -0.028467994 0.11441854 0.022198545 0.11467852

lin_proj_2.bias f4 [5]
00000000: cfee b9bd 0a0d 983d 470f 7b3d d3a6 ec3d
00000010: 297a 9c3d
-0.09078752 0.07424362 0.061293866 0.11555257 0.07640488

graph_attn_module.gat_conv.att_src f4 [1, 4, 100]
00000000: f200 583e 55b0 923c e8bb 51be fa41 9fbc
00000010: 1adf 953c a46e 8f3d 1f58 22bd fc74 883d
00000020: 9acf eabd c758 863d 0ee5 0cbe e2d2 27be
00000030: e9b8 d1bd 125a efbd a364 50be fb8f efbd
00000040: 4345 1d3e 3337 213e 5893 343e 5c8e 353d
00000050: 540f 28bd c51d 64be 3436 6abe d034 053e
00000060: d726 c03d d7ea 0d3e 912d 5a3c 6d01 5abe
00000070: de55 33be b00e d33d 3de0 713c 0d53 c7bc
00000080: ee19 c1bd 9f23 c5bd 3c77 f53d 6070 40bd
00000090: 6290 613d 1484 723e bc18 db3d c392 353e
000000a0: e437 76bc 2177 813e 9fb4 e1bd 344a 21be
000000b0: 2285 a73d 5e70 a0bd 9d21 1dbe 2fed 7abd
000000c0: 86c6 0f3c e2bb d03d fd03 743c fb16 843e
000000d0: 9e3a 413e 491c 2cbe fb52 edbd 5cd4 8b3c
000000e0: 7f16 543c 11a4 dcbd f127 17bd 3758 733e
000000f0: 8b3b 45be 52b5 1cbe 5c95 023e 486d 4ebe
00000100: 74b6 313e 981e 2dbe 4253 0bbe 3f5a 023e
00000110: 3cab c7bd 6f49 393e 2e30 dabc 314d 28bd
00000120: 550f 19be d580 e43d 7082 43be f049 d63c
00000130: 06a9 163e 49cb 313e b4af 1cbe 1658 f8bb
00000140: 6735 e23d 0a4a 313e 1def 6fbe 133e 29be
00000150: a9e1 d03d db81 c6bd 3c21 d9bd ca6f d43d
00000160: f2fb b63d 58d3 eb3c fc4b c2bd 8bc0 813e
00000170: 9bbe 5f3e 1ffe 073d 955f 943d 59f1 ca3d
00000180: 4653 3e3c b2c4 573e a7c9 4c3e 816f 1f3e
00000190: 978e 6dbe dd0f fbbd a219 bbbd 6ed9 3b3e
000001a0: f952 14be 1341 9e3d 3460 7c3c 351c f53d
000001b0: 7f8a 463d d428 6a3e a745 a4bd 3b40 4c3d
000001c0: dddb d6bd ff4d da3c 78a7 ef3d 0913 c63d
000001d0: 4e20 533e b7ff c4bd bc48 873c 483e 213e
000001e0: 2303 873e caa9 3fbe 882e a03d 6ce4 d4bd
000001f0: fb78 3ebd caa7 0bbd 3b2f a8bc 8ad6 093e
00000200: 5cf1 8f3d b1ca aabc 9207 603e e681 8abd
00000210: 522e 903d dfb2 fcbd 2105 583e 3da8 1cbe
00000220: 604f 7b3e 72b8 563d d937 45be 49aa 1dbe
00000230: 0fc5 cc3d 07d1 393e c26e 95bd 82ef 283e
00000240: 30da e43d 6d95 673d f183 fe3d 405f 15be
00000250: 6c90 613e f6eb 45be 1616 233e d625 783c
00000260: 175c 59be cf68 77be ab85 4d3d 162c 1dbd
00000270: be40 693e a295 11be 039c 3dbe f633 183e
00000280: ee27 943c 1d47 473e a549 793e 04c5 14bd
00000290: 5190 49be a24b 4b3e c468 0cbe 716b 5abe
000002a0: 3c29 bd3c 7361 86bd 053c 45be bea1 0e3e
000002b0: 5a2e 29be 9082 17be fd8f 69be 0bfc d73d
000002c0: 2d8e f33c aad8 49be 4d12 a13c 4a11 27be
000002d0: c98f 5f3d 0052 a83d d36b 5abe f2c7 f33d
000002e0: 54ea aebd 0029 06be 5434 253e d55e 313e
000002f0: 6f8c a43d 1035 5a3d 9edd 603d 71a7 01bd
00000300: bdf3 4cbe 1d83 24bd 91ca ae3d 1d5b 46be
00000310: 8935 86bd bfe8 18be 109d 5e3c ee25 cfbd
00000320: 5023 e2bc 92cd 75bd 7e9d 373e a04a ebbd
00000330: 9dca 623e 12bc 74be 68c5 2abe 4a13 943d
00000340: eaa0 bb38 e34e 7b3e 1094 83bc df7b 823e
00000350: 7687 b6bd 9696 ec3d 37df 4abe 7c44 12be
00000360: ae95 053e ef65 da3d 4fdf 48be ef22 1ebe
00000370: 0760 dfbb 37f6 0cbe bf09 803d b775 313e
00000380: a4f3 803e 76d1 11bd 4c4f 833c 2eab 083d
00000390: 8272 153d d90d db3c 8228 4cbe f46b 73be
000003a0: d08f f8bd 75f2 85be 7516 aebc fee0 183e
000003b0: 862b 573e 31fb 3b3d 77c2 2c3d 0e03 d8bd
000003c0: dcca 933d fd0b adbd ecc7 0bbe be3e fcbd
000003d0: ebf8 01be 7ddf c33d cbee 473d 3011 fe3d
000003e0: 6120 2cbe 0de8 e8bd 0672 bdbd 328a 6fbd
000003f0: 0cfd 8e3d f53a 23be 8084 eb3d 91dd 4f3e
0.2109411 0.017906347 -0.20481837 -0.01944064 0.01829486 0.07003525 -0.03963482 0.06662938
-0.11465378 0.06559902 -0.13759252 -0.16389039 -0.10240347 -0.116871014 -0.2035089 -0.11697384
0.15358452 0.15743713 0.17634332 0.044325218 -0.041030243 -0.22276981 -0.2287224 0.13008428
0.09382408 0.13859116 0.013316528 -0.21289606 -0.17513224 0.10305536 0.014762935 -0.024331594
-0.09428774 -0.09625935 0.11985633 -0.04698217 0.055069335 0.23683196 0.10698077 0.17731766
-0.015027974 0.252862 -0.11020779 -0.15750962 0.0817969 -0.07833932 -0.15344854 -0.061261352
0.008775359 0.10192086 0.014893529 0.25798783 0.18870017 -0.16807665 -0.11588093 0.017069034
0.012944817 -0.10773481 -0.036903325 0.2376412 -0.19260995 -0.15303543 0.12752289 -0.20158875
0.17354757 -0.16906202 -0.13605979 0.12729739 -0.09749457 0.18094419 -0.026634302 -0.04108924
-0.14947255 0.11157385 -0.19092727 0.026158303 0.14712915 0.17362703 -0.153014 -0.00757886
0.11045342 0.173134 -0.23431058 -0.16527586 0.10199291 -0.09692737 -0.10602042 0.103728846
0.089347735 0.0287873 -0.09487149 0.2534221 0.21850054 0.033201333 0.07244793 0.09909315
0.011616534 0.21071127 0.199988 0.15569879 -0.23198925 -0.12258885 -0.091357484 0.18344662
-0.14484777 0.07727256 0.015403796 0.11968271 0.048471924 0.22867137 -0.08021098 0.049865942
-0.10491154 0.02664852 0.11701864 0.096715994 0.20617792 -0.09619086 0.016514175 0.15746415
0.2636958 -0.18717113 0.07821375 -0.103951305 -0.046502095 -0.034095563 -0.020530334 0.13460746
0.070284575 -0.020848604 0.21877888 -0.067630574 0.07040085 -0.123388045 0.21095707 -0.15298553
0.24541998 0.052421995 -0.19259585 -0.1539699 0.099985234 0.18146144 -0.07296516 0.16497615
0.111744285 0.056538988 0.124275096 -0.14587116 0.22027749 -0.19328293 0.15926394 0.01514574
-0.21226536 -0.24161075 0.050176304 -0.03837212 0.22778603 -0.14217237 -0.18516545 0.14863572
0.018085446 0.19460721 0.243445 -0.0363207 -0.19683959 0.1985307 -0.1371184 -0.21330048
0.023090951 -0.06561556 -0.19261177 0.13928887 -0.16521588 -0.147959 -0.22808833 0.1054612
0.02973088 -0.19711557 0.019662047 -0.16315189 0.054580484 0.08218765 -0.21330194 0.11903371
-0.08540788 -0.13101578 0.16133243 0.17321332 0.08034598 0.05327326 0.05489885 -0.031653825
-0.20014854 -0.040164102 0.0853473 -0.19370694 -0.0655318 -0.14932536 0.013587251 -0.101146564
-0.027604729 -0.0600105 0.17931172 -0.11488843 0.22147603 -0.23899868 -0.16676867 0.072302416
8.9468274e-05 0.24541812 -0.016061813 0.2548513 -0.08912556 0.115521595 -0.19811712 -0.14283937
0.1304538 0.106639735 -0.19616435 -0.15443014 -0.0068168673 -0.13765799 0.06251859 0.17330061
0.25185883 -0.03560015 0.016029023 0.033366375 0.036486156 0.026740002 -0.19937328 -0.2377165
-0.12136805 -0.26161543 -0.021250943 0.14929578 0.21012697 0.04589385 0.042177644 -0.10547458
0.07216427 -0.08449552 -0.13650483 -0.123166546 -0.12692611 0.095641114 0.048811715 0.12405622
-0.16809227 -0.11372385 -0.09250264 -0.058481403 0.069818586 -0.15940459 0.11499882 0.20299365

graph_attn_module.gat_conv.att_dst f4 [1, 4, 100]
00000000: 5186 07be da2f c83d d03f 583d 0f1e 183e
00000010: 0ece 283e bae9 4c3d bb86 09bd 0614 323e
00000020: d7c4 353d f51a f2bd 5089 163e c421 bf3d
00000030: b0e8 41be 1a8c 1d3c 0462 adbd 32bb d63d
00000040: fb6a 2abe be87 3cbe e0f2 973c 817a c33d
00000050: 03a3 18be 31f7 11be 3f85 4fbe 4ba8 4e3d
00000060: c2af 833e 3165 0dbe 35ef 383e 0c7a c43d
00000070: 56d0 4e3e 08df b8bd 1fcf 323e 5295 aa3d
00000080: 743d bebd c0ee 0fbd 06b4 5a3d 9d43 833e
00000090: 8fec fe3a 0f65 27be d05b 9a3c c2ab 28be
000000a0: 332e 4fbd b42d 663e 37a9 253e c386 f9bb
000000b0: a564 65be 26cd 89bd 9f4f 7dbb b9bc 4dbe
000000c0: c10c 2abe 61e9 db3d e6af 53be f090 5cbe
000000d0: 03e4 8e3e 6cb2 3c3e 0ea4 67bd 10b4 99bd
000000e0: 7f73 6cbe 5d37 e73c 6199 2c3e 8150 24be
000000f0: 5d99 86bd 243f 4ebe 0f99 64be 1712 143e
00000100: 85a6 d23c 65c6 3b3e 22cb 123e 79d8 2abd
00000110: 212e bf3d 1e13 f73c 7416 4ebd e7de a6bd
00000120: ec3f 43be a80f b23d 568c 8fbe c04b 53bd
00000130: ab09 073e 17ef 263e 6a5c c03d 2bcd fcbc
00000140: 1f55 453b 62b3 3e3c c777 3dbe 178d 0b3d
00000150: c18c c93d 935a 703e 94c1 c5bc 6c45 50be
00000160: 1c9f 293e 7df7 79bd 88d6 48be b550 a5bd
00000170: b873 4f3e 4c98 4c3d 20f8 4bbe a0ee 343e
00000180: c586 523d 1057 40be e600 8a3c d24e 913e
00000190: 3bf6 783e 6777 bcbb 77e8 39be 6c36 853d
000001a0: a09c 47bc 938a f8bc 5faf 3d3d dcc6 53be
000001b0: 8df7 09bd 6f9e c338 9941 64be dd06 283d
000001c0: 2bb8 f13d 996a fc3d 6503 25bd 971e cc3b
000001d0: 7234 3f3e b6b3 763e 78f0 ec3d 7b24 55be
000001e0: 5789 c8bd 2bbe 773e 888e 2b3e 2d93 35be
000001f0: fe67 37be 0e58 3e3e f605 e93d c20b 76be
00000200: 02e6 a3bd a076 1d3e 165c 6fbd 5ced cabc
00000210: d33f 303e e6fc 223e 2fed 3c3e ca9f 19be
00000220: 1a00 28be aba6 babd 02b0 f7bd 0495 143e
00000230: 190b 523e e32b 2e3e b6ae 243e aeaf bcbd
00000240: cb0d 293d bb34 523e 0180 aa3d 45b4 3bbe
00000250: ff9c 43bc 94d5 28be 6529 e2bd 3462 6abe
00000260: 3519 55be e9e1 893d 04fa 20bd 7c9f 62be
00000270: 97e1 57be c2eb bebb 6fec 61be 5dd3 6d3d
00000280: e76b 303d 1163 53be d3cb cabd 6c86 ffbd
00000290: 2b5a a63d 4461 2f3e aa27 2dbe 447a 2f3e
000002a0: 0fde 883e 0e1c 42be 446b aa3d d4bf f93d
000002b0: a309 2abe 4a1b 2cbd 560b afbd 2678 c93d
000002c0: f082 2ebd a26b 10be 90c7 67bb 4666 3fbe
000002d0: 685e c93d abcb 8d3d 7fab af3d f6e7 8fbc
000002e0: 97e6 053e 49aa 09bd ff4b 52be 0123 353d
000002f0: f8d1 df3d 6f30 c03b 6506 c93d 7079 dabd
00000300: 843e 6bbd 233c f3bc 8f9b 7e3d fc98 df3d
00000310: 0d43 c33d b9df 463e ebea 11be 2954 793d
00000320: d6bd 09be 0ac8 52be f4ef b43c 0179 fc3d
00000330: 3fe2 bbbd 29a8 233e fb94 c5bd 5b56 2fbe
00000340: 5386 703e ecaf 553e 337c a3bd 2352 e93d
00000350: c0a2 343e 3980 793d 35ce 98bd c59b 3cbe
00000360: 01cc 4dbe 2444 41be 5e55 29be 5a5d 553e
00000370: b9ad 813e bda4 bc3d 3ff8 1b3e d91b 6d3d
00000380: 1ade 32be 0c76 6f3d 3634 4f3e 88f2 e5bd
00000390: eb9a 02be fa3d 79bc 39b8 66be 9af8 693e
000003a0: 97c6 55be c3a7 cf3c 9348 1ebe 849c eabd
000003b0: 0c13 813e 4265 533e 9741 213e ca18 15be
000003c0: 67e3 223e 893e 7cbe ff76 993c 201c 7f3c
000003d0: 0832 143e 9bba 37bc 8792 6f3e e711 263e
000003e0: 25b5 043d 8cc5 5cbe 0bc0 2d3e 3133 cd3d
000003f0: c305 50bd 7204 57be ce91 72bd e66f eb3d
-0.13234831 0.09774752 0.05279523 0.14855216 0.16484854 0.050027587 -0.033575755 0.17390451
0.044377174 -0.11821548 0.14700818 0.09332612 -0.1893642 0.009615922 -0.084659606 0.104849234
-0.16642372 -0.18411157 0.018548429 0.0954485 -0.14905934 -0.14254452 -0.20265673 0.050453465
0.2572003 -0.13808133 0.1806 0.09593591 0.20196661 -0.09026915 0.17461823 0.08329262
-0.09289065 -0.0351398 0.05339434 0.25637522 0.0019449162 -0.16347145 0.018842608 -0.1647177
-0.05058117 0.22478372 0.16177832 -0.007614942 -0.22401674 -0.06728582 -0.0038652194 -0.20091523
-0.16606428 0.10737873 -0.20672569 -0.21539664 0.27908334 0.18427438 -0.05655294 -0.07505047
-0.23090933 0.028224641 0.16855384 -0.16046335 -0.065722205 -0.20141274 -0.22324012 0.14460026
0.025714168 0.183374 0.14335302 -0.04171035 0.0933497 0.030160483 -0.05031438 -0.08147984
-0.19067353 0.086943924 -0.28036755 -0.051585913 0.13187282 0.16302143 0.093926266 -0.03085955
0.003011055 0.011639448 -0.18502723 0.0340701 0.098413 0.23472051 -0.024140157 -0.20338982
0.16564602 -0.06102704 -0.19613087 -0.08072034 0.20258987 0.04994993 -0.19918871 0.17669153
0.051398057 -0.18783212 0.016846132 0.28380448 0.2431268 -0.0057515386 -0.18155085 0.06504521
-0.012183338 -0.030339515 0.046309825 -0.20681328 -0.03368335 9.327835e-05 -0.22290649 0.04102217
0.118027054 0.123250194 -0.04028644 0.0062292325 0.1867235 0.24091992 0.11569303 -0.20814697
-0.097918205 0.24193637 0.1675359 -0.17731924 -0.17910764 0.18588278 0.1137809 -0.24027923
-0.08002855 0.15377283 -0.05843743 -0.024771385 0.17211847 0.15916786 0.18449853 -0.15002361
-0.16406289 -0.09113821 -0.12094118 0.1450997 0.20512046 0.17008929 0.16082272 -0.09213196
0.04127292 0.20527928 0.08325196 -0.18330486 -0.011939286 -0.16487724 -0.11043052 -0.22889024
-0.20810397 0.06732542 -0.039300933 -0.22131151 -0.2108215 -0.0058264444 -0.22062849 0.0580629
0.043071654 -0.2064326 -0.09902158 -0.12476811 0.08122667 0.17126948 -0.16909662 0.17136484
0.26731917 -0.18956015 0.083212405 0.121947914 -0.16605239 -0.042018212 -0.08547084 0.098373696
-0.04260534 -0.14103559 -0.0035366751 -0.18691358 0.0983246 0.06923612 0.08577632 -0.017566662
0.13076244 -0.033609662 -0.20536803 0.044222835 0.1092872 0.0058651487 0.09815673 -0.106676936
-0.057432666 -0.029691761 0.06216007 0.10917851 0.09534273 0.19421281 -0.1424977 0.060871277
-0.13451323 -0.20584121 0.022087075 0.12327767 -0.091740124 0.15982117 -0.096475564 -0.17122786
0.2348874 0.2086789 -0.079826735 0.113926195 0.17640209 0.0609133 -0.07461206 -0.18418796
-0.20097353 -0.1887365 -0.16536471 0.20836392 0.25327852 0.09211109 0.15231417 0.057887886
-0.17467538 0.058462188 0.2023476 -0.112279 -0.12754409 -0.01521253 -0.22531213 0.2284874
-0.20876537 0.02534855 -0.15457372 -0.11455634 0.25209844 0.20644096 0.15747677 -0.14560238
0.1590706 -0.2463323 0.0187335 0.01557067 0.1447221 -0.011213924 0.2339574 0.16217767
0.032399315 -0.21559733 0.1696779 0.100195296 -0.050786745 -0.2099779 -0.05922108 0.11495952

graph_attn_module.gat_conv.bias f4 [100]
00000000: d44d 213a 6933 0e3d 3965 e13b 0d41 b43d
00000010: bf8b 2cbe 39b3 b4bd ea59 18be 5070 80bb
00000020: 0000 0000 0000 0000 0000 0000 0000 0000
00000030: 0000 0000 0000 0000 0000 0000 0000 0000
00000040: 0000 0000 0000 0000 0000 0000 0000 0000
00000050: 0000 0000 0000 0000 0000 0000 0000 0000
00000060: 0000 0000 0000 0000 0000 0000 0000 0000
00000070: 0000 0000 0000 0000 0000 0000 0000 0000
00000080: 0000 0000 0000 0000 0000 0000 0000 0000
00000090: 0000 0000 0000 0000 0000 0000 0000 0000
000000a0: 0000 0000 0000 0000 0000 0000 0000 0000
000000b0: 0000 0000 0000 0000 0000 0000 0000 0000
000000c0: 0000 0000 0000 0000 0000 0000 0000 0000
000000d0: 0000 0000 0000 0000 0000 0000 0000 0000
000000e0: 0000 0000 0000 0000 0000 0000 0000 0000
000000f0: 0000 0000 0000 0000 0000 0000 0000 0000
00000100: 0000 0000 0000 0000 0000 0000 0000 0000
00000110: 0000 0000 0000 0000 0000 0000 0000 0000
00000120: 0000 0000 0000 0000 0000 0000 0000 0000
00000130: 0000 0000 0000 0000 0000 0000 0000 0000
00000140: 0000 0000 0000 0000 0000 0000 0000 0000
00000150: 0000 0000 0000 0000 0000 0000 0000 0000
00000160: 0000 0000 0000 0000 0000 0000 0000 0000
00000170: 0000 0000 0000 0000 0000 0000 0000 0000
00000180: 0000 0000 0000 0000 0000 0000 0000 0000
0.000615326 0.034716997 0.0068785218 0.0880147 -0.16850184 -0.088232465 -0.1487805 -0.0039196387
0.0 0.0 0.0 0.0 0.0 0.0 0.0 0.0
0.0 0.0 0.0 0.0 0.0 0.0 0.0 0.0
0.0 0.0 0.0 0.0 0.0 0.0 0.0 0.0
0.0 0.0 0.0 0.0 0.0 0.0 0.0 0.0
0.0 0.0 0.0 0.0 0.0 0.0 0.0 0.0
0.0 0.0 0.0 0.0 0.0 0.0 0.0 0.0
0.0 0.0 0.0 0.0 0.0 0.0 0.0 0.0
0.0 0.0 0.0 0.0 0.0 0.0 0.0 0.0
0.0 0.0 0.0 0.0 0.0 0.0 0.0 0.0
0.0 0.0 0.0 0.0 0.0 0.0 0.0 0.0
0.0 0.0 0.0 0.0 0.0 0.0 0.0 0.0
0.0 0.0 0.0 0.0

graph_attn_module.gat_conv.lin_src.weight f4 [400, 100]
00000000: 5ff1 f13d bdc6 423d d93e 4ebd b93d 63be
00000010: 559a 19be 49bb f4bd e74c af3d b7b0 c23c
00000020: d751 b63d 299c d13c 5b26 86bd fec2 45bd
00000030: 8fe8 85bc da53 0f3d fca9 fdb9 d537 ac3c
00000040: 62c9 21bd b982 1e3d b781 9a3d 58d4 bb3c
00000050: e6a7 23bd d16e d33c 0225 0a3d ebfc 07bc
00000060: 6c8c d83c 6010 abbd 963a a0bc 7a7b bb3d
00000070: 9090 c53d 6800 523d e432 aabb 3a49 bc3b
00000080: 4b6a babd 5e2c 473d 7524 d83d 7b6d a7bc
00000090: ae09 4ebb b1d1 033d b4be 303d 1036 a23d
000000a0: b90b 53bd d837 42bc dd49 1d3d 1006 193d
000000b0: 5ac9 c83d 7ecc 9a3d 3eac 283d 3f5e f03c
000000c0: c68d b23c c7e4 d23d efa8 2e3d 4158 743d
000000d0: e1f2 90bd 93a2 b7bd b32a 87bb 6cb9 acba
000000e0: 4f71 4b3d 8783 63bd 56e0 b1bb 4d76 90bd
000000f0: 6f97 dd3d 97b2 743b fdad 83bd b4fa 17ba
00000100: 8a8d 6bbd ed9c b83c e8d5 f7bc 650a d8bb
00000110: 12e2 863b 1f9c c03d 3c9f 2bbb 9d6c 3dbd
00000120: d6d2 d93c df6c 6e3d 597d 603d f707 94bd
00000130: 8530 8b3d 40b9 8e3d 5ac7 7fbc a0a1 2c3d
00000140: 56cf 7fbd 0bce c0bc 1836 82bd 8728 b3bd
00000150: 49cc dd3d a00d b93d 5662 e8bb 7b13 4b3d
00000160: ddf0 a7bd 68c5 a4bd 58d9 aa3d ea45 12bd
00000170: 0f40 1fbd 23b4 63bd e6ff cd3d b88f a7bd
00000180: b3e7 903d 596a d4bd 1b8d 5d3c ac8d d63c
00000190: c78f 003e 5a3c 95bd fdad 8b3c ed48 a93b
000001a0: 0fde bebd 71ec c1bd 24ef d33d 25fe 2bbb
000001b0: 853e 463d e80c 9b3b 49b6 db3b ba65 0e3d
000001c0: 4d54 00bd 9f5d a4bd 31ae 1abd b7df 46bd
000001d0: a7d0 323d 81af 87bd 79eb 20bd fead 843d
000001e0: 92c7 8fbd a27b 10bd 3dad c33d 7835 2dbd
000001f0: 8c04 de3d 6a1b 8f3d 96e5 4dbc 8505 56bd
00000200: a087 143d 267c 1b3c acc5 c5bd 5870 3ebc
00000210: 1374 103d 45eb c33d 8afb 41bd 7c45 11bc
00000220: 25c6 1bbc 3737 563d 2de4 7a3d c35b c6bd
00000230: cb80 d0bd 6196 b23d 9ad6 04bd 5480 1ebd
00000240: b3be 143d c029 94bd a196 a53c b887 d43c
00000250: 35e4 ce3d 16e5 a9bc a1b1 dbbd d8c7 613b
00000260: 9383 b2bd 5cd2 573c a79c 11bd 0883 c23d
00000270: cf7e 2bbc d564 ca3d 6d9a 193c 20cd b3bd
00000280: e8c8 3dbd 85e1 ce3d 00fc 9f3d 78de 833c
00000290: d42c d03d d095 3cbd 5727 c93b f564 2bbb
000002a0: 55af be3d a89f 34bd 86ff ff3c 708c cc3c
000002b0: e212 ceba 2b9f c93d 45b8 22bc f4a3 fcbb
000002c0: 5153 52b9 6833 5b3d 6369 bb3d 7aed cebc
000002d0: fb76 b8bd 59ae 963b b2a9 28bd 68c7 23bd
000002e0: 1a50 173d 1d51 373d 878f 693c a325 fa3c
000002f0: 4aae 593d 0cc5 7ebb 85a0 dcbd 562c a13d
00000300: 55ad c03d 7b86 cebd 039f c8bc 3d51 8cbd
00000310: ca4d 26bd a76b bcbc 8f0c d1bd 7277 bfbc
00000320: 3845 49bd 0007 d6bc f4f4 063c 0912 883c
00000330: 2c33 45be 75e7 7bbe 0805 43be eab7 013d
00000340: b615 72bc ce96 cb3d 42d3 0bbc e203 19bd
00000350: 82eb 953d 70a2 b7bd 1e2f d4bd 4f4b c1bd
00000360: fd7c eebc ab83 1ebc 60a4 0e3d f941 69bd
00000370: e35f 393c 91a6 cfbd 1ed1 55bd c1b9 b4bd
00000380: c483 1c3d 78a4 ddbd abb8 56bd 8a6b e83b
00000390: 0396 cf3b 2de3 2fbb 88be bb3d dbcb ba3d
000003a0: c80f b9bd 393e 893d 93b6 9dbd 5c3b e23c
000003b0: e728 33bd 0965 0f3d 366c d83d 295c b6bd
000003c0: 04b3 aa3d 45e4 c3bd 8fd1 943d abcd 783d
000003d0: 541e 833c 69c5 ac3d a971 bfbd d27d 753d
000003e0: 1b94 5d3d b7e8 b7bd ba34 8abd 9fc9 8cbc
000003f0: fb2c 83bb 899e 4bbd fc5c 3ebd b156 a93d
0.11813616 0.047552813 -0.050352905 -0.22191514 -0.15000279 -0.11949784 0.0855959 0.023765905
0.089023285 0.025587158 -0.065502845 -0.048281662 -0.016346244 0.034992076 -0.0004838257 0.021022717
-0.039498694 0.038698886 0.075442724 0.022928402 -0.039955042 0.025809677 0.0337267 -0.008300046
0.026434146 -0.08352733 -0.019559186 0.09154411 0.09646714 0.05126992 -0.005194055 0.005746034
-0.09102305 0.048626296 0.105538286 -0.020437947 -0.0031438875 0.0321824 0.04315062 0.07920468
-0.05152485 -0.0118541345 0.03840052 0.037359297 0.0980403 0.07558535 0.041179888 0.029341815
0.021796118 0.10297542 0.042641576 0.059654478 -0.070775755 -0.089665554 -0.004124963 -0.0013177819
0.049668606 -0.055545356 -0.0054283543 -0.07053814 0.10819899 0.0037337893 -0.0642967 -0.00057975505
-0.05750803 0.022535766 -0.030253366 -0.006593036 0.004116305 0.09404778 -0.002618744 -0.04624616
0.026589792 0.058209296 0.05480704 -0.07228082 0.06796364 0.069689274 -0.015611494 0.042146325
-0.06245359 -0.023535749 -0.06357974 -0.08747964 0.1082998 0.09035802 -0.0070918007 0.049579125
-0.08200238 -0.08045465 0.08342236 -0.035711206 -0.03887945 -0.055591714 0.100585744 -0.08181709
0.07075443 -0.10371847 0.013522412 0.026190601 0.12554847 -0.07286902 0.017050738 0.005166164
-0.09319698 -0.09468926 0.10348347 -0.0026244011 0.048399467 0.004731763 0.0067050797 0.034764983
-0.031330395 -0.08025669 -0.037763778 -0.048553195 0.043656018 -0.066252716 -0.039287064 0.06478499
-0.07020487 -0.035274155 0.09554527 -0.04228732 0.10840711 0.06987651 -0.012566945 -0.052251358
0.036262155 0.0094900485 -0.096568435 -0.0116234645 0.035266947 0.095663585 -0.047359027 -0.008866664
-0.009507691 0.05229875 0.06125276 -0.09685471 -0.10180815 0.08720089 -0.032431222 -0.038696602
0.036314677 -0.07234526 0.020213427 0.025943622 0.10102121 -0.02073912 -0.107272394 0.0034451392
-0.08716502 0.013172712 -0.035549786 0.094976485 -0.010467245 0.098825134 0.009375197 -0.08779359
-0.046334177 0.10101608 0.07811737 0.016097292 0.101648 -0.04604131 0.006138723 -0.0026152704
0.09310786 -0.044097573 0.031249773 0.02496931 -0.001572218 0.09844812 -0.009931629 -0.0077099744
-0.00020058198 0.05351582 0.0915096 -0.025259722 -0.09007069 0.0045984206 -0.04117746 -0.03998509
0.036941625 0.04475509 0.014255411 0.030535525 0.05314473 -0.0038874773 -0.10772804 0.078697845
0.094080605 -0.10084244 -0.024489885 -0.068514325 -0.04060153 -0.023000551 -0.102074735 -0.023372386
-0.049138278 -0.026126385 0.008237112 0.016610162 -0.19257802 -0.24600013 -0.19044888 0.031669535
-0.014775684 0.09940873 -0.0085342545 -0.03735722 0.0732031 -0.08966529 -0.103605494 -0.09438192
-0.029112333 -0.009674947 0.03482473 -0.056947682 0.011314365 -0.10139192 -0.052201383 -0.08824492
0.0382116 -0.108223855 -0.052422207 0.007092898 0.0063350215 -0.0026838288 0.091672 0.091209136
-0.09036213 0.06701321 -0.07700839 0.027616195 -0.04374018 0.035008464 0.105675146 -0.08904297
0.08334926 -0.09565023 0.07266533 0.060743015 0.016005673 0.084360905 -0.09347851 0.059934445
0.054096323 -0.08979934 -0.06748338 -0.017185984 -0.004003165 -0.049711738 -0.046475396 0.08268488

graph_attn_module.gat_conv.lin_dst.weight f4 [400, 100]
00000000: 5ff1 f13d bdc6 423d d93e 4ebd b93d 63be
00000010: 559a 19be 49bb f4bd e74c af3d b7b0 c23c
00000020: d751 b63d 299c d13c 5b26 86bd fec2 45bd
00000030: 8fe8 85bc da53 0f3d fca9 fdb9 d537 ac3c
00000040: 62c9 21bd b982 1e3d b781 9a3d 58d4 bb3c
00000050: e6a7 23bd d16e d33c 0225 0a3d ebfc 07bc
00000060: 6c8c d83c 6010 abbd 963a a0bc 7a7b bb3d
00000070: 9090 c53d 6800 523d e432 aabb 3a49 bc3b
00000080: 4b6a babd 5e2c 473d 7524 d83d 7b6d a7bc
00000090: ae09 4ebb b1d1 033d b4be 303d 1036 a23d
000000a0: b90b 53bd d837 42bc dd49 1d3d 1006 193d
000000b0: 5ac9 c83d 7ecc 9a3d 3eac 283d 3f5e f03c
000000c0: c68d b23c c7e4 d23d efa8 2e3d 4158 743d
000000d0: e1f2 90bd 93a2 b7bd b32a 87bb 6cb9 acba
000000e0: 4f71 4b3d 8783 63bd 56e0 b1bb 4d76 90bd
000000f0: 6f97 dd3d 97b2 743b fdad 83bd b4fa 17ba
00000100: 8a8d 6bbd ed9c b83c e8d5 f7bc 650a d8bb
00000110: 12e2 863b 1f9c c03d 3c9f 2bbb 9d6c 3dbd
00000120: d6d2 d93c df6c 6e3d 597d 603d f707 94bd
00000130: 8530 8b3d 40b9 8e3d 5ac7 7fbc a0a1 2c3d
00000140: 56cf 7fbd 0bce c0bc 1836 82bd 8728 b3bd
00000150: 49cc dd3d a00d b93d 5662 e8bb 7b13 4b3d
00000160: ddf0 a7bd 68c5 a4bd 58d9 aa3d ea45 12bd
00000170: 0f40 1fbd 23b4 63bd e6ff cd3d b88f a7bd
00000180: b3e7 903d 596a d4bd 1b8d 5d3c ac8d d63c
00000190: c78f 003e 5a3c 95bd fdad 8b3c ed48 a93b
000001a0: 0fde bebd 71ec c1bd 24ef d33d 25fe 2bbb
000001b0: 853e 463d e80c 9b3b 49b6 db3b ba65 0e3d
000001c0: 4d54 00bd 9f5d a4bd 31ae 1abd b7df 46bd
000001d0: a7d0 323d 81af 87bd 79eb 20bd fead 843d
000001e0: 92c7 8fbd a27b 10bd 3dad c33d 7835 2dbd
000001f0: 8c04 de3d 6a1b 8f3d 96e5 4dbc 8505 56bd
00000200: a087 143d 267c 1b3c acc5 c5bd 5870 3ebc
00000210: 1374 103d 45eb c33d 8afb 41bd 7c45 11bc
00000220: 25c6 1bbc 3737 563d 2de4 7a3d c35b c6bd
00000230: cb80 d0bd 6196 b23d 9ad6 04bd 5480 1ebd
00000240: b3be 143d c029 94bd a196 a53c b887 d43c
00000250: 35e4 ce3d 16e5 a9bc a1b1 dbbd d8c7 613b
00000260: 9383 b2bd 5cd2 573c a79c 11bd 0883 c23d
00000270: cf7e 2bbc d564 ca3d 6d9a 193c 20cd b3bd
00000280: e8c8 3dbd 85e1 ce3d 00fc 9f3d 78de 833c
00000290: d42c d03d d095 3cbd 5727 c93b f564 2bbb
000002a0: 55af be3d a89f 34bd 86ff ff3c 708c cc3c
000002b0: e212 ceba 2b9f c93d 45b8 22bc f4a3 fcbb
000002c0: 5153 52b9 6833 5b3d 6369 bb3d 7aed cebc
000002d0: fb76 b8bd 59ae 963b b2a9 28bd 68c7 23bd
000002e0: 1a50 173d 1d51 373d 878f 693c a325 fa3c
000002f0: 4aae 593d 0cc5 7ebb 85a0 dcbd 562c a13d
00000300: 55ad c03d 7b86 cebd 039f c8bc 3d51 8cbd
00000310: ca4d 26bd a76b bcbc 8f0c d1bd 7277 bfbc
00000320: 3845 49bd 0007 d6bc f4f4 063c 0912 883c
00000330: 2c33 45be 75e7 7bbe 0805 43be eab7 013d
00000340: b615 72bc ce96 cb3d 42d3 0bbc e203 19bd
00000350: 82eb 953d 70a2 b7bd 1e2f d4bd 4f4b c1bd
00000360: fd7c eebc ab83 1ebc 60a4 0e3d f941 69bd
00000370: e35f 393c 91a6 cfbd 1ed1 55bd c1b9 b4bd
00000380: c483 1c3d 78a4 ddbd abb8 56bd 8a6b e83b
00000390: 0396 cf3b 2de3 2fbb 88be bb3d dbcb ba3d
000003a0: c80f b9bd 393e 893d 93b6 9dbd 5c3b e23c
000003b0: e728 33bd 0965 0f3d 366c d83d 295c b6bd
000003c0: 04b3 aa3d 45e4 c3bd 8fd1 943d abcd 783d
000003d0: 541e 833c 69c5 ac3d a971 bfbd d27d 753d
000003e0: 1b94 5d3d b7e8 b7bd ba34 8abd 9fc9 8cbc
000003f0: fb2c 83bb 899e 4bbd fc5c 3ebd b156 a93d
0.11813616 0.047552813 -0.050352905 -0.22191514 -0.15000279 -0.11949784 0.0855959 0.023765905
0.089023285 0.025587158 -0.065502845 -0.048281662 -0.016346244 0.034992076 -0.0004838257 0.021022717
-0.039498694 0.038698886 0.075442724 0.022928402 -0.039955042 0.025809677 0.0337267 -0.008300046
0.026434146 -0.08352733 -0.019559186 0.09154411 0.09646714 0.05126992 -0.005194055 0.005746034
-0.09102305 0.048626296 0.105538286 -0.020437947 -0.0031438875 0.0321824 0.04315062 0.07920468
-0.05152485 -0.0118541345 0.03840052 0.037359297 0.0980403 0.07558535 0.041179888 0.029341815
0.021796118 0.10297542 0.042641576 0.059654478 -0.070775755 -0.089665554 -0.004124963 -0.0013177819
0.049668606 -0.055545356 -0.0054283543 -0.07053814 0.10819899 0.0037337893 -0.0642967 -0.00057975505
-0.05750803 0.022535766 -0.030253366 -0.006593036 0.004116305 0.09404778 -0.002618744 -0.04624616
0.026589792 0.058209296 0.05480704 -0.07228082 0.06796364 0.069689274 -0.015611494 0.042146325
-0.06245359 -0.023535749 -0.06357974 -0.08747964 0.1082998 0.09035802 -0.0070918007 0.049579125
-0.08200238 -0.08045465 0.08342236 -0.035711206 -0.03887945 -0.055591714 0.100585744 -0.08181709
0.07075443 -0.10371847 0.013522412 0.026190601 0.12554847 -0.07286902 0.017050738 0.005166164
-0.09319698 -0.09468926 0.10348347 -0.0026244011 0.048399467 0.004731763 0.0067050797 0.034764983
-0.031330395 -0.08025669 -0.037763778 -0.048553195 0.043656018 -0.066252716 -0.039287064 0.06478499
-0.07020487 -0.035274155 0.09554527 -0.04228732 0.10840711 0.06987651 -0.012566945 -0.052251358
0.036262155 0.0094900485 -0.096568435 -0.0116234645 0.035266947 0.095663585 -0.047359027 -0.008866664
-0.009507691 0.05229875 0.06125276 -0.09685471 -0.10180815 0.08720089 -0.032431222 -0.038696602
0.036314677 -0.07234526 0.020213427 0.025943622 0.10102121 -0.02073912 -0.107272394 0.0034451392
-0.08716502 0.013172712 -0.035549786 0.094976485 -0.010467245 0.098825134 0.009375197 -0.08779359
-0.046334177 0.10101608 0.07811737 0.016097292 0.101648 -0.04604131 0.006138723 -0.0026152704
0.09310786 -0.044097573 0.031249773 0.02496931 -0.001572218 0.09844812 -0.009931629 -0.0077099744
-0.00020058198 0.05351582 0.0915096 -0.025259722 -0.09007069 0.0045984206 -0.04117746 -0.03998509
0.036941625 0.04475509 0.014255411 0.030535525 0.05314473 -0.0038874773 -0.10772804 0.078697845
0.094080605 -0.10084244 -0.024489885 -0.068514325 -0.04060153 -0.023000551 -0.102074735 -0.023372386
-0.049138278 -0.026126385 0.008237112 0.016610162 -0.19257802 -0.24600013 -0.19044888 0.031669535
-0.014775684 0.09940873 -0.0085342545 -0.03735722 0.0732031 -0.08966529 -0.103605494 -0.09438192
-0.029112333 -0.009674947 0.03482473 -0.056947682 0.011314365 -0.10139192 -0.052201383 -0.08824492
0.0382116 -0.108223855 -0.052422207 0.007092898 0.0063350215 -0.0026838288 0.091672 0.091209136
-0.09036213 0.06701321 -0.07700839 0.027616195 -0.04374018 0.035008464 0.105675146 -0.08904297
0.08334926 -0.09565023 0.07266533 0.060743015 0.016005673 0.084360905 -0.09347851 0.059934445
0.054096323 -0.08979934 -0.06748338 -0.017185984 -0.004003165 -0.049711738 -0.046475396 0.08268488

attention_module.W.weight f4 [64, 512]
00000000: 7b00 e7bb 2662 7c3c dee4 d5ba 0b48 123d
00000010: 02ee 44bd 8113 01bd c769 22bd 7730 043d
00000020: ae59 eb3b f8a5 2abc 163e 093d 1027 213d
00000030: 1b3c f8bb 28e1 c1bc 60b2 04bc 1d88 9d3c
00000040: 65b3 8c3d cc51 053c a7ee 9c3c 3a4f 25bc
00000050: bbc1 4b3c cd7a 113c 7944 983c 637c a93c
00000060: c77d 243d c706 33bd a64d 7a3d f41e 3a3d
00000070: 3cd5 0f3d 2c7a 5dbc 1172 463c 1b21 4d3d
00000080: df0a 5e3c 4413 353d 4a00 d53c 4cfa 993d
00000090: 8388 ba3c d132 09bc a77c f7bc d466 8a3d
000000a0: b200 e2bc a088 033b ee98 9d3c 600b 33bc
000000b0: 69eb 7c3c 155a 71bd 2672 dcbc 5f3d 61bb
000000c0: 0bdb 18bc 19a0 173c 3f3e 6abd 0b37 bdba
000000d0: 0382 20bd b6e1 aebc 5242 373d 294b d83c
000000e0: 065d 1cbd 99d7 343d 1ceb 143c 77a1 78bc
000000f0: 15b4 ddbc 77e5 8f3d e209 2a3d 569f 023c
00000100: d18c 9e3c bd64 77bc 998f 133b 29dd 833c
00000110: 8e8d 863d 44b8 27bd 58af 273c 729a 63b9
00000120: 3755 0c3d 1651 76bb 4c4e 9fbc da57 b33d
00000130: c14b 8f3d cf94 1dbb 1b7b 863c db92 2cbd
00000140: ed12 773d b52f 86bc 2f26 4d3c bd5c 5c3c
00000150: b51b 50bc b2b1 e9ba 1ca7 303d 8d7d be3c
00000160: 332b cf3b 3c8d 253d a6b4 32bc f1e7 0d3d
00000170: 9ea3 2cbb ed2c b6bc 9e88 0e3d 8c81 b4bb
00000180: 95ba e9bc 6524 e7bc 6a14 503d d8ce 1a3d
00000190: 5f35 2abc f28a a93a 2716 e13c f7c1 453d
000001a0: 090b 79bc f20c cabc eeb9 a3bc d244 42bb
000001b0: c6fd 953b 00c6 253d 599d 513c cbe4 8d3c
000001c0: 8b8b f1ba fd25 1abc c663 2a3d 9f80 8e3c
000001d0: 96e6 10bd b9fb 1cbc 194d 453d aef6 92bc
000001e0: 8f99 76bc 3aa5 3f3d 254d 093d 5405 023d
000001f0: 705e f3bc abef 273d 88c1 33bd 9897 05b9
00000200: 748f 0ebc 1319 263d 406d 9b3c 52fa f63c
00000210: a110 333d 1b23 0a3d 38e5 f4bc 0175 0ebd
00000220: 53b7 c33b f057 7abc 0d7c 9b3c b155 883d
00000230: e69b 5c3c b5ad c53c 7128 d2bc 1916 0a3d
00000240: 6535 133d 7dea e23b f40f 573d d160 643c
00000250: 2ea1 f03c f956 af3c a586 5d3d 6ca9 0c3b
00000260: ba77 333c 2155 5cbd dba4 29bc 8d63 f63c
00000270: 7fdf 09bd 4f07 e7ba 0277 423d 88ab a13c
00000280: fe7a 4e3c ebfd 293c c2d6 3b3d d37a 463d
00000290: d726 483d 0a69 3b3d 4b52 d1bc 9168 2a3c
000002a0: 1020 20bc bbc2 223d bf84 f53c bc01 18bd
000002b0: ba11 5dbd 4cdc 30bd e9d4 243d 1533 763c
000002c0: e2ba 01bd c7f3 d8ba eec7 03bd 8e60 2ebc
000002d0: e65c 2e3d 6818 963c 9501 833c 8253 4cbd
000002e0: 3e94 2ebd 959d 983d 689d f5bb 91d9 793c
000002f0: 9301 34bd 8c5b 2c3d 1489 cf3a 2167 dabc
00000300: 9c10 b6bc 6428 dbbc a341 1ebd 2f85 e83c
00000310: 8def e3bc 914d 063c 6565 40bc 77f4 44bc
00000320: 64fd a73b dea4 123c 1810 173d fbcc fa3c
00000330: e982 323c c649 d9bc b839 523d 6e8e 73bb
00000340: 9a04 9b3d 5f12 173d 9a39 2abc 4490 bb3a
00000350: 06cc 563d 602f b63c 56ca 763c 24da 8cbb
00000360: 79d7 e83c 6468 06bc 3c14 a4bb 3d02 20bd
00000370: 2524 f6bb f84b 173d cce3 783c 795c e13b
00000380: f8d4 923c 85a9 15bd c297 3c3d 2831 553d
00000390: c855 5e3d 8c00 e1bc 81cf adbc 72e7 ed3c
000003a0: 77f1 be3a e0eb cabc 181f b33c b574 7abc
000003b0: 4aa3 2fbd db59 ecbc 35c3 0abb 89eb 473d
000003c0: 1a91 bebc 6ccc e1bc e95d 35bd a108 88bc
000003d0: bc9b 4d3d 9fcf 2d3d 372c 85bc 2245 0dbd
000003e0: 2ab0 f33c a3d7 a4bc 0d8c 8bbc 1b7d 0b3d
000003f0: fffd d73b e9cf 0b3c 1dd1 d3bc bdb4 183d
-0.007049618 0.01540426 -0.0016318818 0.035713237 -0.048078544 -0.03151274 -0.03965166 0.032272782
0.0071823215 -0.010415547 0.033506475 0.039343894 -0.0075755245 -0.023666933 -0.008099169 0.019229943
0.06870154 0.008137178 0.019156767 -0.01008969 0.012436326 0.008879376 0.018587338 0.020689195
0.040159013 -0.043707635 0.061109208 0.045439675 0.035115466 -0.013517898 0.0121121565 0.0500804
0.013552397 0.044207826 0.026001114 0.075184435 0.022770172 -0.008373932 -0.030210806 0.06757894
-0.027588222 0.0020070449 0.019237962 -0.010928005 0.0154369855 -0.0589238 -0.026909899 -0.0034368855
-0.009329568 0.009254479 -0.05718827 -0.001443596 -0.03918649 -0.021347862 0.044740982 0.026403027
-0.03817465 0.044150922 0.009089258 -0.015175215 -0.027063409 0.07026189 0.04151333 0.007972559
0.019354256 -0.0150997015 0.002251601 0.016096668 0.06569968 -0.040947214 0.010234676 -0.00021705942
0.034260955 -0.0037584952 -0.019446515 0.08756991 0.06996871 -0.0024044996 0.016416123 -0.04213224
0.060320783 -0.01638017 0.012521311 0.013449845 -0.012701918 -0.0017829447 0.043128118 0.023253227
0.0063222884 0.040417895 -0.010907328 0.034645025 -0.002634264 -0.02223822 0.034798257 -0.0055086073
-0.028531352 -0.028215596 0.05080072 0.037794918 -0.010388701 0.0012935086 0.027476383 0.048280682
-0.015200385 -0.024664376 -0.01998612 -0.002964307 0.0045773713 0.04047203 0.012793862 0.017321011
-0.0018428428 -0.009408471 0.041599058 0.017395316 -0.035376154 -0.0095815 0.04816923 -0.017939892
-0.01505126 0.04678843 0.033520836 0.031743363 -0.029708117 0.04100005 -0.043885738 -0.00012740341
-0.008701194 0.040551256 0.018972993 0.030148659 0.04371703 0.033724885 -0.029894456 -0.034779552
0.0059727817 -0.015279755 0.01898005 0.06656969 0.013464903 0.024130682 -0.02565405 0.03371248
0.035939593 0.006924926 0.05250545 0.013939098 0.029373731 0.021403776 0.054083485 0.0021463288
0.010953838 -0.053792123 -0.010354246 0.030076766 -0.033660408 -0.001762608 0.047476776 0.019735113
0.012602566 0.01037548 0.045859106 0.048456978 0.048865166 0.04575447 -0.025551936 0.010400907
-0.009773269 0.03973649 0.029970525 -0.03711103 -0.053971983 -0.04317884 0.04024211 0.015026827
-0.031672366 -0.0016552143 -0.03217309 -0.010643138 0.042569064 0.018322185 0.015991965 -0.049884327
-0.042621844 0.074519314 -0.007495571 0.015249626 -0.043946814 0.042079493 0.0015833699 -0.026660504
-0.022224717 -0.026752658 -0.038636815 0.02838382 -0.027824188 0.008197204 -0.011742924 -0.012021176
0.005126642 0.00895044 0.036880583 0.03061532 0.010895469 -0.026524436 0.051324576 -0.0037163752
0.07569237 0.036882754 -0.01038971 0.0014309962 0.052440666 0.022239387 0.015062889 -0.0042984653
0.028423058 -0.0082036 -0.005007295 -0.039064635 -0.007511633 0.036937684 0.01519103 0.0068774787
0.017923817 -0.03653862 0.046043165 0.052048832 0.054281026 -0.027466081 -0.02121711 0.029041026
0.0014567812 -0.024770677 0.021865413 -0.015286614 -0.042880334 -0.02885144 -0.0021173481 0.04880861
-0.02326255 -0.027563296 -0.044279013 -0.016605677 0.050197348 0.04243433 -0.016256435 -0.03448976
0.029747088 -0.020122355 -0.017034555 0.034054857 0.006591558 0.008533456 -0.025856549 0.03728174

attention_module.W.bias f4 [64]
00000000: 5f2c 42bb 4af4 4cbd 2045 e23c b75c 363d
00000010: b2d0 36bd 2673 093d 517a a73c 46c1 323d
00000020: 83f7 75bc 7cab ee3c 0f84 32bd ef19 bd3b
00000030: 6097 a6b9 6a10 593d 8152 30bd 32b1 dabc
00000040: a174 4b3d 6c96 57bd 2c99 8e3c dbca d83b
00000050: ec14 ca3c 0d79 0bbd dcb4 c1bb 6e32 d5bc
00000060: 7c68 3a3d 9934 9f3c cacb 56bc 973c ec3c
00000070: a06c 513c 8a26 ea3c 02a8 c33b 738f a13c
00000080: ceb1 e83b 71ba 3cbd e9ab 023d b55d bb3c
00000090: d89c 3bbd 1598 c5bc 9498 2c3b ebc5 01bb
000000a0: 853d b7bc 6449 88bc 0d36 b93c fa21 8a3b
000000b0: 4e77 e93b eabb a6bc b0f1 4f3d 1e6a 4b3a
000000c0: 943d 0ebc 6012 703c 6243 40bd df56 3b3c
000000d0: f79e a63c 7489 383d 452c 343c 4439 43bd
000000e0: 4cf3 b23b c77b a6bb 4c5a dfbc 91df 443d
000000f0: a5a1 003d 1bfa cabc a99f 7dbd 8d7b 133d
-0.0029628498 -0.05003766 0.027620852 0.044522014 -0.04463262 0.03355708 0.020444067 0.04364135
-0.015012625 0.029134504 -0.043582972 0.005770914 -0.0003177477 0.05299417 -0.04304743 -0.026695821
0.049671773 -0.052633688 0.017407022 0.006615979 0.02466818 -0.03405099 -0.0059114527 -0.026025023
0.0455098 0.01943426 -0.013110111 0.028837485 0.012782246 0.02858283 0.005970956 0.019721722
0.007101274 -0.046076242 0.031902228 0.022871831 -0.045803875 -0.02412037 0.002633606 -0.0019801806
-0.022368202 -0.016636558 0.022608781 0.004215476 0.007124818 -0.020353276 0.0507676 0.0007759648
-0.008681674 0.014652818 -0.04693926 0.011434286 0.020339472 0.04505296 0.010996883 -0.047662035
0.005461132 -0.0050806734 -0.027264737 0.048064772 0.031404156 -0.024777463 -0.061919842 0.0360065

attention_module.h.weight f4 [1, 64]
00000000: 49ec 3ebd b19e c9bd c216 9f3c ea79 01bc
00000010: 5e9a a5bd 1411 a0bd 60da 9f3d a621 053d
00000020: 4f5d 9cbc b798 e2bd f1d2 b2bd 63fe a3bc
00000030: f00c b8bd c625 c5bb 3002 c63c cf27 b8bd
00000040: a0ce 0f3d 1891 d3bd 191e 603d 713c 183c
00000050: da74 8cbd fb9f 72bd a0d9 cebd 039f 43bd
00000060: 7ebb bd3d 1e13 083e 9be8 6b3d 0898 d93d
00000070: 9d10 8d3d f995 9fbd 1e76 773b 3346 a73d
00000080: 7894 0bbb 862e 32bd db18 f73c 87f6 cd3d
00000090: 5fd4 9ebd 7bd4 973d 686a 393c e3bf 603d
000000a0: 0cee 07bc 9b89 c0bd b0c0 d939 142c b33d
000000b0: 34a6 ad3c 8f47 2dbd e363 ec3d c07c 02bd
000000c0: 8d62 603d 7486 7eba 91b2 863d b546 59bd
000000d0: d761 93bc f446 fe3d 1f40 ec3d 08d8 9f3d
000000e0: 9fd5 f2bb 4c9b 82bb 3fa4 003d d568 ddbd
000000f0: 4564 ce3d a8ef c1bd 74d8 123d 96d6 543b
-0.046612058 -0.09844721 0.019420031 -0.007902602 -0.08086084 -0.078157574 0.078053236 0.032502793
-0.019087462 -0.11064284 -0.0873164 -0.020018762 -0.08986843 -0.006016466 0.024170965 -0.08991968
0.035109162 -0.10330409 0.054716203 0.009291754 -0.06858225 -0.0592346 -0.101001024 -0.047759067
0.09264277 0.13288543 0.057594877 0.10624701 0.06887934 -0.07792277 0.0037759612 0.08167686
-0.002129821 -0.0435014 0.03016322 0.10056787 -0.0775535 0.07413574 0.011316873 0.054870497
-0.008296501 -0.09401246 0.0004153303 0.087486416 0.021197416 -0.04230457 0.115424894 -0.031857252
0.054781485 -0.0009709366 0.065770276 -0.053045947 -0.01799099 0.12415877 0.11535668 0.078048766
-0.0074107195 -0.003985798 0.031406637 -0.10811011 0.10077719 -0.09469539 0.035850957 0.0032476536

st_gcns.0.gcn.conv.bias f4 [64]
00000000: 14f6 bfbd 4c9e 89bd 0df3 e73b 2ab4 86ba
00000010: 0358 943d 6842 eebd affc 603c 95b8 c93d
00000020: 5089 1d3d 4252 90bd 817e 4c3d 0d45 8abd
00000030: 6448 893d 6480 4cbd af0f 1abc bd7a 383c
00000040: 69bb 203e 472d aabc 5185 9b3d 96ee ab3b
00000050: 14e6 0e3d cbe0 e83d 4953 f83d bfa8 913d
00000060: 6e04 a23d e2ed b03d eaee 6d3c 5c27 d2bd
00000070: 5d81 ca3d 6eb6 5f3d 10b1 7cbc 0432 ed3c
00000080: 8720 053e 1280 38bd e3ca 7fbd e48d 143e
00000090: 8fd5 de3d fd30 ddbc 0e7e 1a3e 9363 253d
000000a0: 29f2 743d de4c 35bd a384 413d ea6a 28bd
000000b0: b2c1 23bc 53a5 efbd 761f 2a3e af5d ad3c
000000c0: 3919 94bd 3f17 0e3d f7b3 3abd da34 043e
000000d0: e0f9 13be 24be 2d3d 92ba 90bd 24bd 033e
000000e0: 61b5 9bbd 4b77 1bbd d0cf fabd 3bd1 373c
000000f0: d142 c83c 9226 36bd 5705 28bd c242 2abd
-0.093731076 -0.06719646 0.0070785345 -0.0010277082 0.072433494 -0.1163376 0.013732119 0.09849659
0.03846103 -0.070469394 0.04992533 -0.06751452 0.067032605 -0.04992713 -0.009403153 0.011259732
0.15696491 -0.020773543 0.075937875 0.0052469475 0.03488739 0.11371001 0.121252604 0.07112264
0.07911001 0.086391225 0.014522294 -0.102614135 0.09887955 0.054617338 -0.015423074 0.028954513
0.1300069 -0.045044012 -0.062449347 0.14507252 0.10880577 -0.027000898 0.15087149 0.040378164
0.059801254 -0.04426276 0.047245633 -0.041117586 -0.009994911 -0.11701455 0.16613564 0.021162836
-0.07231373 0.034690138 -0.045581784 0.12910786 -0.14450788 0.04241766 -0.070668355 0.1286512
-0.07602955 -0.037955564 -0.12246668 0.011219318 0.024445923 -0.044470377 -0.041020717 -0.04156757
