experiments/training/7/checkpoints/epoch_200.pth (torch, 538788 bytes, 53 tensors)

lin_proj.weight f4 [64, 2]
00000000: f1e8 1cbf 3529 d53e 6d93 f93e 03fd dcbd
00000010: 6bd5 babe 2a74 9e3e 0643 12bf 6690 6e3e
00000020: 159a 283f 495c 0d3f 0dcf aa3d 43da 003e
00000030: e380 0a3f f3c7 b7bd 0cc6 9d3e b896 773e
00000040: 6b79 2b3f de0a 6cbb b413 adbe eecb 3fbe
00000050: c45f 233e 3760 803e aecd c0be 219e 3abe
00000060: 3d2e 0a3f f038 a0be 6f70 27bf f76a 2a3e
00000070: 005f 203f 2fb0 ad3d 8973 58be cab5 78bd
00000080: 23b7 9c3e 9789 24bf 10ac 07bf f32e d5bd
00000090: 61c1 f13d d436 1dbd 77aa 89be c26f 10bf
000000a0: ea51 ba3d 301a 813e d388 203e 47e2 edbe
000000b0: 0bc7 70bd 22ea dcbe 783d cebd c5c0 d6be
000000c0: 7792 253f 291f 88be 490b 99be 6622 d13d
000000d0: 0655 f83e 4117 b23e de8f 19bf 24c6 13bf
000000e0: 0545 be3e 2d26 3a3f 95f7 21bf e1cc b43e
000000f0: 7620 d43d fa80 4f3e ea51 d33e 8370 083f
00000100: 7596 97be e295 0a3e a595 f53e 4263 0fbf
00000110: 7cf8 1e3d 03c9 d43e 5e59 903e 5a4f 86be
00000120: 4fa3 0c3f d0b4 2bbf ad6b 83be e39a 9fbe
00000130: 2987 2ebe 5370 b93e 4be3 ae3e 8df5 c63e
00000140: 0fe9 04bf 82d9 37bf b06f a1be df02 87be
00000150: c2dc 1d3f 0cbf 1cbf 6331 88bd 2acc 18bf
00000160: 7f77 febe 77a8 043f 7563 fb3e 27ab 5cbe
00000170: 5337 413e 33ba 163f dd26 eebd a32e dbbd
00000180: 80f3 d93e 4a7c fbbe 7f26 cfbe 950f 093f
00000190: 7f73 69bd de61 1e3f ddba 2dbf cc40 ff3e
000001a0: 02ad 0e3f b82c 173d 7959 7ebe 4a53 183d
000001b0: e01b afbd 0f3c 203f b9c0 a73e 7410 dc3e
000001c0: 0037 093f 774e bd3e 7624 2b3f 4400 a83e
000001d0: 8442 b1be d593 0fbf c236 05be 44f5 1abf
000001e0: 3e94 d73e 44a0 a7bb 02e6 f2bc df7c 3fbe
000001f0: 821c 11be 912c e53e dbe3 1dbf ff61 abbe
-0.6129294 0.41633 0.4874529 -0.10790446 -0.3649095 0.30948 -0.5713352 0.23297271
0.6586011 0.5521894 0.08340273 0.1258326 0.54102916 -0.08973684 0.3081516 0.24178588
0.66982144 -0.003601722 -0.33804095 -0.18730137 0.159545 0.25073406 -0.3765692 -0.18224384
0.53976804 -0.3129344 -0.65405935 0.16642366 0.6264496 0.0848087 -0.21137823 -0.060720243
0.30608472 -0.64272445 -0.5299692 -0.104093455 0.11804462 -0.038382366 -0.26887867 -0.5642053
0.09097655 0.25215292 0.15677194 -0.46461698 -0.058783572 -0.4314738 -0.10070318 -0.41943946
0.6467661 -0.26586273 -0.29891422 0.10211639 0.48502368 0.34783366 -0.5998515 -0.57724214
0.37162033 0.727145 -0.63268405 0.3531256 0.10357754 0.20264044 0.41273433 0.5329668
-0.29606977 0.13533738 0.47965732 -0.5601083 0.038811192 0.4155961 0.28193182 -0.26232415
0.5493669 -0.6707277 -0.25668088 -0.31172857 -0.17043747 0.3621851 0.34157786 0.38859215
-0.5191812 -0.71816266 -0.31530523 -0.26369378 0.61664975 -0.61229014 -0.06650045 -0.5968653
-0.49700543 0.51819557 0.49099317 -0.21549664 0.18868761 0.5887787 -0.11628506 -0.107022546
0.42568588 -0.49118263 -0.40459058 0.535394 -0.05699491 0.61868083 -0.67863256 0.49854124
0.5573274 0.03690788 -0.24838819 0.037188806 -0.085502386 0.6259164 0.32764223 0.42981303
0.5359955 0.36973926 0.6685251 0.32812703 -0.3462106 -0.5608495 -0.1300917 -0.60530496
0.42105287 -0.0051155407 -0.029650692 -0.18699978 -0.14171031 0.44760564 -0.61675805 -0.33473203

lin_proj.bias f4 [64]
00000000: 01a2 acbd ceec cc3d 9cc2 88be dd68 a0be
00000010: 31dd 243d 9fac 213f c5af 02bf f472 26bf
00000020: 5161 073f ca59 1cbf 19b3 403d ee5f d43e
00000030: 721a c93e 9b0c e93d 8ea9 dabd 6ad0 d33e
00000040: a84f a83e 001f 59be 584a 343e c0c1 603e
00000050: 44c1 06bf d752 003e b40f dcbd 84a0 5b3e
00000060: 90cd d73e 7322 953e baf9 62bc 6f00 a13e
00000070: aba5 18bf 5b9e c13e f8d3 083f 8dde dcbe
00000080: 22e2 073e 26ea 343f d931 14bf 3a29 cbbe
00000090: cc8a 12bf e732 9a3e b0f4 14bf 27a1 103f
000000a0: 90b2 fa3e f25f b0bc c5f4 1ebf 43a6 ae3e
000000b0: 4583 1fbf 19d3 fdbe 99a0 c13d 559f fc3e
000000c0: 58a9 11bf 16e4 163f 9bb9 40be c04a 353e
000000d0: c405 a93e be3d 433e 1f7f 08be bb44 b93e
000000e0: 7cc4 633d 7f88 16bf 9c16 9dbd 398c 20bf
000000f0: b106 2abf a054 003f ebc2 1ebf 0037 0d3f
-0.08429337 0.100061044 -0.26710975 -0.31330004 0.040250007 0.63154024 -0.51049453 -0.65019155
0.5288287 -0.6107451 0.0470458 0.4147944 0.3927799 0.113793574 -0.10676871 0.41369945
0.32873273 -0.21203232 0.17606485 0.2194891 -0.5263865 0.12531601 -0.10745183 0.2144795
0.4214902 0.29127845 -0.013853485 0.31445643 -0.5962779 0.37816128 0.5344844 -0.43138543
0.13269857 0.7066978 -0.5788856 -0.3967989 -0.5724304 0.3011696 -0.58185863 0.564959
0.48964357 -0.021530125 -0.6209224 0.34111223 -0.62309676 -0.49575117 0.0945446 0.4934031
-0.56899023 0.5894178 -0.18820803 0.17704296 0.3301221 0.19066522 -0.13329743 0.3618525
0.055607304 -0.58802027 -0.07670328 -0.6271396 -0.6641646 0.5012913 -0.6201617 0.5516205

lin_proj_2.weight f4 [5, 64]
00000000: cf97 003e 901c f73c 117a a4bd 610c f1ba
00000010: 067c 553d c7d4 f9bd a7ff fdbc 51ec 81bd
00000020: 723b e3bb 9bf4 e3bd 6c6e 6bbd cc8b 753d
00000030: 652b 18bd ef08 b9bd 676d c53d fb87 193d
00000040: 1f04 c83d 8876 8d3d 9021 d13d 69d8 bf3d
00000050: 3fa4 02bd 83e4 42be b7e9 cbbd ba37 c03d
00000060: 1249 bf3d 5c8f 903c 7127 f9bd 077d 65bc
00000070: 7602 3abd 263d d6bd 106b 563d da56 3f3d
00000080: 70b9 e8bd 7d73 3fbe ebc0 95bd fc85 bdbc
00000090: 53b6 2c3c 766b a83b a729 f2bd d4f8 1e3c
000000a0: aec8 6f3d 59a6 2f3e 4c80 3dbc a930 153e
000000b0: 404e dc3d 4ad6 8a3d a960 973d 0afe 983d
000000c0: d891 3fbd 24f8 393d e77a 29bd 9283 193d
000000d0: a6a0 8fbc b357 31bc b7d5 e8bc 6abc a9bc
000000e0: 59db 44bd b8c2 46bd 21b9 283d 21fa 383d
000000f0: 2bbf 64bd 1742 f6bc 0bc8 80bb d346 cbbc
00000100: 395e e4bd 5867 0c3d dd13 60bd 08ee 3e3d
00000110: 3dcc 0fbe ed95 bbbd 3f72 5bbc ec58 923d
00000120: e2cd 973d d281 863d 1291 443d 48a4 f43c
00000130: b821 ddbc 87f1 8bbd bdfd a13d 3774 073d
00000140: 32bc 943d 00fc 913d 162a b1bc 3deb 973d
00000150: e628 4e3d 4fe6 903c d4ed 883d 040a 4dbd
00000160: b79b 183d 2ba1 49bd 62d6 ce3c 617b 24bd
00000170: fab1 cc3c 0676 babd 07fb 6fbd c714 9dbb
00000180: 9894 39bd 66ce 923d 4e1a 86bd 359a 56bb
00000190: 7bd8 0ebe 2fc3 e83c c60f d23d 8015 cb3d
000001a0: ae28 81bc 16fa df3d 3501 fc3d bf38 3fbd
000001b0: 2008 6bbd f24f e5bd c0d2 083b 6b43 2f3b
000001c0: d577 3a3d 89bf e5bd 4ad9 5abd 47d2 2b3d
000001d0: 100e f2bd 66e8 2e3c fd61 aebd caba 733d
000001e0: 3d74 cdbd 4ceb 863d 886a 81bd 907e f33d
000001f0: 45ca 5d3d 5803 013e 0c2d 89bd 74d6 123c
00000200: 83b8 edbd 0ae3 bcbc b131 53bd f016 93bd
00000210: b127 043d 343b 023d 2542 1dbd bbf8 8d3d
00000220: 5ced 9aba 44ad 6abd 40f8 e1bd 02c0 bcbd
00000230: ce5d e7ba 43d1 1abd df0b 32bd 5a43 a8bd
00000240: 2af1 89bd 3066 6ebd cf42 e23b 132e 48bd
00000250: 767d ee3d 579b 283d 167a 403d bc01 f53d
00000260: ad63 d53d 880c 84bc ccdc c63d 14a1 3e3d
00000270: f9b5 11bc 0f4e cb3d 1e31 b73d a89e 1fbd
00000280: de03 47bd b852 483c 5383 2e3d 47ed 8c3d
00000290: 8668 7abd 3b2f 393c 5082 c03d a829 babd
000002a0: 1dc7 923d 6898 0d3b 141b f63d 318d bd3d
000002b0: 2b04 89bc ad58 953d b2b8 6bbb 8d65 da3b
000002c0: 9c73 a93d 46af 5c3d 5684 e539 508f 46bd
000002d0: 6889 64bd 22a4 c3bd 22ed 46bd 0a35 b4bd
000002e0: 3ffe a73d 2cd0 183d bc38 073e 1156 123d
000002f0: c605 ca3d 5b3f 493d c901 ef3c 38e0 59bd
00000300: b6ee da3c 24d1 acbd cb8b bfbd 6927 7b3d
00000310: 3ca5 25bd 94c5 a23d e393 04bd de3f d838
00000320: ac57 553d bf1c c7bd aced a53d 32be 6dbd
00000330: 992f 933c 1094 60bd d5fc f43d 810c 9ebc
00000340: f1aa cbbd a51e 713d 235e ee3c 80e9 d43b
00000350: dc41 463d 8ae7 b03d f9ab ddbc fc60 4cbc
00000360: b564 40bd 6983 e6bc a0cf 7bbd ce62 10bd
00000370: e7e7 723b b2bf 383d d119 1d3c 94a3 0b3b
00000380: d757 cf3c c5ed 5d3c 1995 a1bb 98e7 593d
00000390: 51f6 5b3c 9bf4 f33b c33a f1ba 135a ee3d
000003a0: 017d f1bb 32e2 e13d a322 e7bb 0535 1abc
000003b0: 2ff4 143d 5e7c 7abd 8620 903d 43ac f03d
000003c0: 3aec b5bd 98cf e73c d49b 7fbd 726f adbd
000003d0: 7836 43bd a6c2 b2bd fa37 dcbd 97f2 aebb
000003e0: f80f db3d 5815 94bd 0c8d c63d 10f3 bcbd
000003f0: 70f4 14bd e209 123d 6a11 73bd daa9 b83d
0.1255791 0.030164987 -0.08031095 -0.001839053 0.05212023 -0.12198787 -0.031005694 -0.06343902
-0.0069345767 -0.11130639 -0.057478353 0.059947774 -0.03715076 -0.09034907 0.096400075 0.037483197
0.09766411 0.06907374 0.1021148 0.09367449 -0.03189492 -0.19032483 -0.09956687 0.09385629
0.09340109 0.017646484 -0.12165726 -0.01400686 -0.045412503 -0.10460882 0.052348197 0.046713687
-0.113634944 -0.18696399 -0.07312187 -0.023135178 0.010541516 0.0051397635 -0.11824351 0.00970288
0.058540992 0.171533 -0.011566233 0.14569344 0.107571125 0.06779154 0.07391483 0.07470329
-0.046769947 0.04540266 -0.041376974 0.03747899 -0.017532658 -0.010824132 -0.02842222 -0.020719726
-0.04806075 -0.048525542 0.041192178 0.045160417 -0.055846374 -0.030060811 -0.003930097 -0.024814045
-0.11150784 0.034278244 -0.054706443 0.046613723 -0.14042754 -0.091594554 -0.013393938 0.07145867
0.07412316 0.0656773 0.047989912 0.029863492 -0.026993617 -0.06833177 0.07909725 0.033069815
0.07262458 0.07128143 -0.021626513 0.07417915 0.050331973 0.017687945 0.06685987 -0.05005838
0.037257876 -0.049225967 0.02524871 -0.040156726 0.02498721 -0.091045424 -0.058589008 -0.0047937366
-0.045307726 0.07168274 -0.06547986 -0.0032745723 -0.13949768 0.028413383 0.10256915 0.0991621
-0.015766468 0.10936372 0.12304918 -0.046684977 -0.057380795 -0.11196889 0.002087757 0.0026743065
0.045524437 -0.11218173 -0.05342988 0.041948583 -0.118190885 0.010675525 -0.085147835 0.059504308
-0.10031936 0.06587848 -0.06319147 0.11889374 0.054147977 0.12598932 -0.06698045 0.008962262
-0.116074584 -0.02305748 -0.05156106 -0.07182109 0.032264415 0.03179474 -0.03839316 0.06932207
-0.0011820006 -0.057294145 -0.11033678 -0.0921631 -0.0017651857 -0.037797224 -0.043468352 -0.08215971
-0.067354515 -0.058202922 0.006904937 -0.048872065 0.116450235 0.04116377 0.04699143 0.119632214
0.10419402 -0.016119257 0.097100824 0.046540335 -0.008893483 0.09926998 0.08944915 -0.038969666
-0.048587672 0.012226753 0.04260571 0.068811946 -0.061134838 0.0113027645 0.09399855 -0.090899765
0.07166884 0.0021605734 0.120168835 0.09255446 -0.01672562 0.07292304 -0.0035968241 0.006664938
0.08274004 0.05387809 0.00043776882 -0.048476517 -0.055795103 -0.0955279 -0.04856599 -0.08799179
0.082027905 0.037307903 0.13205236 0.03572661 0.098643824 0.049132686 0.029175656 -0.053192347
0.026725154 -0.08438328 -0.09352835 0.06131688 -0.040440783 0.07947841 -0.0323676 0.00010311579
0.052085564 -0.0972228 0.08101973 -0.058042713 0.017967032 -0.054828703 0.119622864 -0.019293072
-0.09944714 0.058867116 0.029097622 0.006497562 0.048402652 0.086379126 -0.027059542 -0.012474295
-0.04697104 -0.028138833 -0.061477304 -0.035250477 0.0037064494 0.04510469 0.009588675 0.0021307217
0.02531044 0.013545458 -0.004931104 0.05319938 0.013425426 0.0074449307 -0.0018404353 0.11638274
-0.007369638 0.110294715 -0.0070536896 -0.009412055 0.036365684 -0.061153762 0.07037453 0.11751606
-0.08882947 0.02829723 -0.06240447 -0.08468522 -0.047659367 -0.087285325 -0.10752864 -0.0053389776
0.10696405 -0.072306335 0.09694871 -0.09226048 -0.036365926 0.035653956 -0.05934278 0.090167716

lin_proj_2.bias f4 [5]
00000000: 6062 d13d 9e6a f4bc 63dd 8bbd 0bb3 f6bd
00000010: 3f83 48bd
0.10223842 -0.029835995 -0.068293355 -0.120458685 -0.04895329

graph_attn_module.gat_conv.att_src f4 [1, 4, 100]
00000000: a436 3dbe 9b2b 47be 2e83 3a3e 0ef9 0abd
00000010: 837c 50be 989f c8bd 9146 19be 5f89 1cbe
00000020: e987 463e 8739 b93d 12d9 293e a704 593e
00000030: bd69 af3d f3de 613e 3419 2fbd 2359 493e
00000040: 643f ec3c abcf fc3d 992f 333e 23d4 85be
00000050: 7809 923d 5dfa 543e 68f0 89bd b674 d7bd
00000060: bad0 033e 28e2 433e 36fa 6c3e 05de c73b
00000070: afe4 713e 22dd 69be 42a9 343c ce79 93bd
00000080: d59d 263e f801 abbd 6803 adbd f008 d83d
00000090: 8fb8 463e 02a4 8f3c e000 20be ae9c ccbd
000000a0: 4289 5b3c 2194 3f3e d9f3 2f3d ab2a 0dbd
000000b0: aa02 423e 4699 823d e177 613e 3a72 bb3d
000000c0: e7a2 933d e065 5fbe f045 4e3c c397 c93d
000000d0: b63c e1bd 06d9 4fbe 7a26 643e 6b41 6e3e
000000e0: a4da 30be 39d0 763b 87a7 f0bd 5b84 8abd
000000f0: 7f72 0cbe f54a 323e 139f 9f3d 4aa6 463d
00000100: 9e5e 723c f016 6b3e 1601 0fbd 3832 a83c
00000110: 9eae f13c f54f 77be b631 5f3e b7ba 523e
00000120: 661d f53d 43e2 52be daf1 483e 5084 ed3d
00000130: 5fd0 013e d23e 553e 897d 4a3e 67f3 e0bd
00000140: 767d 71bd 48e3 43be d803 d7bd 714b 203e
00000150: 9c0f 54be 1b36 203d 6c6d 3a3e 6f7a f13d
00000160: 5a6c 813d 186c 18be 913e 1c3e ba9d 0b3e
00000170: 1558 333c 558d a33c 30b1 033c d88c 853c
00000180: 2440 fdbd 3dad 323c 1f12 6abd cecd 2abe
00000190: 4360 4fbe 566f 0fbe a6a7 7a3d af58 33be
000001a0: a7f0 9fbb 6edd a63d 0e6a 0cbe bbe1 083d
000001b0: be92 32be b4f9 4c3e 1afd f0bd 4697 51bd
000001c0: eb62 13be ebee 593d 3e29 323e e4ba c03d
000001d0: 8277 2b3e 14eb 7ebd 6628 3f3e a71f 553e
000001e0: 008c 7d3e 2bc6 c5bd 98b5 bdbd 5d69 50be
000001f0: e692 a03d 6414 20be 94e5 e53c af8c 5d3e
00000200: a482 c53d a584 f1bd 19d1 4f3d 5b82 17bb
00000210: 762b 90bd 0ed9 573e f210 b2bd 4104 543e
00000220: 0539 b13b 95c3 c7bd 9f6e 61be aade d8bd
00000230: 5f52 29be a917 2dbe 1c39 cf3d de53 643c
00000240: 4221 4e3e c557 0fbe 0fa1 4f3e 9f2c 3c3e
00000250: 7d67 29be 7e9d 70be d6c2 1fbe e713 f83d
00000260: bcac 583e 85a9 c93b a154 de3d 133a 263b
00000270: fd2c 42be 22f2 3cbe e35f 06be 7c11 233e
00000280: f4d7 1abe f3e9 5e3e 0d6f 43bd 055d 8bbd
00000290: 108c 55be 5105 ad3d 98df 223e 72fb 66be
000002a0: 2112 09be fae5 8c3d 15df 7f3d f0ff 2b3d
000002b0: aa9d 1f3e 1b8b 64be fdc3 d1bd 1c17 c63d
000002c0: 6ad9 683e 980c 4bbe ce43 acbc dff8 8fbd
000002d0: cade 763e 207d 65be cf17 003d f867 edbd
000002e0: eb7e 3b3a f245 de3c a0ad 5fbe 8221 903d
000002f0: fbad 54be ad24 543d af4b c03d e26f 15be
00000300: cb0c 173d 5fee d03d 1269 9a3d 9952 cdbd
00000310: 40f9 57be 8e80 ccbd 4f26 e9bd 35db ab3d
00000320: 0ff3 873d 79e2 1cbe 2691 9bbd 2fe0 803e
00000330: f601 69bd 7308 013d 6def 3dbe 219f 39be
00000340: 8416 c93d 37d0 603d 749c 5fbe c503 6dbc
00000350: 8314 863e 66ba 333d 2c8e 283e ce46 30be
00000360: 666d 083e a6f6 463e 0a59 ac3d 2be3 0f3e
00000370: 31b9 6cbe ed9c 02be bffe 1d3e 25b5 363e
00000380: b3bd da3d 5d91 1bbb 4194 483e ff07 5cbe
00000390: a548 6f3d ce83 13bd e687 b1bc c1df 61bd
000003a0: cc74 3c3e d71f 673d a531 e03c 38f2 19be
000003b0: 63d0 0fbe bd53 86be f262 c4bc 3510 543e
000003c0: fb6b 1cbd cb97 733d 55fb 59be 7771 f73d
000003d0: 65c2 65be d23e 39be dbbf 88be 714a 13bc
000003e0: d615 f33d 4fd6 283c 445f ca3d a9a3 993d
000003f0: 7038 7b3e 7a8c 8cbd e6ae 0a3d 7147 023e
-0.18477875 -0.19450228 0.18214104 -0.033928923 -0.20359997 -0.09796065 -0.14968325 -0.15286778
0.19387783 0.090441756 0.16586712 0.21193181 0.0856509 0.22057705 -0.042748645 0.19662909
0.02883882 0.12344297 0.17498626 -0.2613841 0.07130712 0.20798631 -0.06735307 -0.10520308
0.12872592 0.1912924 0.23142323 0.006099465 0.23622392 -0.22838262 0.011026682 -0.07200967
0.16271146 -0.08349985 -0.08447915 0.1054858 0.19406341 0.01753426 -0.15625334 -0.09990822
0.013399424 0.1870885 0.04295716 -0.03446452 0.18946329 0.06376891 0.22018386 0.09152646
0.072088055 -0.21816206 0.012589917 0.098433994 -0.10997908 -0.20297632 0.22280303 0.23267142
-0.17270905 0.0037660731 -0.11750703 -0.06763526 -0.13715552 0.17411406 0.07794013 0.04849843
0.014793066 0.22957969 -0.034913145 0.020531759 0.02950221 -0.24151595 0.21796307 0.20579039
0.11968498 -0.20594124 0.19623509 0.11597502 0.12677144 0.20824745 0.1977445 -0.10983925
-0.05895754 -0.1912967 -0.1049878 0.15653779 -0.2070908 0.0391141 0.18205804 0.117909305
0.063194945 -0.14884984 0.15258242 0.13634387 0.010946293 0.019964853 0.00803785 0.016302511
-0.123657495 0.010905561 -0.057146188 -0.16680071 -0.20251565 -0.14007315 0.06119504 -0.17514299
-0.004880983 0.08147703 -0.13712332 0.0334184 -0.1743879 0.20017129 -0.11767025 -0.051169656
-0.14393203 0.053206366 0.17398545 0.094106466 0.16744807 -0.062235907 0.18667755 0.20812856
0.24760437 -0.09656938 -0.09263152 -0.20352693 0.07840519 -0.15632778 0.028063573 0.21635698
0.09644058 -0.11792878 0.05073652 -0.002311847 -0.070395395 0.21078894 -0.08694638 0.20704748
0.0054084086 -0.09754101 -0.22014855 -0.10589345 -0.16535328 -0.16903557 0.101183146 0.013936011
0.20129874 -0.13998325 0.20276283 0.18376397 -0.16543384 -0.23497579 -0.15601668 0.12113171
0.21159643 0.0061542415 0.108559854 0.0025364205 -0.18962474 -0.18451741 -0.13122515 0.15924639
-0.15121442 0.21768932 -0.04771333 -0.068048514 -0.20854211 0.0844828 0.15905607 -0.22556856
-0.13385822 0.06879802 0.062468607 0.041992128 0.15587488 -0.2231869 -0.1024246 0.096723765
0.22739187 -0.19829023 -0.021028426 -0.0702989 0.24108425 -0.22411013 0.031272706 -0.11592096
0.0007152396 0.027132962 -0.21843576 0.07037641 -0.20769493 0.05179279 0.093894355 -0.14593461
0.036877435 0.10201716 0.07539572 -0.1002552 -0.21091175 -0.09985457 -0.1138426 0.0839142
0.066381566 -0.15320767 -0.07596044 0.25171039 -0.056886636 0.0315022 -0.18548365 -0.18127109
0.09818748 0.05488607 -0.21837026 -0.014466231 0.26187524 0.043878935 0.16460484 -0.1721451
0.13322982 0.19430026 0.0841542 0.14051501 -0.2311752 -0.12755175 0.15429209 0.17842539
0.106807135 -0.0023737766 0.19587804 -0.21487425 0.05841889 -0.03601437 -0.021671247 -0.05514503
0.1840393 0.05642685 0.027367422 -0.15033805 -0.14044337 -0.26235762 -0.023972962 0.20709307
-0.038188916 0.059470933 -0.21287282 0.120821886 -0.22437437 -0.1809037 -0.26708874 -0.008989916
0.11869399 0.010305001 0.09881452 0.07501919 0.24533248 -0.06862731 0.033858202 0.12722565

graph_attn_module.gat_conv.att_dst f4 [1, 4, 100]
00000000: 6674 b93d 903b 2a3e e232 5b3d e587 993d
00000010: c8e2 c2bb f464 1d3d 6091 40be 8673 f6bd
00000020: 6105 86bd 6746 5ebe 6f9d 1cbe eefb 0d3d
00000030: 2302 5abe a7c8 3ebe b69a 47be 2c37 303d
00000040: 18e1 633c 50d7 6dbe 7218 a8bd 8960 56be
00000050: 6123 ffbd 5f5f 3d3e 25ee c1bd 5356 2cbc
00000060: 23e6 e2bd c93d 3bbe 9ca7 5c3d 3e7c c33c
00000070: f90f 40be cf01 203e 9fa4 843d 43cd 6e3e
00000080: 520f 363e e6d1 85bd eeda 34be 69f1 18bc
00000090: 8fb5 423c 993f 283e 0ac8 f43d 557f 1a3e
000000a0: 323a 71bd 6e16 0cbe 7153 073d f64b 583e
000000b0: 5c9c d03d aaee 793e 82fe 623e 56e7 4b3e
000000c0: 7863 8dbd e524 48be 3d86 62be 0ee0 02bd
000000d0: 32e4 72be b702 843d 364f 7839 596d 46be
000000e0: d2d8 5d3e f95c e53d bde2 39bd 303a 52be
000000f0: ca07 2abe c8a5 fe3d 0985 e1bd 742f 95bd
00000100: 6d18 903d 0ad7 8f3d 5b4f eabc 222f 4ebe
00000110: 4995 c33d 7d43 073e c77d c6bd cb05 c0bd
00000120: c0e4 93bd 17da d63c 03ef 363e 3f73 7abe
00000130: 0a62 35be 0177 283e 50bc 45be 86dc 4f3c
00000140: 3a11 e7bd c1b3 113d 0103 6cbe efd0 a93d
00000150: c3b8 c13d 7163 173e 658a 5dbe f728 063e
00000160: d31d 733d 238f 1dbe 25a0 443e d4a2 e1bd
00000170: fc85 433e 7592 fe3c 4d27 0d3e a9b7 6dbc
00000180: d45a ea3d 29c6 f93d a67c 8b3d b20f 8fbc
00000190: 21b7 833c dbaa c73c 71e2 a73d 8f75 2bbe
000001a0: 9f6a 1d3e 21da 2dbe f2df 91bd 9b56 af3d
000001b0: dfc6 1fbe fe1a 313e bc78 263e fe02 ca3d
000001c0: 11e3 453e fc58 53bd 8266 11be 0758 523e
000001d0: 5a26 10be 89bd 663e 4738 a7bd a4d1 873e
000001e0: 8d79 87bc e487 5cbe 8c98 39be 3814 ffbd
000001f0: e222 ce3d 958f c1bd c7ab 133e 1e5c 8bbc
00000200: c306 033e 8205 3c3e 597f 84bd 5268 3fbe
00000210: 9408 d2bc 146e b8bd 5679 4a3e 8090 c83d
00000220: b798 34bd 41ac 44be d4cc 6b3e 546b cebd
00000230: 9a9b 8abd ce85 4cbe 485b 2a3e 3938 fd3d
00000240: ea40 58be fda1 dc3d a5b0 143e 72e5 403e
00000250: cbd5 55be 54af 9a3d 2d63 a93d d1fa fb3d
00000260: 6513 333d 8c82 313e a4ff 4dbe ae33 953d
00000270: d27e 3fbe 852b 983d f150 d2bb 545b 843d
00000280: 613a a1bd b383 873e cff9 6ebe f77d 943d
00000290: 925b 383e 2b3a c2bd d562 0fbe bd46 0fbe
000002a0: 1b96 183e a72c 303d c7bf 9abd 55e2 77be
000002b0: 1c0b 4c3e f0ac 75bd cbbb 0abd 853a 46be
000002c0: 01e5 3b3d 8a15 eabd 2cca 56be 6bb1 5c3a
000002d0: d2af e0bd cf92 2b3d 867b a1bd 2916 4dbc
000002e0: cab3 ff3d f3c3 5fbe d840 003d d295 ee3d
000002f0: 4c8e 713d eee7 bc3d 7227 12be 3264 f8bd
00000300: e3db 013d 1ce1 74be e544 22be 7e0f 05be
00000310: 5c21 ddbd df7a c5bd 6390 b5bc 84cc 14be
00000320: 692b 2a3e b683 bf3d 4e54 adbd 6ce0 72be
00000330: 2efe d03d b1ae e63d 10ae 5d3d 01ab aa3d
00000340: 1e17 dabd d553 e3bd 0c1a 0dbc 88c9 f13c
00000350: 5df4 1abd 52b7 07be a4b4 463e 1b86 edbd
00000360: 6d3c e73d bf27 dabd fd9b 403e 966a 3e3e
00000370: 3de3 a9bd f292 9abd 60dc c8bd 5bc4 07bd
00000380: 15cc 10be 037e 3b3e 824b 5bbd da4d 13be
00000390: f3c4 4dbc f2fe 2bbe 64f2 623e 5d49 473d
000003a0: 58a1 c23d a848 8bbc 43e8 16be 06e6 10bd
000003b0: de9d 5abe eb49 1fbd 1dbc 32be dbf9 0a3e
000003c0: 3ccb e53c 9a70 fdbd 12bf 6dbe f9a9 a1bd
000003d0: f987 f83d c9ea dc3c 559d 46be 98cc 29be
000003e0: 7655 08bd 9a85 713e a0d2 0dbe a5b2 113e
000003f0: e812 87bd 311a dfbd dcf0 403e 379d 363c
0.09055404 0.16624284 0.053515323 0.07496623 -0.0059474446 0.038426355 -0.18805456 -0.12033753
-0.06543995 -0.21706544 -0.15294431 0.034664087 -0.21289878 -0.1863123 -0.19492611 0.043021366
0.013908647 -0.23226666 -0.082077876 -0.20935263 -0.1245792 0.18493412 -0.094692506 -0.010518628
-0.11079051 -0.18285288 0.053870782 0.023862954 -0.18756093 0.1562569 0.064767115 0.23320489
0.17779282 -0.065341756 -0.1766164 -0.0093349 0.011884107 0.1643051 0.11952217 0.15087636
-0.05889339 -0.13680431 0.03303856 0.21122727 0.10186073 0.2440745 0.221674 0.19912466
-0.06903738 -0.19545324 -0.2212152 -0.031951956 -0.23719862 0.0644583 0.00023680631 -0.1937765
0.21664742 0.11199374 -0.04538225 -0.2053001 -0.16604534 0.12433964 -0.110117026 -0.072844416
0.07035909 0.07023437 -0.028602293 -0.20135167 0.09549958 0.13209338 -0.09691959 -0.09376105
-0.07221365 0.02622704 0.17864613 -0.24458025 -0.1771318 0.16451646 -0.19310117 0.012686854
-0.112825826 0.035571817 -0.23048021 0.08291804 0.094590686 0.14784028 -0.21634825 0.13101564
0.059354614 -0.15386634 0.19201715 -0.11017385 0.1909408 0.031075696 0.13784523 -0.01450912
0.11443105 0.12195999 0.06810884 -0.017463539 0.016078534 0.024373462 0.08197487 -0.16744064
0.15372704 -0.16977741 -0.07122792 0.085614406 -0.15603207 0.17295453 0.16256994 0.09863852
0.193249 -0.051598534 -0.1419926 0.20541392 -0.1407713 0.2253324 -0.08165031 0.2652713
-0.016537452 -0.21536213 -0.18124598 -0.12455028 0.10065247 -0.09451214 0.14420997 -0.017011698
0.12795548 0.18361476 -0.06469602 -0.18692139 -0.025638856 -0.09005371 0.19772848 0.09793186
-0.044090953 -0.19206335 0.23027354 -0.10079065 -0.0676796 -0.19972917 0.16636384 0.12364239
-0.21118513 0.10773084 0.1452051 0.18837526 -0.20882337 0.075529724 0.082708694 0.12303699
0.043719668 0.17334956 -0.2011705 0.07285248 -0.18700722 0.07430176 -0.0064183404 0.06462732
-0.07872463 0.26467666 -0.23337482 0.072505884 0.18003681 -0.09483751 -0.14002545 -0.13991828
0.1490101 0.043011334 -0.0755611 -0.24207433 0.19926113 -0.05997938 -0.0338705 -0.19358261
0.045872692 -0.114298895 -0.2097556 0.00084187713 -0.10971035 0.041888054 -0.07884888 -0.01251749
0.12485464 -0.21852092 0.03131184 0.1164967 0.058973595 0.092239246 -0.1427286 -0.12128486
0.03170384 -0.23913997 -0.15846594 -0.12994191 -0.107973784 -0.096425764 -0.022163576 -0.14531142
0.16618122 0.09351294 -0.084633455 -0.23718423 0.10204731 0.112637885 0.054121077 0.08333398
-0.106489405 -0.11099974 -0.008612167 0.029515043 -0.0378307 -0.13253525 0.19404846 -0.11597844
0.11290822 -0.10652112 0.18809505 0.18595347 -0.082952954 -0.07547559 -0.09807658 -0.033146244
-0.14140351 0.18309788 -0.053538807 -0.14385167 -0.012559163 -0.16796473 0.22162777 0.04865395
0.0950343 -0.017002419 -0.14737038 -0.035375617 -0.21349284 -0.038888853 -0.17454572 0.13571875
0.028051011 -0.12374993 -0.23217419 -0.07893748 0.1213531 0.026967423 -0.19395955 -0.16581953
-0.033284627 0.23586121 -0.13849878 0.14228304 -0.06595403 -0.108936675 0.1884188 0.011145881

graph_attn_module.gat_conv.bias f4 [100]
00000000: a224 f13c 8a67 013d d82a 4e3c 6396 ad3a
00000010: 1dfe c93b f7f9 b53c 6e5f 45bb 19d2 09bc
00000020: be87 eabb f9f2 5fbc f225 5ebc c518 2dbb
00000030: 1bb5 5bbb f28b 96bc 0000 0000 0000 0000
00000040: 0000 0000 0000 0000 0000 0000 0000 0000
00000050: 0000 0000 0000 0000 0000 0000 0000 0000
00000060: 0000 0000 0000 0000 0000 0000 0000 0000
00000070: 0000 0000 0000 0000 0000 0000 0000 0000
00000080: 0000 0000 0000 0000 0000 0000 0000 0000
00000090: 0000 0000 0000 0000 0000 0000 0000 0000
000000a0: 0000 0000 0000 0000 0000 0000 0000 0000
000000b0: 0000 0000 0000 0000 0000 0000 0000 0000
000000c0: 0000 0000 0000 0000 0000 0000 0000 0000
000000d0: 0000 0000 0000 0000 0000 0000 0000 0000
000000e0: 0000 0000 0000 0000 0000 0000 0000 0000
000000f0: 0000 0000 0000 0000 0000 0000 0000 0000
00000100: 0000 0000 0000 0000 0000 0000 0000 0000
00000110: 0000 0000 0000 0000 0000 0000 0000 0000
00000120: 0000 0000 0000 0000 0000 0000 0000 0000
00000130: 0000 0000 0000 0000 0000 0000 0000 0000
00000140: 0000 0000 0000 0000 0000 0000 0000 0000
00000150: 0000 0000 0000 0000 0000 0000 0000 0000
00000160: 0000 0000 0000 0000 0000 0000 0000 0000
00000170: 0000 0000 0000 0000 0000 0000 0000 0000
00000180: 0000 0000 0000 0000 0000 0000 0000 0000
0.029436413 0.031592883 0.012583457 0.0013243671 0.006164326 0.02221392 -0.0030116695 -0.008411908
-0.007157295 -0.013668769 -0.013558852 -0.002641247 -0.0033524695 -0.018377278 0.0 0.0
0.0 0.0 0.0 0.0 0.0 0.0 0.0 0.0
0.0 0.0 0.0 0.0 0.0 0.0 0.0 0.0
0.0 0.0 0.0 0.0 0.0 0.0 0.0 0.0
0.0 0.0 0.0 0.0 0.0 0.0 0.0 0.0
0.0 0.0 0.0 0.0 0.0 0.0 0.0 0.0
0.0 0.0 0.0 0.0 0.0 0.0 0.0 0.0
0.0 0.0 0.0 0.0 0.0 0.0 0.0 0.0
0.0 0.0 0.0 0.0 0.0 0.0 0.0 0.0
0.0 0.0 0.0 0.0 0.0 0.0 0.0 0.0
0.0 0.0 0.0 0.0 0.0 0.0 0.0 0.0
0.0 0.0 0.0 0.0

graph_attn_module.gat_conv.lin_src.weight f4 [400, 100]
00000000: 0a81 26bd 312e 75bd 4e82 573a 5e79 72bb
00000010: 13b9 f53d 84ee 2b3d 476f 093c 74bb 9ebd
00000020: 3e12 6f3d 904d 21bd 0578 20be ea77 1d3d
00000030: 48b7 9d3d 2025 bdbd 8c32 c83d ff5b a0bd
00000040: e74d b1bd f815 aabd 2b54 28bd fe47 9ebd
00000050: 0e62 d5bd 0eae 893c e65f 6dbd 4e68 c13d
00000060: f260 21bd ba4a 3bbd 6d22 ad3d beb7 c73d
00000070: fb18 db3d 3c82 44bd 4bdb 5f3d e375 ca3b
00000080: 7db5 04bd 60bc 6ebd 2cbd 273d 833a 5b3d
00000090: 1c8f dc3d 15a3 013d 71ac d43d 58a0 babd
000000a0: 4b3f 923d 9007 3bbd 5f9d c73d 7892 7c3d
000000b0: f152 7b3c 0a78 59bd 44f3 b8bd d1c4 1b3d
000000c0: 2803 dc3d 087f ec3c 4f8b 373c 95be 71bd
000000d0: f9b2 d6bb 7894 dcbc 8e69 70bc 9eec 583d
000000e0: f3e8 6f3d 2d24 91bd 5d77 673d 9332 bfbd
000000f0: e3b9 1dbd bdce b43d d02c e1bc 5f1a 41bb
00000100: 946c f2bc 50e9 82bd 2d27 90bd f719 94bd
00000110: d102 193c af4d b63b 8d0d b7bc ac38 7a3d
00000120: 44d9 323d d242 923d 4f29 5c3c c0e7 aebd
00000130: 5da4 bb3b f449 a1bd 3066 d1bd da86 043d
00000140: 0f2a b03d 32a5 a9bc ca3c ed3b 494a 2b3d
00000150: ce99 c1bd 25f3 a63d 75d7 bdbd e13b 58bd
00000160: b644 aabd 3abe c23c 451d 8fbc 39c9 c53b
00000170: 59b0 8bbd 01f8 28bd ca36 9d3d 9d7c 0c3d
00000180: b127 ae3d f5de 54bd 355e 7d3d 7293 ee3a
00000190: 3af6 803d 0af7 043d ebac 033d aeff af3d
000001a0: 8020 fe3c 0c6e d73c 23bc e43b 1aa8 ea3c
000001b0: 9fcd 713d c083 773d 9a80 953c 66c7 043d
000001c0: 1b28 09be 5d32 cebd a615 21bd ee12 b9bd
000001d0: e6d7 b83d 005f c1bd 08e9 ccbc d26a 71bb
000001e0: 0aef 71bc 9172 7f3a ef09 fc3b 718b b53d
000001f0: 2d46 3f3c 2888 f23c 3d9f 7b3c 997d 793c
00000200: 118b 853d 0d81 c7bd 9b85 fbbb 7891 6b3d
00000210: dd45 a53d 2163 913d d4d0 0f3d 44c8 633d
00000220: 5d37 1fbd 1d37 d8bd fca5 a83c c3ce 173d
00000230: 4efc 753d ed91 783d e0ac 5d3b 3d8c 3e3d
00000240: b372 d23c 1f44 b1bd 3471 b1bc 196b ba3d
00000250: 0571 6bbd 15e0 663a 02e3 eabc 7d87 d13d
00000260: b719 17bd 1d40 94bd 3d3a 1d3d d1bd e53c
00000270: 2c98 ce3c f9db a33d a34c 8d3d 6cf0 55bd
00000280: 5b58 d83d 6380 47bc 27a4 f8bc e48c c6bd
00000290: 8856 183d d20c 603d 9c04 f03c d279 0c3d
000002a0: 3c01 93bd 63d4 5cbd 7a79 7e3d 3c82 76bd
000002b0: 6b5c 0ebd b392 543d a3f1 c63d 4dea 9f3d
000002c0: c5db c2bd a6d0 57bd 7774 9cbd 6431 823d
000002d0: 2fcd 873d 1d0b 34bd 9407 823d e582 853d
000002e0: 6d11 afbd 2a3e cf3d 528a d33d 23fd 633d
000002f0: 6ef7 693d 3fde 433d e6d3 b5bc 8d46 c03d
00000300: cf4d 403d 178c 75bd 9ce6 56bd cc23 333d
00000310: 20fd 61bd 3a0f a5bd ac75 483d b5e6 48bc
00000320: d611 b93d 22d0 92bd bda7 633b a125 833c
00000330: de30 d2bc 926c 103d 6935 533d 755f 933d
00000340: e6b7 853b d9a6 76bc cabf 00be 6b4c 18bc
00000350: d817 dfbb 04b4 ec3b 59fb b1bd a08c b73c
00000360: b24e 94bd 3d69 ae3d 8dfb ac3d 5557 5f3d
00000370: 3257 98bd a470 cc3b c6bf 6a3d 287f 0e3d
00000380: e1b6 95bd 2b84 b6bd b913 c63d 165f 8b3d
00000390: 6fbf c0bd 56e1 6fbd 3865 69bd 49c9 f3bc
000003a0: 3aae 9ebc f09f 833d 16f8 2dbc 22b1 53bd
000003b0: b8a2 593c faba ab3d 5b70 a7bc bb35 50bd
000003c0: 0b39 733d 4e3c c9bd 2d3c c8bc 4492 23bd
000003d0: 4c50 bfbd 3972 2d3d 9905 b13d 5f3f b0bd
000003e0: 72a8 48bd b2c9 dcbd 6546 dd3c 2c7b 133a
000003f0: ae1d d4bc c80f d23d 1be3 f23b 0cb1 923d
-0.040650405 -0.059858505 0.0008221016 -0.003699861 0.11998191 0.041975513 0.008388347 -0.077505976
0.058367006 -0.03938061 -0.15670784 0.038444437 0.07700974 -0.09235597 0.09775266 -0.07830047
-0.08657437 -0.083049715 -0.041095894 -0.07728575 -0.10419093 0.016806629 -0.057952784 0.09443723
-0.039399095 -0.04572556 0.08453832 0.09751843 0.10698124 -0.047975764 0.054652493 0.006178604
-0.032399643 -0.058285117 0.040951893 0.053522598 0.107694834 0.031649668 0.10384453 -0.091126144
0.071409784 -0.04566151 0.09746813 0.06166312 0.015339599 -0.053092994 -0.09030774 0.038029496
0.107427895 0.028869167 0.011202647 -0.059019644 -0.006552097 -0.026926264 -0.014673604 0.05296003
0.058571767 -0.07086978 0.056510318 -0.09335818 -0.038507354 0.08828495 -0.027487189 -0.0029465181
-0.02959279 -0.06392157 -0.07038722 -0.07231515 0.00933905 0.00556346 -0.022345329 0.061089203
0.043664232 0.07141651 0.013437583 -0.085402966 0.0057263807 -0.078754336 -0.10224569 0.032355167
0.08601772 -0.020708654 0.0072399126 0.04181889 -0.09453164 0.08151845 -0.09269611 -0.05279148
-0.08313887 0.023772348 -0.017470011 0.0060359505 -0.06820745 -0.04125214 0.07676466 0.034298528
0.08503664 -0.05197044 0.06185742 0.0018201901 0.06296964 0.032462157 0.03214733 0.08593689
0.031021357 0.026297592 0.0069804355 0.02864461 0.059033986 0.06042838 0.018249799 0.032416724
-0.13394205 -0.100682 -0.039327286 -0.09036814 0.09025554 -0.09441948 -0.025013462 -0.0036837352
-0.014766464 0.000974455 0.007691614 0.08864487 0.011674446 0.02960594 0.01535779 0.015227699
0.065206654 -0.09741411 -0.007675839 0.057511777 0.08069966 0.070989855 0.035111263 0.05561091
-0.038871158 -0.10557387 0.02058696 0.037062418 0.06005507 0.06068604 0.0033824965 0.04652046
0.025689458 -0.08655571 -0.021660425 0.091024585 -0.05748083 0.00088071945 -0.028672699 0.102309205
-0.036889758 -0.07238791 0.03838562 0.028044613 0.025219046 0.08000941 0.06899383 -0.052231237
0.105637275 -0.012176606 -0.030351711 -0.096948415 0.037191898 0.054699726 0.029299073 0.034295864
-0.0717797 -0.053913485 0.062127568 -0.060182795 -0.034756105 0.051897716 0.09714057 0.07808361
-0.09514574 -0.052689217 -0.076394014 0.06357077 0.066309325 -0.04395591 0.06349102 0.06519107
-0.085482456 0.10119279 0.10329117 0.05566133 0.057120733 0.047819372 -0.022195768 0.093884565
0.046949204 -0.059948053 -0.05246602 0.04373531 -0.05517304 -0.08059545 0.048940346 -0.012262036
0.09036605 -0.071686044 0.003473743 0.016009154 -0.025658067 0.03525979 0.051564608 0.07195941
0.0040807603 -0.015054428 -0.12573162 -0.009295563 -0.0068082623 0.007223608 -0.08690519 0.022405922
-0.072415724 0.08516166 0.08446417 0.054526646 -0.07438506 0.0062390137 0.057311796 0.034789234
-0.07310272 -0.08911928 0.096717305 0.068052456 -0.09411513 -0.058564506 -0.056981295 -0.029759066
-0.019370187 0.0642699 -0.01061823 -0.0516826 0.013283424 0.08385272 -0.020439317 -0.05083249
0.059380572 -0.09825955 -0.024442757 -0.03993441 -0.09341487 0.04234526 0.08643646 -0.08605837
-0.048988767 -0.10780658 0.027011106 0.0005625959 -0.025893059 0.10256916 0.007412327 0.07162675

graph_attn_module.gat_conv.lin_dst.weight f4 [400, 100]
00000000: 0a81 26bd 312e 75bd 4e82 573a 5e79 72bb
00000010: 13b9 f53d 84ee 2b3d 476f 093c 74bb 9ebd
00000020: 3e12 6f3d 904d 21bd 0578 20be ea77 1d3d
00000030: 48b7 9d3d 2025 bdbd 8c32 c83d ff5b a0bd
00000040: e74d b1bd f815 aabd 2b54 28bd fe47 9ebd
00000050: 0e62 d5bd 0eae 893c e65f 6dbd 4e68 c13d
00000060: f260 21bd ba4a 3bbd 6d22 ad3d beb7 c73d
00000070: fb18 db3d 3c82 44bd 4bdb 5f3d e375 ca3b
00000080: 7db5 04bd 60bc 6ebd 2cbd 273d 833a 5b3d
00000090: 1c8f dc3d 15a3 013d 71ac d43d 58a0 babd
000000a0: 4b3f 923d 9007 3bbd 5f9d c73d 7892 7c3d
000000b0: f152 7b3c 0a78 59bd 44f3 b8bd d1c4 1b3d
000000c0: 2803 dc3d 087f ec3c 4f8b 373c 95be 71bd
000000d0: f9b2 d6bb 7894 dcbc 8e69 70bc 9eec 583d
000000e0: f3e8 6f3d 2d24 91bd 5d77 673d 9332 bfbd
000000f0: e3b9 1dbd bdce b43d d02c e1bc 5f1a 41bb
00000100: 946c f2bc 50e9 82bd 2d27 90bd f719 94bd
00000110: d102 193c af4d b63b 8d0d b7bc ac38 7a3d
00000120: 44d9 323d d242 923d 4f29 5c3c c0e7 aebd
00000130: 5da4 bb3b f449 a1bd 3066 d1bd da86 043d
00000140: 0f2a b03d 32a5 a9bc ca3c ed3b 494a 2b3d
00000150: ce99 c1bd 25f3 a63d 75d7 bdbd e13b 58bd
00000160: b644 aabd 3abe c23c 451d 8fbc 39c9 c53b
00000170: 59b0 8bbd 01f8 28bd ca36 9d3d 9d7c 0c3d
00000180: b127 ae3d f5de 54bd 355e 7d3d 7293 ee3a
00000190: 3af6 803d 0af7 043d ebac 033d aeff af3d
000001a0: 8020 fe3c 0c6e d73c 23bc e43b 1aa8 ea3c
000001b0: 9fcd 713d c083 773d 9a80 953c 66c7 043d
000001c0: 1b28 09be 5d32 cebd a615 21bd ee12 b9bd
000001d0: e6d7 b83d 005f c1bd 08e9 ccbc d26a 71bb
000001e0: 0aef 71bc 9172 7f3a ef09 fc3b 718b b53d
000001f0: 2d46 3f3c 2888 f23c 3d9f 7b3c 997d 793c
00000200: 118b 853d 0d81 c7bd 9b85 fbbb 7891 6b3d
00000210: dd45 a53d 2163 913d d4d0 0f3d 44c8 633d
00000220: 5d37 1fbd 1d37 d8bd fca5 a83c c3ce 173d
00000230: 4efc 753d ed91 783d e0ac 5d3b 3d8c 3e3d
00000240: b372 d23c 1f44 b1bd 3471 b1bc 196b ba3d
00000250: 0571 6bbd 15e0 663a 02e3 eabc 7d87 d13d
00000260: b719 17bd 1d40 94bd 3d3a 1d3d d1bd e53c
00000270: 2c98 ce3c f9db a33d a34c 8d3d 6cf0 55bd
00000280: 5b58 d83d 6380 47bc 27a4 f8bc e48c c6bd
00000290: 8856 183d d20c 603d 9c04 f03c d279 0c3d
000002a0: 3c01 93bd 63d4 5cbd 7a79 7e3d 3c82 76bd
000002b0: 6b5c 0ebd b392 543d a3f1 c63d 4dea 9f3d
000002c0: c5db c2bd a6d0 57bd 7774 9cbd 6431 823d
000002d0: 2fcd 873d 1d0b 34bd 9407 823d e582 853d
000002e0: 6d11 afbd 2a3e cf3d 528a d33d 23fd 633d
000002f0: 6ef7 693d 3fde 433d e6d3 b5bc 8d46 c03d
00000300: cf4d 403d 178c 75bd 9ce6 56bd cc23 333d
00000310: 20fd 61bd 3a0f a5bd ac75 483d b5e6 48bc
00000320: d611 b93d 22d0 92bd bda7 633b a125 833c
00000330: de30 d2bc 926c 103d 6935 533d 755f 933d
00000340: e6b7 853b d9a6 76bc cabf 00be 6b4c 18bc
00000350: d817 dfbb 04b4 ec3b 59fb b1bd a08c b73c
00000360: b24e 94bd 3d69 ae3d 8dfb ac3d 5557 5f3d
00000370: 3257 98bd a470 cc3b c6bf 6a3d 287f 0e3d
00000380: e1b6 95bd 2b84 b6bd b913 c63d 165f 8b3d
00000390: 6fbf c0bd 56e1 6fbd 3865 69bd 49c9 f3bc
000003a0: 3aae 9ebc f09f 833d 16f8 2dbc 22b1 53bd
000003b0: b8a2 593c faba ab3d 5b70 a7bc bb35 50bd
000003c0: 0b39 733d 4e3c c9bd 2d3c c8bc 4492 23bd
000003d0: 4c50 bfbd 3972 2d3d 9905 b13d 5f3f b0bd
000003e0: 72a8 48bd b2c9 dcbd 6546 dd3c 2c7b 133a
000003f0: ae1d d4bc c80f d23d 1be3 f23b 0cb1 923d
-0.040650405 -0.059858505 0.0008221016 -0.003699861 0.11998191 0.041975513 0.008388347 -0.077505976
0.058367006 -0.03938061 -0.15670784 0.038444437 0.07700974 -0.09235597 0.09775266 -0.07830047
-0.08657437 -0.083049715 -0.041095894 -0.07728575 -0.10419093 0.016806629 -0.057952784 0.09443723
-0.039399095 -0.04572556 0.08453832 0.09751843 0.10698124 -0.047975764 0.054652493 0.006178604
-0.032399643 -0.058285117 0.040951893 0.053522598 0.107694834 0.031649668 0.10384453 -0.091126144
0.071409784 -0.04566151 0.09746813 0.06166312 0.015339599 -0.053092994 -0.09030774 0.038029496
0.107427895 0.028869167 0.011202647 -0.059019644 -0.006552097 -0.026926264 -0.014673604 0.05296003
0.058571767 -0.07086978 0.056510318 -0.09335818 -0.038507354 0.08828495 -0.027487189 -0.0029465181
-0.02959279 -0.06392157 -0.07038722 -0.07231515 0.00933905 0.00556346 -0.022345329 0.061089203
0.043664232 0.07141651 0.013437583 -0.085402966 0.0057263807 -0.078754336 -0.10224569 0.032355167
0.08601772 -0.020708654 0.0072399126 0.04181889 -0.09453164 0.08151845 -0.09269611 -0.05279148
-0.08313887 0.023772348 -0.017470011 0.0060359505 -0.06820745 -0.04125214 0.07676466 0.034298528
0.08503664 -0.05197044 0.06185742 0.0018201901 0.06296964 0.032462157 0.03214733 0.08593689
0.031021357 0.026297592 0.0069804355 0.02864461 0.059033986 0.06042838 0.018249799 0.032416724
-0.13394205 -0.100682 -0.039327286 -0.09036814 0.09025554 -0.09441948 -0.025013462 -0.0036837352
-0.014766464 0.000974455 0.007691614 0.08864487 0.011674446 0.02960594 0.01535779 0.015227699
0.065206654 -0.09741411 -0.007675839 0.057511777 0.08069966 0.070989855 0.035111263 0.05561091
-0.038871158 -0.10557387 0.02058696 0.037062418 0.06005507 0.06068604 0.0033824965 0.04652046
0.025689458 -0.08655571 -0.021660425 0.091024585 -0.05748083 0.00088071945 -0.028672699 0.102309205
-0.036889758 -0.07238791 0.03838562 0.028044613 0.025219046 0.08000941 0.06899383 -0.052231237
0.105637275 -0.012176606 -0.030351711 -0.096948415 0.037191898 0.054699726 0.029299073 0.034295864
-0.0717797 -0.053913485 0.062127568 -0.060182795 -0.034756105 0.051897716 0.09714057 0.07808361
-0.09514574 -0.052689217 -0.076394014 0.06357077 0.066309325 -0.04395591 0.06349102 0.06519107
-0.085482456 0.10119279 0.10329117 0.05566133 0.057120733 0.047819372 -0.022195768 0.093884565
0.046949204 -0.059948053 -0.05246602 0.04373531 -0.05517304 -0.08059545 0.048940346 -0.012262036
0.09036605 -0.071686044 0.003473743 0.016009154 -0.025658067 0.03525979 0.051564608 0.07195941
0.0040807603 -0.015054428 -0.12573162 -0.009295563 -0.0068082623 0.007223608 -0.08690519 0.022405922
-0.072415724 0.08516166 0.08446417 0.054526646 -0.07438506 0.0062390137 0.057311796 0.034789234
-0.07310272 -0.08911928 0.096717305 0.068052456 -0.09411513 -0.058564506 -0.056981295 -0.029759066
-0.019370187 0.0642699 -0.01061823 -0.0516826 0.013283424 0.08385272 -0.020439317 -0.05083249
0.059380572 -0.09825955 -0.024442757 -0.03993441 -0.09341487 0.04234526 0.08643646 -0.08605837
-0.048988767 -0.10780658 0.027011106 0.0005625959 -0.025893059 0.10256916 0.007412327 0.07162675

attention_module.W.weight f4 [64, 512]
00000000: 27bb 2e3a 12ac 013b ae94 ec3c 43a2 00bd
00000010: 9d02 3d3d 19e6 223d a9a1 bb3c 2f1f 82bc
00000020: 8def a5bc bb87 61bd b170 9cbc bd19 f6bc
00000030: 04e7 5b3d f3d9 66bc 1aa6 b23c 2940 87bc
00000040: ae28 f8bc 36f7 a63c 9332 1abd c888 e13b
00000050: 8916 4abc 5044 783c b211 253c 28ae 13bd
00000060: 5248 143d 721d e9bb e384 35bb d79a aebc
00000070: 80fe 49bd e153 ed3c d242 9dbb f757 333d
00000080: 8e5e 5e3c 9012 1f3d a48c f2bc 1b85 223d
00000090: c465 5f3c de70 e13c a6fd bc3c e311 e9bc
000000a0: 2d3b 123d 69d5 613d ec8b 3b3c f4ab 0b3d
000000b0: 3e8a e1bb 9755 7a3c f02c 44bc fc2b 243d
000000c0: d75f 01ba 2f03 f7bc 6e0c c2bc 3338 383d
000000d0: c76a 603d 9a70 8aba e7ad ab3c 5f42 11bd
000000e0: 4a8d 333d 6876 bb3c 3903 51bd 74c0 b8bc
000000f0: 4ae6 333d 66c5 d93c 9875 3fbc 9dbf 963c
00000100: 577b 073c 5afe 1e3d 894a 40bd 8756 133d
00000110: 086f 223c 4981 de3b f338 05bd 1711 c9bc
00000120: 51cc 463c 886b 593c cea0 4f3c 1ebe 97b8
00000130: f158 ca3c 1a1e 98bc c77c dfbc 0b18 47bc
00000140: 53d4 c33b 2c55 ef3c fc72 dfbc 87d7 40bc
00000150: a9f2 1cbd c8e2 6bbd 8d78 d73b 3ece 86bc
00000160: 883d 133c e401 2cbd f7d4 b5b9 fc61 d1bc
00000170: 17a8 12bd 1bd4 453d c77b 763b d872 24bc
00000180: 3768 e43c 809e 00bc 6443 623c 591a 863c
00000190: 8ed8 163d ed32 0d3d 745c 1c3d 125e 7a3c
000001a0: 422a 95bc ec32 313d 7d67 76bc 391e a13c
000001b0: c5bd 723c fec5 863c 7486 3a3c b0f8 003d
000001c0: 37e7 7a3d e9dc e83c 3b09 92bc d0f0 b83c
000001d0: 9c0c 45bc 29a3 e9bc cb57 ffbb 91f6 dd3c
000001e0: 426a f23c ddfc 033b a25f cbbc 0e7f a8bc
000001f0: 9a2d 97bc b442 29bc 7ddb be3c 4271 0cbd
00000200: 53e2 6ab9 e40e b13c d05f cbbc 272e 1abd
00000210: f962 693d e2ab 19bd 4072 0abd b144 f13c
00000220: 96eb 343d 0bd4 cc3c e7eb c53a 973c 5f3b
00000230: 6eab 9a3c b18b edbb 4cab ffbb 856b d7bc
00000240: 374d 2ebd 28a2 e63c b365 1d3d e8a4 d2bb
00000250: 8f27 7fbc 5df3 18bd 4bfd e7bc 7d3f 983b
00000260: f1a6 cf3c b88e a8bb f61b c43c 6948 a7bc
00000270: 63fa 81bc a9b0 46ba 4f28 acbc 3c4c 36bd
00000280: 64f1 99bb 2e9c 413d d0a0 4bbc 4ae0 d6bc
00000290: 9d7a 333d 3975 353d 5797 843c 14a3 ab3c
000002a0: 57da aa3c 0d8a e63a d1d3 bc3c 7ce1 06bd
000002b0: 469a 873d 54ad be3c 20c5 023d ed19 d1bc
000002c0: a179 da3c 5394 00bd 39f1 563c 5b97 a6bc
000002d0: 9082 b33c 4715 263c e813 6f3c 4396 553d
000002e0: 224e c6bc 1046 0abd 1cee 4bbd 86b6 c6bc
000002f0: cad7 6ebc 10fd 28bd 03db 0dbd 47a8 7ebc
00000300: c663 0d3d f527 dc3c 5093 9bbc 52ae e8bc
00000310: 625c 4c3d e8f5 ee3c 9348 16bb 5589 d03c
00000320: e87f 53bc 71c2 0a3c 3814 34bd 5d13 2bbd
00000330: de25 933c cee7 cbbb 02d6 90bb 3d94 3ebd
00000340: 5bb1 2f3c abc1 a33c db0a d2b9 286d 32bc
00000350: 4489 d2bb d2ac faba d8db ab3c 7463 12bd
00000360: 6e6b 37bb 2eb1 d2bc e885 1fbd 5026 1e3d
00000370: d0de d03c 33ee 453b c0de aa3c 3b0f c4bc
00000380: 2056 593c f5b0 a4bc df5e af3c 4240 c6bc
00000390: e03e c03c 6288 e13c 0791 253d e4be e6bc
000003a0: 53c0 3cbd 94c8 113c fa12 07bd 49eb b5bc
000003b0: 180a 463d f2ae a5bc fd52 9fbc 3ac6 8abc
000003c0: c08e 173d ab7d 4d3d e113 05bd be1b bf3b
000003d0: cb27 4d3d d1a6 93bb bc68 e9bc 723a 773b
000003e0: fdbd 92bb d8df 6dbc 23d1 87bc 6388 c93c
000003f0: 3ed8 a1bc f177 81bc 1cab 25bd 55ea 5abd
0.0006665461 0.00197864 0.02887949 -0.031404745 0.04614507 0.03977022 0.022904234 -0.01588401
-0.020255828 -0.055061083 -0.019096704 -0.03004157 0.05368711 -0.014090049 0.021807719 -0.016510086
-0.030292835 0.020381551 -0.037645888 0.0068827607 -0.012334474 0.015153006 0.01007502 -0.03605476
0.036201783 -0.007114106 -0.0027697615 -0.021314068 -0.049314976 0.02897066 -0.0047992254 0.04378506
0.013572348 0.038836062 -0.029608078 0.03967772 0.013635103 0.02751964 0.023070168 -0.028450912
0.035700966 0.055135164 0.011446934 0.034099534 -0.006882935 0.015279195 -0.011973605 0.04008101
-0.0004935241 -0.030152885 -0.023687568 0.04497547 0.05478933 -0.0010562122 0.020956947 -0.035463687
0.043835916 0.022883609 -0.051028464 -0.022552706 0.043920793 0.026583385 -0.011685751 0.018401915
0.008269153 0.038816787 -0.046946082 0.03597119 0.009914167 0.0067903143 -0.032525014 -0.024544282
0.012133674 0.013270266 0.012672616 -7.235653e-05 0.024700614 -0.018569041 -0.027281178 -0.012151728
0.0059762388 0.029215418 -0.027276509 -0.011770136 -0.038317356 -0.057589322 0.00657565 -0.016455766
0.008986838 -0.04199399 -0.0003468168 -0.025559418 -0.035804834 0.048297983 0.0037610398 -0.0100371465
0.027881725 -0.007850289 0.0138100125 0.016369985 0.036827616 0.034472395 0.038174108 0.015281217
-0.018208627 0.043261454 -0.015039322 0.019667732 0.014815752 0.016451832 0.011384595 0.031487167
0.06125566 0.02842565 -0.017826667 0.022575766 -0.012026932 -0.028520184 -0.007792448 0.027095111
0.029591683 0.0020139732 -0.024825875 -0.020568397 -0.018454362 -0.010330845 0.02329802 -0.0342877
-0.00022400291 0.021613546 -0.02482596 -0.03764167 0.056979153 -0.037517436 -0.033800364 0.0294517
0.044169985 0.025003454 0.0015100212 0.0034063214 0.018880572 -0.0072493185 -0.0078024026 -0.026296386
-0.042554107 0.028153494 0.038427066 -0.0064283498 -0.015573396 -0.037341464 -0.028319022 0.0046462403
0.025348159 -0.0051439665 0.023939114 -0.02042027 -0.015866464 -0.0007579425 -0.021015314 -0.044506297
-0.0046979655 0.047268085 -0.012428477 -0.026229996 0.043818105 0.044301245 0.016185446 0.020951785
0.020856066 0.001758875 0.02305022 -0.032929882 0.06621222 0.023276009 0.031926274 -0.025525058
0.026669325 -0.031391453 0.013119035 -0.020335844 0.021912843 0.010136909 0.014592148 0.052145254
-0.024207179 -0.033758223 -0.049787626 -0.024256956 -0.014577815 -0.041256964 -0.034632694 -0.01554305
0.03451898 0.026874522 -0.018991143 -0.028403435 0.04989279 0.029169992 -0.0022931441 0.02545611
-0.012908913 0.00846921 -0.043964595 -0.041766513 0.017962392 -0.0062227016 -0.004420043 -0.04652809
0.010723437 0.019989809 -0.0004006241 -0.010890283 -0.0064250547 -0.0019124991 0.020978853 -0.035739377
-0.0027987617 -0.025719251 -0.038946062 0.038610756 0.02549687 0.0030201792 0.020858169 -0.023933044
0.013265163 -0.020103911 0.021407543 -0.024200562 0.023467481 0.027530853 0.040421512 -0.028167196
-0.046081852 0.008897919 -0.03297708 -0.02220692 0.04834947 -0.020225022 -0.019448752 -0.016940225
0.03700137 0.050168674 -0.03248966 0.0058321645 0.050086778 -0.00450597 -0.028492324 0.0037724045
-0.004478215 -0.014518701 -0.016579216 0.024601167 -0.019756433 -0.015804263 -0.040446386 -0.053446133

attention_module.W.bias f4 [64]
00000000: 52f6 bebc 91dc f33c f4c3 183d f137 18bc
00000010: 0513 42bd 0d70 3bbd 498d 6fbc 34e6 54bd
00000020: a0cc dcba efb6 acbb 4f8d acbb 268c ea3b
00000030: 3ffb 013d 5668 343d dd9b 393c 46aa 5e3c
00000040: a454 023d 4977 0b3d 77f3 8cbc 1ca2 1b3c
00000050: 31bc 853b 054a 0bbb 624f e83c de6c 523d
00000060: 2def e3bc a5aa 303c 5fc3 933c a96d 14bd
00000070: 67d2 f23c bef4 46bd 1e8f 963c f2fd 40bb
00000080: 8df8 113d 316f 10bd be27 b7bc 0eb3 b93c
00000090: 08c9 c2ba 2041 0abd 8afc 24bc fbaa 9ebc
000000a0: 6c34 7a3d fd6b c0bc a2a4 6bbd d37d c0bb
000000b0: 15e4 ea3c 356d 14bd e585 d73b fd56 b5bb
000000c0: 3905 323d 7242 1cbd 60e1 5e3d 1895 073d
000000d0: db61 c73c ef33 af3c bf62 afbc 85c4 53bd
000000e0: 5a86 51bc 10db 563c eb06 813c 9a76 4e3d
000000f0: 99f3 3bbb 7543 05bd 9367 dfba cd9b 8fbc
-0.023310814 0.02976826 0.03729625 -0.009290681 -0.04738142 -0.045761157 -0.014621087 -0.05197735
-0.0016845651 -0.005270831 -0.0052658687 0.0071578203 0.031733748 0.044044815 0.011328665 0.013590401
0.031819 0.034049306 -0.017205937 0.009499099 0.004081272 -0.0021253836 0.028358165 0.051373355
-0.027824009 0.010782872 0.018037496 -0.036237393 0.029641343 -0.048573248 0.01837879 -0.0029448238
0.035637427 -0.03526229 -0.022357818 0.022668388 -0.0014860937 -0.033753514 -0.010069976 -0.01936864
0.06108515 -0.023488993 -0.057530053 -0.0058743744 0.028673211 -0.03623696 0.006577241 -0.0055340515
0.043462012 -0.038149305 0.054414153 0.03310117 0.024338653 0.021387069 -0.02140939 -0.051701088
-0.01278838 0.013113752 0.015750369 0.050406076 -0.002867913 -0.032535035 -0.0017044417 -0.017530346

attention_module.h.weight f4 [1, 64]
00000000: 28a7 5b3d 2b44 763d ee96 a5bd 8633 efbd
00000010: e8c0 663c 3f3c e73d c0c7 e13d 0aed b53d
00000020: 666c 633d 6185 35bd 2412 743d 5bb4 d33d
00000030: 026c a6bc ef75 00be aced e43c 9752 af3d
00000040: fbb3 8d3d 2456 81bd 9e0d 6cbd 4009 e4bd
00000050: f5c9 a93d dd92 eabc f840 d53d 8a37 cdbd
00000060: 8260 d03c 2427 d8bd 9c85 143d 0103 3f3c
00000070: 77df a1bd d14b b83d 2a3c 87bd 9225 b13d
00000080: 3a77 06be c954 cb3d e368 823d 41b1 df3d
00000090: 81c9 133d 95a0 3bbc 32db a3bd 0940 f53c
000000a0: 3792 e9bc 4c60 093d 8c9e 963d e01e bbbd
000000b0: 4df8 b03d 2867 8f3d ed2c d0bc 4761 2fbd
000000c0: 9f4d 7abd 1982 f73d 19ee cebd 7aef e1bc
000000d0: da48 9ebd 4c84 943d 474a 9ebd 0003 a13d
000000e0: cc36 173d a40a 2fbd a520 b4bd 9581 64bd
000000f0: 719d 77bd ba16 663d ab59 27bd afb0 b73d
0.05362621 0.060123604 -0.08085428 -0.11679749 0.014084078 0.11290788 0.110244274 0.08883102
0.0555233 -0.044316653 0.059587613 0.103371345 -0.020315174 -0.12544988 0.027945362 0.08560675
0.06919094 -0.06315258 -0.057630174 -0.11134577 0.08290473 -0.028634483 0.104127824 -0.10020359
0.025436644 -0.105543405 0.036260232 0.011658431 -0.07903951 0.08998836 -0.06603272 0.08649744
-0.13131419 0.09928281 0.06367662 0.109224804 0.03608084 -0.01145186 -0.080007926 0.02993776
-0.028512103 0.0335391 0.07354459 -0.09136748 0.086411096 0.07002097 -0.025412047 -0.04281738
-0.06110918 0.12085361 -0.10104007 -0.027580012 -0.07728739 0.07251796 -0.07729011 0.078619
0.036917493 -0.042734757 -0.08795289 -0.05578764 -0.060452882 0.056174017 -0.040857 0.089692466

st_gcns.0.gcn.conv.bias f4 [64]
00000000: 7153 20bd e918 75bd 975a 2a3d 3916 08bd
00000010: 8ca1 d13d d634 a43d 7503 b63d 5e72 963d
00000020: 89c8 0e3d 2ab2 59bd 962d 813d 13a6 b7bd
00000030: 306c f03c ec97 023e c1fa bf3d 01ce e0bc
00000040: d8d2 c73d b54f c1bd ff18 82bd 6b6e febd
00000050: 4c8a 7cbd 0bf8 033e 686b b33d 2a1d d53d
00000060: 4e81 a2bd fae3 9a3d 6e96 783d ff17 13be
00000070: cb5a 11bd e8c6 a2bc 507e 2bbd ef76 753d
00000080: 04d5 c3bd d81d d0bd 2f98 0bbe 451c 2bbe
00000090: 09cb 473d d167 e73d cea9 20bc 767c 0c3c
000000a0: e976 12be 4ac8 f2bc 0b91 b03c 9e09 8dbc
000000b0: 02d0 753d 5aa8 c53d 5429 16bd 7260 3fbd
000000c0: c368 ba3d a371 83bd 8066 e33c 940a b9bd
000000d0: 9791 d2bc fee5 b33d 58d6 973d 0458 a93a
000000e0: 0ba3 a63c 1e15 843d a2cd 873d 7a30 4fbd
000000f0: d3f8 52bd 92ff 943d b68d 5dbd b73f 3b3d
-0.039142076 -0.05983821 0.0415903 -0.03322432 0.10235891 0.0801789 0.08887378 0.073460326
0.034859214 -0.053148426 0.06307523 -0.08967223 0.029348463 0.12753266 0.093739994 -0.02744198
0.09757012 -0.09439031 -0.06352424 -0.12423404 -0.061655328 0.1288759 0.087607205 0.10405953
-0.07934819 0.07563014 0.060690336 -0.14364623 -0.035486978 -0.019870237 -0.041868508 0.059927877
-0.09562114 -0.10161942 -0.13632272 -0.16710003 0.048777614 0.11299098 -0.00980611 0.008574596
-0.14303173 -0.02963652 0.021553537 -0.0172165 0.060012825 0.09651251 -0.036660507 -0.046722837
0.09102013 -0.06418159 0.027758837 -0.09035221 -0.025704188 0.08784102 0.0741393 0.0012919907
0.020341417 0.0644934 0.06631018 -0.05058334 -0.05150683 0.07275309 -0.054090224 0.04571506
