experiments/training/2/checkpoints/epoch_200.pth (torch, 538788 bytes, 53 tensors)

lin_proj.weight f4 [64, 2]
00000000: 2f66 2abf 7616 dabe f528 e4bd 62f5 293f
00000010: d085 cabe 46f8 b33e f353 22bf 23e5 ddbd
00000020: f087 f8be 9741 cfbe 1029 0d3f a966 f3be
00000030: 87cb 2cbf 1cbc 2ebf a2e9 f43e 0ab8 e63e
00000040: 84e2 1cbf db84 07bf 761b 2a3d 6e38 20bf
00000050: 8fce 903e def7 b3be 9cee 02be fe71 aabd
00000060: 47c7 173f 294e 903e 84d1 a2be 9028 33bf
00000070: a22b cabe 813d f03e 0646 91be e72c 893d
00000080: 4d69 27bf dfec 71be 7923 2abf 0eba c4be
00000090: bbd5 29bf 8fe4 383e 2ae8 963c 2714 1cbf
000000a0: dba4 c9bd 2311 013e e3c3 cabe 10fd 12bf
000000b0: 371f 2f3f cce0 3abd 2a00 ea3e 787d 753e
000000c0: b52a 3a3f e2a8 9a3e e63c c93e 4fd2 803e
000000d0: 7735 1bbf d68b 083f 4709 2f3e 6b2e f63e
000000e0: e368 2bbf 9cc7 d5be dd2a d73d 5417 e9be
000000f0: f894 2fbe 2138 19bf 9b62 493e 8e03 8abe
00000100: 3764 a6be f3eb 36bf 42c0 6b3d d78c ffbd
00000110: 6371 e83e a2d9 b73c ffb5 d83e 3caa 1bbf
00000120: 615f 293f 4e76 e1be 849d 79be e665 1e3f
00000130: 76a7 84be fc90 703e 87e8 9a3e d664 19bf
00000140: b2d2 303e b466 acbe 4099 37bd d61f f33e
00000150: 6091 20bf cbca a6bb 9758 24bf 2a20 0c3f
00000160: a7f4 10bf 32e3 23bf 0d21 97be b52e ee3e
00000170: 7ef0 333e 5795 b6bd b1f3 ddbd 3bd0 ba3e
00000180: 407a 03bf d4ef 09be f771 493e c22e 463e
00000190: c4fd cdbe 838e 13be 93dd 0cbe 9c82 fe3e
000001a0: 2fe5 843e 0a3b 2fbf bfed 1cbf 7539 aebb
000001b0: cbfc 973e ba13 1dbf 95f3 cdbd 0f22 babe
000001c0: f1d9 a13e 5c26 1b3f 964d 38be 7820 a9be
000001d0: 88f0 1abf 3573 273f 28e8 393e 4ae4 d13e
000001e0: 9b8d e33e 4ae7 533e 79ad cd3e 3aa8 c4be
000001f0: 281e 313d 70cb c7be 7cf2 1ebf 929b fb3d
-0.6656217 -0.4259526 -0.111406244 0.6639005 -0.39555216 0.35150355 -0.63409346 -0.1083472
-0.48541212 -0.4047973 0.5514078 -0.4753926 -0.6749806 -0.6825578 0.47834498 0.45062286
-0.61283135 -0.52937096 0.041530095 -0.62586105 0.28282592 -0.35150045 -0.12786335 -0.083225235
0.5928845 0.2818463 -0.31800473 -0.6998377 -0.39486414 0.46921924 -0.28373736 0.066980176
-0.6539505 -0.23625515 -0.66460377 -0.38423198 -0.6634175 0.18055938 0.018421251 -0.6096825
-0.09845897 0.12604193 -0.39602575 -0.5741739 0.68407005 -0.04562454 0.4570325 0.23973644
0.72721416 0.30206972 0.39304274 0.25160453 -0.60628456 0.5333837 0.17093383 0.4808229
-0.6695692 -0.41753852 0.105062224 -0.4552561 -0.17146671 -0.5985127 0.19666521 -0.26955837
-0.32498333 -0.7145378 0.0575564 -0.12478035 0.45399007 0.022442643 0.42326352 -0.6080663
0.6616116 -0.44035572 -0.24376494 0.61874235 -0.25909013 0.23492807 0.3025553 -0.5991949
0.17267874 -0.33672106 -0.044823885 0.47485226 -0.62721825 -0.005090093 -0.6419768 0.5473658
-0.5662331 -0.6401855 -0.29517403 0.4652001 0.17572209 -0.08915203 -0.10837496 0.36486992
-0.51358414 -0.13470393 0.1967238 0.19353774 -0.4023267 -0.14409833 -0.13756399 0.49709022
0.25956103 -0.6844946 -0.6130027 -0.005316908 0.29685053 -0.61358225 -0.10056225 -0.3635411
0.3161159 0.60605407 -0.17998347 -0.33032584 -0.6052327 0.65410167 0.18154967 0.40994483
0.44443974 0.20693699 0.40171412 -0.38409597 0.04324165 -0.39022398 -0.6208875 0.12285532

lin_proj.bias f4 [64]
00000000: e529 0dbf ee93 c5be dd19 2dbf 2ac9 83be
00000010: 052d b0bd 81e3 c5bd e128 a4be 7ea9 503e
00000020: 1af6 063f 6eeb e8be e173 613e 88ff 12bf
00000030: b36e 28bf e206 353f a067 26bf 63a9 143f
00000040: c192 033e 6276 c13e 7fdd 47bd c4c2 e63e
00000050: 6aa1 82be 7601 273f ac17 1bbf dba8 14bf
00000060: a059 1abe 0797 ce3d 19ef 3ebe 695a 4abe
00000070: 95f1 1f3e ffe1 cbbe be36 543e 3fbd 71be
00000080: 4173 0cbe 76ac fc3d c5a2 30be 2e15 0fbf
00000090: 3550 a63c 50dc 06bf 108f d63e 0e9c d0be
000000a0: c70e 6d3e 7efb b6be 16ab 1dbd d88c 17bf
000000b0: b361 9abd 397b 143e 98bf ccbe a07d 9abe
000000c0: 33c3 9a3d 001b 433f 5a37 37bf 2888 cb3d
000000d0: a238 e4be 08e3 33bf 2495 ba3d 538d 0f3f
000000e0: 99d0 553d 66b5 47bd fb2c 533e 15d1 093f
000000f0: 115d 3ebe 679d eabe 19c9 133f d2bb 26be
-0.5514205 -0.38589424 -0.6761759 -0.25739413 -0.08602337 -0.096625336 -0.32062438 0.20377156
0.5271927 -0.4549212 0.2201686 -0.5742116 -0.65793914 0.7071363 -0.6500187 0.58070964
0.12848951 0.3778563 -0.04879522 0.4507047 -0.25513774 0.65236604 -0.60582995 -0.58070153
-0.15073252 0.100874 -0.18645896 -0.19761051 0.156195 -0.3982086 0.20724007 -0.23607348
-0.13715841 0.12337582 -0.17249592 -0.5589169 0.020301918 -0.5267992 0.41906023 -0.4074406
0.23150168 -0.35738748 -0.03849324 -0.59199286 -0.07538166 0.1450013 -0.39989924 -0.3017397
0.075567625 0.76213074 -0.71568835 0.09938079 -0.44574457 -0.702683 0.091104776 0.5607502
0.052200887 -0.04875698 0.20622627 0.5383466 -0.1859019 -0.45823213 0.57728726 -0.16282585

lin_proj_2.weight f4 [5, 64]
00000000: 344b 30bc acdb 9a3c bb36 2b3d 621c dbbc
00000010: e6b4 5cbc a8f8 8f3d 9014 713d a200 c2bd
00000020: b585 2ebd 0009 96bc adbd ee3d a65f 9f3c
00000030: 4260 0e3e 883c be3c 9fe2 043e 4610 d0bd
00000040: d866 afbd fdcf e93d fc13 f6bd 1b59 b93d
00000050: b79c a1bc ad3c 06be a43e 903d 0294 ca3c
00000060: a021 503d dc2f 1e3e 1d33 73bd ec5f 83bd
00000070: a532 053e 94a7 a43c 16d7 a8bc 2729 ce3d
00000080: 8bb9 b2bd eb4f c9bd 099c 8e3d 32ee 063e
00000090: 79f7 e83d 5c22 123b 4787 51bd 95da d2bc
000000a0: 9c21 0c3d 3b60 bb3d e00c 93bc fca2 e23d
000000b0: eab7 2d3d 435e 213d 4fb8 9dbd 28dc d83a
000000c0: 39db 21bd cd8a bebd 9826 ad3d 25be ddbb
000000d0: 41cd 1b3d c0e2 213d 3f99 803d 7dc9 9fbd
000000e0: 15c3 963d 4f15 d43d 06f9 a4bd 6caa c5bd
000000f0: 2db1 b6bd 97b9 663d 71c8 e53d 4863 493d
00000100: 4d31 a7bc a91e 0cbe 21a7 bf3d 513f cebd
00000110: da11 f8bd 092c 97bd c3a9 06be 0602 e33d
00000120: 8823 043d 71e7 a8bb 1adc 7d3c f091 c5bd
00000130: 68ec d2bd b0fc eb3c 3539 8cbd 2a65 b93d
00000140: 94be e23d 388b 4abd 50c7 e73c c69f f4bc
00000150: 223e 28bb aeb1 6cbd 0b21 503d b0f8 f13c
00000160: 53c3 ca3d 5e67 d5bd d6a7 8d3d d03e 3f3c
00000170: da56 f13c 0c04 38bd 62b1 89bd d0fb c2bd
00000180: 74aa ca3d 4ac5 e23c 2cb7 14be 34d1 83bc
00000190: 3ac4 19bd 1cdd b4bd 4645 db3d 2fd7 bc3c
000001a0: a337 8cbd e76b 113e 536d a0bc 9d0f a2bc
000001b0: 0c6c a1bd 1fce e2bc ba5b 5abd e2be fe3d
000001c0: e052 3f3d 1ef9 ac3d 166e 0b3e bb19 4c3d
000001d0: d4c2 e63d 3fcb a8bd a3ff 9f3c 3d0b 06be
000001e0: 628a 943b 7e7f ddbb 702e b73d 4fc7 8c3d
000001f0: b039 d53c 0482 893d db99 93bd b64f 8a3c
00000200: ae4f dc3d 3442 eabc 89cd 26bc afae 90bc
00000210: 4f7c 04bd b0b2 9e3d 502d 1bbc 292a cebd
00000220: 7983 e13d b2f2 9fbd 7ea1 afbd ecf4 e33d
00000230: be3a 47bd 64df dc3d 4445 453d 5684 b73d
00000240: 44bb 733d e754 f5bc c422 0c3d f49c 233c
00000250: e224 ab3c 366f c93d 15f4 1e3d f68a be3d
00000260: 8d5a e0bd cf41 c43d 0ec2 e0bc 22f6 cdbd
00000270: bd49 9f3d 0445 d93d ea81 d4bd bd8e 93bb
00000280: 88d3 e6bd 116a 6abd de39 703c 6b27 993d
00000290: 2dc1 81bd b9b7 37bd 6c52 61bd ce8e ccbc
000002a0: db3d e4bd ab3b b0bd 7e10 a6bd bad2 603d
000002b0: 99e0 e13a a78d 1a3c 7d43 1f3d 1524 b8bd
000002c0: aa17 ad3d 07a2 893c c7c7 f5bd 1a1b 463d
000002d0: 55c7 cebc 56d9 ea3c c757 973d 077e 793d
000002e0: 6e85 d63d 1cf0 9bbd e4f7 e03d eda3 f7bc
000002f0: 476f 19bd 1a9c f63c cbeb a33d ea8a b7bd
00000300: 6e14 c43c 5813 63bc 6510 28bd 39c4 5dbd
00000310: 3415 a3bd cd54 bebd 9d84 9d3d e517 443d
00000320: 17b0 73bd d6f6 903d 579f d63b 22ec e9bd
00000330: 171a 1bbc 526e b13c 3ef5 e1bc 98f3 333d
00000340: 2b5b a93d 67d0 fcbc a272 0c3d 1b6d 2e3c
00000350: 6f56 753d 03d9 8e3d 6616 8ebd e025 933d
00000360: 98a6 85bd 96b6 d2bd abf3 c73c 49ae 00bd
00000370: 208c d63d 10dd ca3b 2f93 8ebd a1c5 ddbc
00000380: 5459 72bd 481e 93bd 5d87 883d c1eb 6fbd
00000390: de5a d43c 7a52 093d 5176 c63c 2f94 b73c
000003a0: 386e d2bd 5b62 8bbd 519d 90bd 6220 a93d
000003b0: 2353 65bd 839b 93bd 6359 2bbd fdca 9bbd
000003c0: 1291 84bd a4a5 533d 8eae 1dbe 86e4 9ebc
000003d0: 510b b43d da11 39bc e680 7f3d e8af 623d
000003e0: 7a70 8f3d 53bd 883d 2b79 a0bd a31f 983d
000003f0: 57be e2bc 4f61 90bb a59d 0cbe 5cb5 223d
-0.010760117 0.018903576 0.041800242 -0.026746932 -0.013470864 0.07029849 0.0588575 -0.09472777
-0.04260798 -0.018314838 0.116572715 0.019454788 0.13903907 0.023222223 0.12977074 -0.10159354
-0.08564538 0.11416624 -0.120155305 0.09050199 -0.019728048 -0.13109083 0.07043198 0.024728779
0.050813317 0.15447944 -0.059374917 -0.0641478 0.130076 0.020099439 -0.020610373 0.10066443
-0.08726796 -0.09829696 0.06963355 0.13176802 0.11375327 0.0022298312 -0.0511544 -0.025738994
0.03421174 0.09149214 -0.017950475 0.11066243 0.042411722 0.039396536 -0.0770117 0.0016545104
-0.039515708 -0.09303818 0.08454627 -0.0067670518 0.038037542 0.039522886 0.062792294 -0.07802103
0.07361428 0.10355627 -0.0805531 -0.09651646 -0.08920512 0.056329336 0.11219872 0.049166948
-0.02040925 -0.13683571 0.09358049 -0.100706704 -0.1211278 -0.07381446 -0.13150696 0.1108437
0.032260448 -0.005154543 0.015494371 -0.09646976 -0.10298997 0.028807014 -0.06846849 0.09052499
0.11071506 -0.049449176 0.028293282 -0.029861342 -0.00256718 -0.057786636 0.050812762 0.029537529
0.099005364 -0.10420106 0.06916778 0.0116726905 0.02946036 -0.044925734 -0.06723286 -0.09520686
0.098957926 0.027681965 -0.14523 -0.016090967 -0.03754065 -0.08831236 0.10706572 0.023051826
-0.06846549 0.14201318 -0.01958338 -0.019782836 -0.078819364 -0.027686177 -0.053310134 0.12438752
0.046709895 0.08445953 0.13616213 0.049829226 0.11267629 -0.08241891 0.019531077 -0.13090225
0.004533098 -0.006759583 0.08944404 0.068739526 0.026028484 0.06714252 -0.0720708 0.016883712
0.10757385 -0.028596021 -0.010180839 -0.01766142 -0.032345112 0.07748926 -0.009471253 -0.10066635
0.110114045 -0.07809962 -0.08575724 0.111306995 -0.048640005 0.10784796 0.04816176 0.08960788
0.059504762 -0.029947711 0.034212843 0.009986151 0.02089161 0.09835665 0.038806994 0.093038484
-0.10954771 0.095828645 -0.027436282 -0.10056712 0.07777736 0.10608867 -0.10376342 -0.0045030997
-0.11270815 -0.05723006 0.014662234 0.074782215 -0.063356735 -0.044852946 -0.055010244 -0.024970438
-0.111446105 -0.08605131 -0.081086144 0.054888465 0.0017233073 0.009433187 0.03888272 -0.08991257
0.08451779 0.016800893 -0.12000995 0.04836569 -0.025241533 0.028668087 0.07389789 0.060911205
0.104746684 -0.076141566 0.109847814 -0.030229533 -0.037459638 0.030103732 0.08003958 -0.08962043
0.023935523 -0.013859592 -0.04103126 -0.05414221 -0.079630286 -0.09293518 0.076913096 0.04787435
-0.059494104 0.0707833 0.0065497565 -0.11421992 -0.0094666695 0.02165905 -0.02758276 0.04393348
0.08269342 -0.030861093 0.03428901 0.01064613 0.059896883 0.069749855 -0.06937866 0.071849585
-0.06525916 -0.10288732 0.024408182 -0.03141621 0.104759455 0.0061909035 -0.06961667 -0.027071776
-0.05916722 -0.0718351 0.066664435 -0.05857444 0.025922235 0.03352592 0.02422634 0.022409527
-0.10274929 -0.06805869 -0.07061256 0.0825813 -0.05598749 -0.07207396 -0.041833293 -0.07607076
-0.064729825 0.05167164 -0.15398619 -0.019396078 0.08791221 -0.01129576 0.062378787 0.05534354
0.07003875 0.06676736 -0.07835611 0.07427909 -0.027678652 -0.0044061313 -0.13732012 0.03972374

lin_proj_2.bias f4 [5]
00000000: 7d0b 9bbd b057 8bbd 374a d8bd 5232 573c
00000010: 937f 953d
-0.075705506 -0.068038344 -0.1056103 0.013134556 0.072997235

graph_attn_module.gat_conv.att_src f4 [1, 4, 100]
00000000: 9181 4d3e c531 253e 3b02 27be 8a2c df3d
00000010: b4f6 11be c7c1 88bc 1cf4 1e3e 7968 8b3c
00000020: afc3 9cbd 5953 70be 487f b03d 6186 64be
00000030: 8d2f 603e fa67 0bbe fb4f 943d 1cc7 493e
00000040: 2ad3 4a3e b753 483e 126e 413e 1189 d23d
00000050: add5 54bd 212e 2f3e 4b0f 813e 66ff b3bb
00000060: f966 613e cb28 d23d 09c0 83bd 1e1e 63bd
00000070: 604d 783c 149e e1bd 2f02 06be 5f3a 4b3e
00000080: 3aca 443e f5a8 7dbe 3721 71be 6d79 1abd
00000090: fba8 1d3e 33f2 6f3c 642d 45bd b381 12be
000000a0: e34e 863e 95a4 5fbe 856a d8bd 968c 503e
000000b0: 26dd 2abe 59d7 8e3e 56a1 4fbe a39e 793d
000000c0: d144 b63d 41c4 1c3e 17d0 413e bf62 523d
000000d0: bd18 113e 1951 363d ce32 f13b 883a 863d
000000e0: b6a7 93bd e4a3 2cbe 620f 7a3d d650 65be
000000f0: d2d8 98be f47e 2dbe 49e6 583d 41f9 19be
00000100: df3c 8d3d ac25 0f3e a1d8 56be 5335 59bd
00000110: 6b72 1c3e 5564 913c e625 963d 234f 35be
00000120: e757 3c3e 1daa ba3d 3167 75be 4c5d 7bbe
00000130: 8a0b 63be cf92 2a3e df1c d33d b9f0 033e
00000140: 5f76 05be dcf5 173e abce ac3c 35e5 4fbc
00000150: 99c8 163d 03a1 04be 81f3 283e 9a63 ea3d
00000160: 4e59 793e a08a 61bd d615 5b3e f595 af3c
00000170: 2b01 0e3e 5da0 0dbe 61fe f8bd 77a6 1bbe
00000180: 6ca1 043e 6382 22be 0c6f 2cbe a1c9 1dbe
00000190: 0549 bc3d 26ac 773e 9759 16be 08ee 413d
000001a0: d677 d43c a63c 3fbe 24eb 76bd e79b 00be
000001b0: f66d d73d fae5 da3a ad0e 653e 53f1 0e3e
000001c0: c48e 983d 13da eabc 19e5 cbbd 167d 3a3e
000001d0: 004b aabd 5fc0 4a3e 99b8 60be 1718 1cbe
000001e0: 49c0 42be 24cd 53bd c010 863d 02bf c7bd
000001f0: 0074 6d3d 9375 11be d991 8a3d 563b 213c
00000200: afb1 223e 8448 e53d 1fd5 8abe 66a3 55bd
00000210: c457 7f3d bbfe 8c3e 8ddb 883e 2356 023e
00000220: 11c2 7b3d 1115 83be 34cc ef3d 8878 fa3d
00000230: e8e1 dc3d f116 1b3e fd71 e93d ed55 4fbe
00000240: ad1a 84be d14c b5bd 4148 50be ba65 e93c
00000250: 1f32 b83c c4c8 743d 03e1 1bbe 4670 8a3e
00000260: 7555 45be 4e8d df3d b12a 8abd 92e5 9e3d
00000270: e1d5 c3bd 056b 1a3e 11b3 0c3e db58 d7bd
00000280: a0fb f33d 6923 06be e709 643e 7054 4cbe
00000290: 5f81 2d3e c39f 1b3e 508c 21be 8d29 7cbe
000002a0: 28bc b2bd 93c0 9e3d 20a0 933d 01e5 0f3e
000002b0: 24c0 0e3e a140 083e 91e8 d1bd a481 99bd
000002c0: 8842 1abe 32cd 6dbe 0a4e 533e 51af 86bd
000002d0: 7454 803e 3d64 723e f928 5fbc ad5b d83d
000002e0: fb6d 12be 76a2 ac3c 747b 2fbe 6d8f 793e
000002f0: 2839 40be 9502 1f3e b469 72bd da4a dcbc
00000300: 0d28 1d3e a3cb e8bd 0c0b eabd 835a 0ebe
00000310: 09e2 253d b086 52be 0452 1cbd 88a3 7dbd
00000320: 3ed7 b53d 8638 4ebd 2830 67bc 8741 38be
00000330: 8e1a fbbd dfc9 c23d bdf4 293e 81c8 853c
00000340: 8600 72be 3642 3ebd d36c d43d 110c f4bd
00000350: 82aa 21bd a3e6 353e ac9d 3bbe e30c 6d3b
00000360: 744c afbd a287 233e 12d0 943d a626 11be
00000370: 3dd1 9abd 1d42 5abe b5d8 f3bd 82d5 54be
00000380: 0ab5 27be 6888 743e f9d3 6c3e 1674 eb3d
00000390: a17c 1cbe 4ff0 443d 6f19 5bbe e043 833e
000003a0: 0537 49bd 15f0 acbb 4529 14be 58fa f33d
000003b0: 603a 733e 0644 0d3d 396a 12be 0ca3 90bb
000003c0: 7d43 6fbd 3e26 e7bd aee2 a43d e0a7 80be
000003d0: ea8f 6f3e 8670 89bd f39b 35be 4cbd 3ebe
000003e0: 3747 a4bd 672b 28be fb5d 703d 95fd d1bc
000003f0: f298 2fbe b638 b4bd 80af 413e 7b6b 4fbe
0.20068957 0.16132267 -0.16309445 0.10897167 -0.14254266 -0.016693963 0.15522808 0.01701759
-0.07654511 -0.23469295 0.08618027 -0.22316886 0.21893139 -0.13613883 0.072418176 0.1970486
0.19807115 0.19563185 0.18889645 0.102800496 -0.05196159 0.1710744 0.2520698 -0.0054930924
0.22011937 0.10261687 -0.06433112 -0.055448644 0.015155166 -0.11016479 -0.1308677 0.19846486
0.19217768 -0.24771483 -0.23547827 -0.037713457 0.15396492 0.014645147 -0.04813899 -0.14307289
0.2623206 -0.21840127 -0.10567192 0.2036613 -0.16685924 0.27898672 -0.20276389 0.060942303
0.088998444 0.1530924 0.18927036 0.051363703 0.14169593 0.044510935 0.0073607927 0.06554133
-0.07209723 -0.16859394 0.061049826 -0.22394118 -0.2985292 -0.1694296 0.052953992 -0.15036489
0.06896376 0.13979214 -0.20981075 -0.05302937 0.15278022 0.017748037 0.07331447 -0.1770597
0.18392907 0.09114478 -0.23965146 -0.24547309 -0.2217237 0.16657566 0.10308241 0.12884797
-0.13033436 0.14839882 0.02109464 -0.012688925 0.0368124 -0.12952046 0.1649914 0.11444779
0.24350473 -0.055063844 0.21395048 0.02143381 0.13867633 -0.13830705 -0.12157894 -0.1520022
0.12952203 -0.15870051 -0.16839236 -0.15408947 0.09193615 0.24186763 -0.14682613 0.047346145
0.025936048 -0.1867548 -0.06028284 -0.12559472 0.1051902 0.0016700618 0.2236888 0.13959245
0.074491054 -0.028668439 -0.09955806 0.18211779 -0.08315086 0.19799946 -0.21945418 -0.15243565
-0.19018663 -0.05170931 0.065461636 -0.09753229 0.057971954 -0.14205007 0.067660995 0.009840807
0.15888093 0.11195472 -0.27115723 -0.052157782 0.06233956 0.27538094 0.26730004 0.12728171
0.061464373 -0.2560201 0.117088705 0.12230021 0.10785276 0.1514547 0.11398695 -0.20247622
-0.25801602 -0.08852542 -0.20340063 0.02849089 0.022484837 0.059761778 -0.15222554 0.27038783
-0.1927088 0.109156236 -0.06746424 0.07758631 -0.095622785 0.15079887 0.13740183 -0.10514995
0.11913228 -0.13099445 0.22269402 -0.19954085 0.16943882 0.15197663 -0.15776181 -0.24625225
-0.08727294 0.07751574 0.07208276 0.14052202 0.13940483 0.13305904 -0.10249437 -0.0749543
-0.15064442 -0.23222807 0.20635238 -0.06576408 0.25064433 0.2367105 -0.0136206085 0.10564361
-0.14299767 0.021073561 -0.17136937 0.24371119 -0.18771803 0.15528329 -0.059182838 -0.02689116
0.1534731 -0.113669656 -0.11427888 -0.13901715 0.040498767 -0.20559192 -0.038164154 -0.061923534
0.08878945 -0.050346874 -0.014110602 -0.17993747 -0.12260924 0.0951116 0.16597266 0.01633096
-0.23633012 -0.046449862 0.10372319 -0.11916364 -0.03946925 0.17763762 -0.18321866 0.003617101
-0.08559504 0.15969709 0.07266249 -0.141749 -0.0755944 -0.21314283 -0.11906568 -0.20784572
-0.16377655 0.2388016 0.23127736 0.11496751 -0.15281917 0.04808074 -0.21396421 0.25637722
-0.049124736 -0.0052776434 -0.14468868 0.11912984 0.23752737 0.0344887 -0.14298333 -0.004413968
-0.05841397 -0.11286591 0.08051048 -0.25128078 0.23394743 -0.06710915 -0.17735271 -0.18626899
-0.08021396 -0.16422807 0.058683377 -0.025633613 -0.17148188 -0.08799879 0.18914604 -0.20255844

graph_attn_module.gat_conv.att_dst f4 [1, 4, 100]
00000000: f0ff c43d 63e1 ef3d a500 0b3e 8661 ba3c
00000010: 18d2 4ebc 3368 423e 5d0b ce3c c1ba 93bd
00000020: 4e21 1abe a25b 7b3c 9609 e1bd 408f 193e
00000030: ff08 703e 046c e2bd db6c 9ebd 9129 593e
00000040: 8f97 89bb a723 913d 62a2 4c3e f60b 2a3e
00000050: e62a 0b3b f02d 743d 1a42 733e 6c36 33be
00000060: cd50 423e 3c84 633e db23 363e ecb0 0bbe
00000070: 0045 ecba ad14 453d 2507 3dbe c572 44be
00000080: d192 e3bd a38d 663d fd25 4cbe 7127 61be
00000090: 8827 303e a422 ce3d 351a f43d 227c 3c3e
000000a0: 97d7 783e f8a8 a83d fb7f a9bd e7d6 7d3e
000000b0: c688 b7bc 9750 8f3d a0e1 1d3e 829b 463c
000000c0: 2e76 283e e634 083e 3fef e13d 2f30 1dbe
000000d0: 1ec2 183e 2017 033e b981 d6bd 7de1 2b3e
000000e0: 65f3 ea3b 9df1 033e 32fb 47be 680c 6dbe
000000f0: bd8d 44be 374b 32bb 6665 f93d bd99 6abe
00000100: 9037 383e a93c 153e 6ff1 b5bd 5f5d 97bd
00000110: a3f4 2a3e 8134 d83d 2efe 90bd 77bc 2cbe
00000120: 683d c8bd d03b 22be d73f f2bd 96a1 4abd
00000130: dd64 3b3d 2266 c2bd 8325 99bc 1b60 36be
00000140: 1397 c33d b2a6 b93d 017a 41be 05b2 f3bc
00000150: 8cab 053e 7c73 f4bd 6821 09be fca2 46bc
00000160: 2c3a 58be 0b11 9bbd a568 683d 6409 013e
00000170: 82e3 0c3d 6212 48be 963b 463e d835 3ebe
00000180: b6d0 abbd a3b2 753e f511 34be 04ff 343d
00000190: b51f 2c3d be7a 02bd 1057 7a3e 3f5a 993d
000001a0: 969b 0d3e 1730 a3bd 8d2c c73d 6389 773e
000001b0: 3933 e13d 6383 4f3d 64f5 80bd 4fd7 763d
000001c0: effe 813d 2877 0d3e cfc6 45be 923d 543e
000001d0: 179a fc3c d049 473e 8aac 003d 8243 c43d
000001e0: 203c 3f3e cb17 f4bd 1013 7dbe 5c77 713e
000001f0: 6046 09bc 25cb e4bd c9ef 503d 9a1c 363e
00000200: 14de 5bbd 2f15 66be 625c 7abe 1b95 80bd
00000210: 9ef2 f4bb 1ebe f5bd 0a0e 09be 5d80 e63d
00000220: 65b8 783e a088 7c3c 55e9 ffbd b3e1 453b
00000230: a1c0 1f3e 22e2 113e 013a f2bd 59cf 95bd
00000240: 0fbb 08be 3671 d3bd d3f8 033e 7b0d e53d
00000250: 5688 6b3e 63a1 9a3d bba2 23bd 534e 1cbe
00000260: 6166 16be 6521 fbbd 5d40 623c ddfe a73d
00000270: 707a 3bbe 09c4 1f3e a25e 58be 43d7 d8bd
00000280: e645 103e 99a3 15be 40b7 8f3d 2547 833c
00000290: 23a5 02be b93f 493e 294d 1e3e e0c3 26be
000002a0: 1412 87bd e703 0a3e b67a db3c df3a 4f3e
000002b0: e35d 673e 1b9f 903a c2a2 573e bce3 be3d
000002c0: 45d6 5cbe d9ae 01be fa9a 37be 850f 353e
000002d0: 6abc 9fbd 7f47 53be 3260 773d 8a51 3b3d
000002e0: 0a7c 763c 93bd 673e 8551 c93c 70c4 203e
000002f0: e0c1 c3bd d689 d33d 4295 01be 095b 703e
00000300: 4bbb 243e 596c 48be 6613 043e aca0 053e
00000310: 573a 343d ea47 9fbd cbec cc3d e22d d0bc
00000320: 3c37 653e 0f15 05bb 6c86 adbd ed4a 92bd
00000330: e83b ddbc 5386 1bbd 3953 833c 2cc3 4d3e
00000340: 3b67 b4bc a39a f2bd b384 f53d 0b73 c63d
00000350: e0cb 2ebd ec7d f63d 2b36 583d 246c 95be
00000360: 37b1 353e d02b c53d f5e6 aabd b3b0 a0bd
00000370: 2643 37be 0f23 f4bd 6d65 663b 93c3 4c3d
00000380: c7fc 173e fcdd 8bbe 2697 23be d44f 88be
00000390: 8a91 c4bd aea4 213e 0b1c f03d 20e7 253d
000003a0: a581 f8bd fc86 a3bd e68c 3a3e fe0a 843c
000003b0: e8d3 0abe 2020 673e 00a5 df3c 7f73 4dbe
000003c0: fd9c d13d f083 313d 1583 a93c dac7 193e
000003d0: 2a6a a9bd 7c14 52be ad52 b8bd 7ad7 bbbd
000003e0: e375 913d 7875 013e 955a 44be e9e9 d33d
000003f0: 729f c03d 8c39 773e a26f 5f3e 73b1 47be
0.09619129 0.11712911 0.13574465 0.02275158 -0.012623332 0.18985061 0.025151903 -0.07213355
-0.15051767 0.015341671 -0.109881565 0.14996052 0.23440932 -0.110557586 -0.07735606 0.21207263
-0.0041989754 0.07086878 0.19983819 0.16606125 0.0021235286 0.059614122 0.23755684 -0.17501229
0.18976136 0.22218412 0.17787115 -0.13641709 -0.0018025935 0.04811542 -0.18459757 -0.19184406
-0.111119874 0.05628742 -0.19936366 -0.21987702 0.1720258 0.10065201 0.11919061 0.18406728
0.24300991 0.08235353 -0.082763635 0.2478901 -0.022404086 0.06997793 0.154181 0.012122037
0.16451332 0.13301429 0.11031961 -0.15350412 0.149178 0.1280179 -0.104739614 0.16785236
0.007170128 0.12885137 -0.19529417 -0.23149264 -0.19194694 -0.0027205476 0.12177543 -0.22910209
0.17989945 0.14573921 -0.088839404 -0.07390856 0.16694884 0.10556889 -0.07079731 -0.16868769
-0.09777337 -0.15843129 -0.11828583 -0.049470507 0.045750488 -0.094921365 -0.018694645 -0.17810099
0.095502995 0.09064998 -0.18894197 -0.029747972 0.13053721 -0.119360894 -0.1339165 -0.012123819
-0.21115941 -0.0757161 0.05674042 0.12601238 0.034396656 -0.19538262 0.19358668 -0.18575227
-0.08389418 0.23993926 -0.17584975 0.044188514 0.042022426 -0.031855337 0.24447274 0.07487916
0.13828883 -0.07968157 0.09725294 0.24173503 0.10996098 0.05066241 -0.062968045 0.060263928
0.06347453 0.13814986 -0.1931412 0.20726612 0.030835195 0.19461751 0.031414546 0.095831886
0.1867528 -0.11918601 -0.24714303 0.23580688 -0.008378595 -0.11171559 0.051009927 0.17784348
-0.053678587 -0.22469018 -0.24449304 -0.062784396 -0.0074752113 -0.119991526 -0.13384262 0.11254952
0.24289091 0.015413433 -0.124956764 0.0030194342 0.15600826 0.14246419 -0.118274696 -0.07314939
-0.13352607 -0.10324328 0.12887888 0.11184212 0.23001227 0.07550313 -0.039950114 -0.15264253
-0.14687492 -0.12262229 0.013809291 0.08202908 -0.18308425 0.15602125 -0.2112985 -0.10587933
0.14089164 -0.14613189 0.07017374 0.016025135 -0.12758307 0.19653215 0.15459122 -0.16285658
-0.06595245 0.13478051 0.026791912 0.20237301 0.22594409 0.0011033745 0.21058181 0.09320781
-0.21566112 -0.12664355 -0.17930213 0.17681701 -0.07799609 -0.20632742 0.060394473 0.04573206
0.015044222 0.2263091 0.024575004 0.15699935 -0.09558463 0.103290245 -0.12654594 0.23472227
0.16087072 -0.19572581 0.12898025 0.13049573 0.04400095 -0.077773884 0.10006102 -0.025412504
0.22384351 -0.0020306741 -0.084729046 -0.07143197 -0.027006105 -0.0379699 0.016030895 0.20093983
-0.02202188 -0.11845901 0.11988201 0.096899115 -0.0426749 0.120357364 0.052786034 -0.29184067
0.17743383 0.09627497 -0.08344833 -0.07846203 -0.17896709 -0.119207494 0.003515567 0.0499912
0.1484252 -0.27317798 -0.15975627 -0.26623404 -0.09598072 0.15785477 0.11724099 0.04050362
-0.12134103 -0.079847306 0.18217811 0.016118523 -0.13557398 0.22570848 0.027300358 -0.2006359
0.10235021 0.043338716 0.020692388 0.15017644 -0.08272202 -0.20515627 -0.09000144 -0.09171958
0.07102563 0.12642467 -0.1917518 0.10347349 0.09405412 0.24143046 0.21819928 -0.19501285

graph_attn_module.gat_conv.bias f4 [100]
00000000: 331b 1abd 848a 913d 3392 173c 1f63 743d
00000010: 5f75 1bbc e16c 9c3b 1d83 0b3c 5a92 c6bc
00000020: 2480 18bc 730a 423c 72d7 58bb 2921 b43b
00000030: ddd6 44bc 47ca e4bb 0d9d 8abc 59ce 9cba
00000040: 60f4 173c 9391 c2bb 5981 0a3c f43f 473b
00000050: 1297 fc3b da0b 98bb f9f4 8c3c a0ca 823b
00000060: 2821 34bb b3c7 f7bb c2d8 f4ba 1f1a f63b
00000070: c683 56bb a81e 343b b3ad 6fbb c475 36bb
00000080: c415 5dbb 6533 07bc c166 a1bb 1301 ea3a
00000090: f564 843c 56aa fe3b 612a 0f3c 9ebf b63c
000000a0: 378f f13c 1633 7f3d 0000 0000 0000 0000
000000b0: 0000 0000 0000 0000 0000 0000 0000 0000
000000c0: 0000 0000 0000 0000 0000 0000 0000 0000
000000d0: 0000 0000 0000 0000 0000 0000 0000 0000
000000e0: 0000 0000 0000 0000 0000 0000 0000 0000
000000f0: 0000 0000 0000 0000 0000 0000 0000 0000
00000100: 0000 0000 0000 0000 0000 0000 0000 0000
00000110: 0000 0000 0000 0000 0000 0000 0000 0000
00000120: 0000 0000 0000 0000 0000 0000 0000 0000
00000130: 0000 0000 0000 0000 0000 0000 0000 0000
00000140: 0000 0000 0000 0000 0000 0000 0000 0000
00000150: 0000 0000 0000 0000 0000 0000 0000 0000
00000160: 0000 0000 0000 0000 0000 0000 0000 0000
00000170: 0000 0000 0000 0000 0000 0000 0000 0000
00000180: 0000 0000 0000 0000 0000 0000 0000 0000
-0.037623595 0.07106498 0.009251165 0.05966484 -0.009488433 0.0047737216 0.008515147 -0.024239708
-0.009307895 0.011843312 -0.00330874 0.005497117 -0.012014118 -0.006982121 -0.01692059 -0.0011963352
0.009274572 -0.005937764 0.00845369 0.003040311 0.0077084387 -0.0046400847 0.017206656 0.00399144
-0.0027485583 -0.007561648 -0.0018680322 0.007510438 -0.0032732352 0.0027484093 -0.0036572039 -0.002784119
-0.0033734897 -0.0082519995 -0.0049255793 0.0017853103 0.016161421 0.0077717705 0.008738131 0.022308167
0.029487235 0.06230458 0.0 0.0 0.0 0.0 0.0 0.0
0.0 0.0 0.0 0.0 0.0 0.0 0.0 0.0
0.0 0.0 0.0 0.0 0.0 0.0 0.0 0.0
0.0 0.0 0.0 0.0 0.0 0.0 0.0 0.0
0.0 0.0 0.0 0.0 0.0 0.0 0.0 0.0
0.0 0.0 0.0 0.0 0.0 0.0 0.0 0.0
0.0 0.0 0.0 0.0 0.0 0.0 0.0 0.0
0.0 0.0 0.0 0.0

graph_attn_module.gat_conv.lin_src.weight f4 [400, 100]
00000000: f862 973d bca5 dfbd 0410 8cbc b178 a43d
00000010: 47cd 623c bc89 cabd 7fd6 b9bd dcda a63c
00000020: 3872 8fbd 2ed0 a23d 9f58 5a3d c3d9 86bd
00000030: a6cc fe3c 5c03 443d 71e7 fd3c e886 8a3d
00000040: f411 e4bd 0dfb 683d 87a1 653d 6062 983d
00000050: dc28 173d 0669 ddbd a4d3 e63c e42c 553d
00000060: f8b0 17bd 2bb4 9abd cb0c adbd 15a1 a8bd
00000070: ff0b 373d 970f bd3c f44d d03d 6210 b33d
00000080: 129e b2bd e60f be3c 1157 293d e393 6e3d
00000090: 6066 813d d194 553d b1c8 a43d 67a5 c53d
000000a0: 7a2e 2e3d af0d c33d af5c f5bc df86 f73c
000000b0: 9629 9abd d3c0 9bbd b80a a1bd b21b 80bd
000000c0: 0dae 923c 56af ccbd 7757 b53d 68cc b83d
000000d0: 5c39 b0bc de82 223c c634 be3d 37a8 eb3c
000000e0: c48c 62bd a3f0 0f3c 1142 823d fc48 9f3c
000000f0: cb13 bf3d da92 cdbc 4041 763d b04a 923d
00000100: 5e04 de3d 3614 81bd 296e 103d d4d0 d6bd
00000110: 9872 883c 67c9 b5bd c099 6fbd ce88 083d
00000120: 82f9 c33d bdb2 1dbd 3cca a239 0a80 db3d
00000130: 9f18 6cbd 6665 cebc dcf5 763d 0af8 cc3c
00000140: fd41 c9bc df1c d43d bfaf f53b 1987 c23d
00000150: 6742 22bb e09d 8f3c 144e 73bc 992b b43d
00000160: 2db4 b1bd 2179 9ebd e5a6 5b3c 9277 bcbd
00000170: ca9f 98bc d692 a23c 1a86 72bc 9200 bc3d
00000180: 8864 b73c 3512 d13d 77e4 ad3d b0df a6bd
00000190: 075e c83d e648 2dbd da95 a2bd 949a 3f3e
000001a0: d352 a23c 3056 1d3d 3f7c 7bbc 341f c2bd
000001b0: ef17 753d c1f7 3cbc 244c 0c3d e94a abbd
000001c0: 81ce 44bd 0599 d53d 5bb0 dcbc 566a c93d
000001d0: 427e d2bd 3f0b 34bb 5a75 5bbc 14f2 373d
000001e0: 0e12 dcbd 0915 7bbd b67b 37bd f7ac 043d
000001f0: 6a35 bbbd 077a a5bd a401 6bbc 1271 553d
00000200: 4bdd 8bbb ff92 3c3d 7daf 92bc b07d 88bd
00000210: c79c a7bd 9026 95bd 1b46 cdbd 9a36 fabd
00000220: c167 dabd fd8d 31bd 957e 543d 5714 bebc
00000230: c70c dcbd 6bf2 93bd aaad 993d 4e1a 3a3d
00000240: a578 be3d 094f 0d3d ebbb 8b3d 724c 9cbb
00000250: 96be 073c a2ed cbbd 162d d2bc fff2 9abc
00000260: 58e6 3a3d 7700 5d3d bc9a ccbc 5524 68ba
00000270: 8797 8b3d c958 173d 384f 593d 6b17 2e3c
00000280: 46cd 893c 09ff d2bd d02a c33c c020 b63d
00000290: 8bcb a93d cc0a cd3c abb2 6c3d ef44 8a3d
000002a0: 10ee 23bd 1d43 c0bc a5e4 493d 7e23 21bd
000002b0: 281a 333d b591 a93d d6e1 d23b 1b4d b3bd
000002c0: faf2 823d 2793 34bd ca88 acbd 76a6 dbbd
000002d0: 094f d53d 596d c63d b61b 7a3d 3464 83bd
000002e0: 44a0 24bd 1ab0 39bd a4c3 14bc 07c3 b0bc
000002f0: 7f1f 883d 737a d5bd 5513 7d3d 5738 91bb
00000300: 78f3 82bc d5aa 783c c3c9 b43c 524e 143c
00000310: 536e 493d 73d7 b8bd dbfa 503c 4e64 42bd
00000320: 2c08 76bc c50e b93d 7a0d d03d ac11 2bbd
00000330: 3a69 0abd fac2 61bd b60a 7dbd ce91 ccbd
00000340: d877 e9bd 6df7 403d 1f26 6f3d 688d 903d
00000350: d5b5 8b3d 5e03 d4bd 9839 b43d 7815 413d
00000360: 1ec4 863d 806f 4fbd fdcb c43c d104 ecbd
00000370: 8778 cb3b 2dbf 4abd 82d0 b6bd a2fe 853d
00000380: 9529 b4bd c3ce 833d 2e51 61bd 5844 0dbd
00000390: ec76 d4bd 715f 3dbd 8a2c 07bd a3c5 cf3d
000003a0: 5641 94bd 5249 633d 790d d4bd 1b83 97bd
000003b0: 9c41 48ba e37c 4c3d d405 583b 47ba ec3d
000003c0: 60ed b33c f220 f2ba f5aa cabd ea0a c9bc
000003d0: e8fe 5abd 79f1 83bd 3b50 6f3d fd28 9bbd
000003e0: 56da e2bc a83d d5bd d2ca e4bc 9b93 9e3c
000003f0: 13e2 3d3d f3da c13c f16d a43d 5d10 cdbd
0.07391924 -0.10920283 -0.01709748 0.080308326 0.013842887 -0.09889552 -0.09074115 0.020368032
-0.070042074 0.079498634 0.053307172 -0.065845035 0.031103443 0.047854766 0.030994149 0.067640126
-0.11136237 0.056880046 0.056062248 0.074406385 0.0369042 -0.10811047 0.02817709 0.052044764
-0.037034005 -0.075538956 -0.08449706 -0.08233849 0.044689175 0.023078723 0.101711184 0.08743359
-0.08721556 0.02320094 0.0413428 0.058246505 0.063183546 0.052143876 0.08046091 0.096506886
0.042524792 0.09524094 -0.029951422 0.030215679 -0.07527463 -0.07605138 -0.078633726 -0.062552825
0.01790526 -0.0999438 0.08854573 0.090233624 -0.021511726 0.0099188965 0.092874095 0.028766735
-0.055310026 0.0087854 0.063602574 0.019443981 0.09329947 -0.025094438 0.06012082 0.07143152
0.10840677 -0.06302683 0.035261307 -0.104890496 0.016656205 -0.08876305 -0.058496237 0.033333592
0.09569074 -0.038500536 0.00031049724 0.10717781 -0.057640668 -0.025194835 0.060293064 0.025020618
-0.024567598 0.10357069 0.007497757 0.09498424 -0.0024758817 0.017531335 -0.014850158 0.08797378
-0.08676944 -0.07737947 0.01340649 -0.09202494 -0.01863088 0.019845407 -0.01480248 0.09179796
0.022386804 0.10208551 0.08490842 -0.08148134 0.09783559 -0.04230585 -0.07938738 0.1871131
0.019814884 0.038412273 -0.015349447 -0.09478608 0.059837278 -0.0115336785 0.0342523 -0.08363897
-0.0480485 0.10429577 -0.026939562 0.09834735 -0.10277988 -0.0027472524 -0.013394678 0.044908598
-0.10745631 -0.061299358 -0.044795714 0.032391515 -0.09141047 -0.080799155 -0.014343653 0.052109785
-0.0042683235 0.046038624 -0.017905945 -0.06664598 -0.081842 -0.07282746 -0.10023137 -0.12217446
-0.10664321 -0.0433483 0.05187853 -0.023203058 -0.107446246 -0.07223972 0.07503827 0.045435242
0.09300355 0.034499202 0.06822952 -0.004769855 0.008285185 -0.09957434 -0.025656264 -0.018914698
0.04562983 0.05395552 -0.024976127 -0.00088555116 0.06816011 0.036949906 0.053054065 0.0106257005
0.016821515 -0.1030255 0.023824126 0.08892965 0.08290776 0.025029562 0.05778758 0.06751429
-0.040021956 -0.023469502 0.049290318 -0.03934049 0.043726116 0.082797445 0.006435613 -0.08754941
0.06394 -0.044085648 -0.08424528 -0.10725109 0.104154654 0.09688825 0.061061583 -0.064155966
-0.040191904 -0.04533396 -0.0090798475 -0.021577371 0.066466324 -0.10423746 0.061786015 -0.004431765
-0.015985236 0.015177448 0.022068864 0.009051876 0.04917748 -0.09025469 0.012755121 -0.04745894
-0.015016597 0.0903602 0.101588205 -0.0417649 -0.033791758 -0.055117585 -0.061777793 -0.099887475
-0.113998115 0.047110964 0.058385964 0.07058221 0.06821791 -0.10352205 0.08800048 0.047139615
0.06580375 -0.050643444 0.02402305 -0.11524356 0.0062094363 -0.049498726 -0.089264885 0.06542708
-0.08796994 0.06435921 -0.05500906 -0.034489006 -0.10374245 -0.0462336 -0.03300146 0.10145118
-0.07239024 0.055489846 -0.10354132 -0.07398053 -0.0007639171 0.04992379 0.0032962458 0.11558967
0.021963775 -0.0018472953 -0.09895889 -0.024541337 -0.053465754 -0.06442542 0.058426123 -0.07576177
-0.027692001 -0.104121506 -0.027928744 0.019357493 0.04635818 0.023663973 0.08028782 -0.10012887

graph_attn_module.gat_conv.lin_dst.weight f4 [400, 100]
00000000: f862 973d bca5 dfbd 0410 8cbc b178 a43d
00000010: 47cd 623c bc89 cabd 7fd6 b9bd dcda a63c
00000020: 3872 8fbd 2ed0 a23d 9f58 5a3d c3d9 86bd
00000030: a6cc fe3c 5c03 443d 71e7 fd3c e886 8a3d
00000040: f411 e4bd 0dfb 683d 87a1 653d 6062 983d
00000050: dc28 173d 0669 ddbd a4d3 e63c e42c 553d
00000060: f8b0 17bd 2bb4 9abd cb0c adbd 15a1 a8bd
00000070: ff0b 373d 970f bd3c f44d d03d 6210 b33d
00000080: 129e b2bd e60f be3c 1157 293d e393 6e3d
00000090: 6066 813d d194 553d b1c8 a43d 67a5 c53d
000000a0: 7a2e 2e3d af0d c33d af5c f5bc df86 f73c
000000b0: 9629 9abd d3c0 9bbd b80a a1bd b21b 80bd
000000c0: 0dae 923c 56af ccbd 7757 b53d 68cc b83d
000000d0: 5c39 b0bc de82 223c c634 be3d 37a8 eb3c
000000e0: c48c 62bd a3f0 0f3c 1142 823d fc48 9f3c
000000f0: cb13 bf3d da92 cdbc 4041 763d b04a 923d
00000100: 5e04 de3d 3614 81bd 296e 103d d4d0 d6bd
00000110: 9872 883c 67c9 b5bd c099 6fbd ce88 083d
00000120: 82f9 c33d bdb2 1dbd 3cca a239 0a80 db3d
00000130: 9f18 6cbd 6665 cebc dcf5 763d 0af8 cc3c
00000140: fd41 c9bc df1c d43d bfaf f53b 1987 c23d
00000150: 6742 22bb e09d 8f3c 144e 73bc 992b b43d
00000160: 2db4 b1bd 2179 9ebd e5a6 5b3c 9277 bcbd
00000170: ca9f 98bc d692 a23c 1a86 72bc 9200 bc3d
00000180: 8864 b73c 3512 d13d 77e4 ad3d b0df a6bd
00000190: 075e c83d e648 2dbd da95 a2bd 949a 3f3e
000001a0: d352 a23c 3056 1d3d 3f7c 7bbc 341f c2bd
000001b0: ef17 753d c1f7 3cbc 244c 0c3d e94a abbd
000001c0: 81ce 44bd 0599 d53d 5bb0 dcbc 566a c93d
000001d0: 427e d2bd 3f0b 34bb 5a75 5bbc 14f2 373d
000001e0: 0e12 dcbd 0915 7bbd b67b 37bd f7ac 043d
000001f0: 6a35 bbbd 077a a5bd a401 6bbc 1271 553d
00000200: 4bdd 8bbb ff92 3c3d 7daf 92bc b07d 88bd
00000210: c79c a7bd 9026 95bd 1b46 cdbd 9a36 fabd
00000220: c167 dabd fd8d 31bd 957e 543d 5714 bebc
00000230: c70c dcbd 6bf2 93bd aaad 993d 4e1a 3a3d
00000240: a578 be3d 094f 0d3d ebbb 8b3d 724c 9cbb
00000250: 96be 073c a2ed cbbd 162d d2bc fff2 9abc
00000260: 58e6 3a3d 7700 5d3d bc9a ccbc 5524 68ba
00000270: 8797 8b3d c958 173d 384f 593d 6b17 2e3c
00000280: 46cd 893c 09ff d2bd d02a c33c c020 b63d
00000290: 8bcb a93d cc0a cd3c abb2 6c3d ef44 8a3d
000002a0: 10ee 23bd 1d43 c0bc a5e4 493d 7e23 21bd
000002b0: 281a 333d b591 a93d d6e1 d23b 1b4d b3bd
000002c0: faf2 823d 2793 34bd ca88 acbd 76a6 dbbd
000002d0: 094f d53d 596d c63d b61b 7a3d 3464 83bd
000002e0: 44a0 24bd 1ab0 39bd a4c3 14bc 07c3 b0bc
000002f0: 7f1f 883d 737a d5bd 5513 7d3d 5738 91bb
00000300: 78f3 82bc d5aa 783c c3c9 b43c 524e 143c
00000310: 536e 493d 73d7 b8bd dbfa 503c 4e64 42bd
00000320: 2c08 76bc c50e b93d 7a0d d03d ac11 2bbd
00000330: 3a69 0abd fac2 61bd b60a 7dbd ce91 ccbd
00000340: d877 e9bd 6df7 403d 1f26 6f3d 688d 903d
00000350: d5b5 8b3d 5e03 d4bd 9839 b43d 7815 413d
00000360: 1ec4 863d 806f 4fbd fdcb c43c d104 ecbd
00000370: 8778 cb3b 2dbf 4abd 82d0 b6bd a2fe 853d
00000380: 9529 b4bd c3ce 833d 2e51 61bd 5844 0dbd
00000390: ec76 d4bd 715f 3dbd 8a2c 07bd a3c5 cf3d
000003a0: 5641 94bd 5249 633d 790d d4bd 1b83 97bd
000003b0: 9c41 48ba e37c 4c3d d405 583b 47ba ec3d
000003c0: 60ed b33c f220 f2ba f5aa cabd ea0a c9bc
000003d0: e8fe 5abd 79f1 83bd 3b50 6f3d fd28 9bbd
000003e0: 56da e2bc a83d d5bd d2ca e4bc 9b93 9e3c
000003f0: 13e2 3d3d f3da c13c f16d a43d 5d10 cdbd
0.07391924 -0.10920283 -0.01709748 0.080308326 0.013842887 -0.09889552 -0.09074115 0.020368032
-0.070042074 0.079498634 0.053307172 -0.065845035 0.031103443 0.047854766 0.030994149 0.067640126
-0.11136237 0.056880046 0.056062248 0.074406385 0.0369042 -0.10811047 0.02817709 0.052044764
-0.037034005 -0.075538956 -0.08449706 -0.08233849 0.044689175 0.023078723 0.101711184 0.08743359
-0.08721556 0.02320094 0.0413428 0.058246505 0.063183546 0.052143876 0.08046091 0.096506886
0.042524792 0.09524094 -0.029951422 0.030215679 -0.07527463 -0.07605138 -0.078633726 -0.062552825
0.01790526 -0.0999438 0.08854573 0.090233624 -0.021511726 0.0099188965 0.092874095 0.028766735
-0.055310026 0.0087854 0.063602574 0.019443981 0.09329947 -0.025094438 0.06012082 0.07143152
0.10840677 -0.06302683 0.035261307 -0.104890496 0.016656205 -0.08876305 -0.058496237 0.033333592
0.09569074 -0.038500536 0.00031049724 0.10717781 -0.057640668 -0.025194835 0.060293064 0.025020618
-0.024567598 0.10357069 0.007497757 0.09498424 -0.0024758817 0.017531335 -0.014850158 0.08797378
-0.08676944 -0.07737947 0.01340649 -0.09202494 -0.01863088 0.019845407 -0.01480248 0.09179796
0.022386804 0.10208551 0.08490842 -0.08148134 0.09783559 -0.04230585 -0.07938738 0.1871131
0.019814884 0.038412273 -0.015349447 -0.09478608 0.059837278 -0.0115336785 0.0342523 -0.08363897
-0.0480485 0.10429577 -0.026939562 0.09834735 -0.10277988 -0.0027472524 -0.013394678 0.044908598
-0.10745631 -0.061299358 -0.044795714 0.032391515 -0.09141047 -0.080799155 -0.014343653 0.052109785
-0.0042683235 0.046038624 -0.017905945 -0.06664598 -0.081842 -0.07282746 -0.10023137 -0.12217446
-0.10664321 -0.0433483 0.05187853 -0.023203058 -0.107446246 -0.07223972 0.07503827 0.045435242
0.09300355 0.034499202 0.06822952 -0.004769855 0.008285185 -0.09957434 -0.025656264 -0.018914698
0.04562983 0.05395552 -0.024976127 -0.00088555116 0.06816011 0.036949906 0.053054065 0.0106257005
0.016821515 -0.1030255 0.023824126 0.08892965 0.08290776 0.025029562 0.05778758 0.06751429
-0.040021956 -0.023469502 0.049290318 -0.03934049 0.043726116 0.082797445 0.006435613 -0.08754941
0.06394 -0.044085648 -0.08424528 -0.10725109 0.104154654 0.09688825 0.061061583 -0.064155966
-0.040191904 -0.04533396 -0.0090798475 -0.021577371 0.066466324 -0.10423746 0.061786015 -0.004431765
-0.015985236 0.015177448 0.022068864 0.009051876 0.04917748 -0.09025469 0.012755121 -0.04745894
-0.015016597 0.0903602 0.101588205 -0.0417649 -0.033791758 -0.055117585 -0.061777793 -0.099887475
-0.113998115 0.047110964 0.058385964 0.07058221 0.06821791 -0.10352205 0.08800048 0.047139615
0.06580375 -0.050643444 0.02402305 -0.11524356 0.0062094363 -0.049498726 -0.089264885 0.06542708
-0.08796994 0.06435921 -0.05500906 -0.034489006 -0.10374245 -0.0462336 -0.03300146 0.10145118
-0.07239024 0.055489846 -0.10354132 -0.07398053 -0.0007639171 0.04992379 0.0032962458 0.11558967
0.021963775 -0.0018472953 -0.09895889 -0.024541337 -0.053465754 -0.06442542 0.058426123 -0.07576177
-0.027692001 -0.104121506 -0.027928744 0.019357493 0.04635818 0.023663973 0.08028782 -0.10012887

attention_module.W.weight f4 [64, 512]
00000000: 8cd9 98bc 71d4 5bbb 929b d2bc 9c45 fc3b
00000010: 13cd 62bb d535 ef3c 7932 28bc 438b a0bc
00000020: 1dc5 953c 20a5 8abc f102 23bc 5b78 8fbc
00000030: 9838 9b3b d29c 373d f39c c23c d7c5 6fbc
00000040: 5248 343c 6ec8 6a3c 9fdf 84bc 403c 953b
00000050: fb13 bdbb 4b9f e63c 7cbf 073c 10fb 2c3d
00000060: ee03 193d dfca 473b 7087 e03c 1ea3 85bb
00000070: a9bc 00bc c4aa 973b 56cc 83bc 257b 4b3c
00000080: 79a0 f039 015b 13bd 61ee 253d 43cb fdba
00000090: be71 1e3c 3482 143c 6316 d8bc cfa9 26bd
000000a0: 71e6 0fbd 6c04 2ebc f357 7abc 5b3f 13bd
000000b0: b38b 40bd 7da7 62bc eaba 023c f3e4 623c
000000c0: 7f88 35bd edec fdbc f0eb 19bd 26c5 92bc
000000d0: 02ce 99bb e27c 0c3d 159b 0f3d 2583 ec3c
000000e0: b1d7 8bbb 9462 8bbc d943 efbc dcf2 05bd
000000f0: 7d27 9fbc 97db c73c a582 a93c 33ba 22bc
00000100: ec08 023d a255 1e3d 2484 dc3c 323b adb8
00000110: 2090 25bc 8565 04bd 9f3c 0a3d ec11 043c
00000120: c60e 11bd 095e b3bb a4e1 60ba 5961 0ebd
00000130: 8555 afbc 5e35 8bbb 420c 0cbd a162 bd3c
00000140: 07ca 4dbc 431a 30bc ccf9 083d 605a 02bb
00000150: e3ca c53b 27a6 403d c57a a5bc 4b28 94bc
00000160: 8e48 743c bc8e 9c3b 5e3a a1bc 1fbc 873c
00000170: 8a9f eb3b b0cd 373b e430 103d 34f3 39bd
00000180: d0e2 3abc b7a0 04bb 2a41 293d 9335 753c
00000190: 24d1 a63c 845c 2e3c f7c3 333d bd34 5abd
000001a0: 1c0d 843c 5eaf b43c 003a 90ba ebab 06bd
000001b0: 01ff d0bb f731 8cbc 147e f33c 0744 ee3b
000001c0: e207 923b 637e 4aba 5840 1c3d 9d6a ed3b
000001d0: 65dc 1cbc fdfa 4c3c fb03 bfbc 3f35 bfbc
000001e0: d2bc a73c 1c30 bbba 96b1 4abc 95e4 1f3d
000001f0: 792a a8bc 00c4 593b f79c 433d 7a50 e1bc
00000200: f9bf b33c 4876 393c 66b1 e6b9 5120 bcbc
00000210: 1cf2 a23c c65a fcbc 3390 d6bc 3ef3 cebb
00000220: 1449 113c 22b3 96bc 4bb6 00bd f085 15bd
00000230: 09c4 9fbc 4aab ad3b 4ec4 1f3d 019c 3bbd
00000240: dc95 143d 52e6 063d ad3f 06bd f3c0 d3bc
00000250: cd52 003d 0890 07bd 77ae 46bd 1de1 e3bb
00000260: 93fb 2c3c 738d 8a3c cfe5 2bbd 7dd9 e83b
00000270: 4c87 c9bc ae37 c6bc 9a70 eb3c 8fca 1abc
00000280: 77d2 debc 931a e7bc 1641 94bc b13b 18bd
00000290: 9074 35bd 55db 46bd 5f80 35bb 800e a0bc
000002a0: ae7a d1bb 8067 a93c ffe0 52bc 302f df3c
000002b0: 8a7b 65bc 8f63 033d dbdf 0bbd 5526 febc
000002c0: 1ac8 e63c 29aa 543c 8d4d 08bd d2d1 66bd
000002d0: d9dc f1bc a7ca 513c 944a a8bb f472 3cbd
000002e0: 6c02 12bd c7cc d7bc e813 ae3b 39e1 97bc
000002f0: cc62 7bbc c953 c83c 9d8c ebbb 1ff6 c13c
00000300: a183 053c 2a3e 3a3d 5a20 8abc cba8 d3bc
00000310: 930b 25bc 6a0d 11bd 33cb 983c bf8e 5ebc
00000320: c758 1f3c 3e54 9fbc 5898 1c3b 750a 01bc
00000330: 2598 cc3b 468d 303c e668 e43b 1816 ebbb
00000340: 52db 923c 56be f8bc 2c1e ff3b b49a 85bc
00000350: ddad b53a 51e3 0abd 1ebe d0bc 00e3 3cbd
00000360: 6897 b9bc d62d 3f3c 5deb 30bd 05e0 493d
00000370: b1a4 cd3c 11f4 2abd 1d0a 383d a616 3abd
00000380: cb6d 16bc 84f3 f6bb 1a8c d13c 9d8b 40bc
00000390: af23 20bd e85f 77b7 9d73 48bc dfb6 bebc
000003a0: ad6f 0dbd bfb4 b13c 5f5a dcbb 44ab a33c
000003b0: 578d 113d 180c c1bc c5e5 43bd c7ed 2d3d
000003c0: 96bc bebc fdd3 e83c ea96 03bc 7bd9 2fbd
000003d0: 8a96 a5bc 6786 073d bb1e 89bc 06ec 11bd
000003e0: f033 73bc 0aad 51bc 5591 25bd 082d 173d
000003f0: f0ea dd3c f0d1 dd3c b1ec 783a 550e 0b3c
-0.018658422 -0.0033543373 -0.025708947 0.007698728 -0.0034607097 0.029200474 -0.01026594 -0.019597655
0.018282467 -0.01692444 -0.009949432 -0.017513445 0.004736971 0.04482729 0.02375648 -0.014634571
0.011003571 0.014330013 -0.016219912 0.0045543015 -0.005770204 0.028152129 0.0082853995 0.04223162
0.037357263 0.003048591 0.027408332 -0.004078283 -0.00785748 0.004628511 -0.016088646 0.012419497
0.0004589593 -0.03597546 0.04051054 -0.0019362945 0.009670673 0.009064246 -0.026377862 -0.040689286
-0.035131875 -0.010621171 -0.015279758 -0.035949092 -0.047008228 -0.013833878 0.007979134 0.013848531
-0.044319626 -0.030996764 -0.037578523 -0.017916273 -0.0046937475 0.034298785 0.035060007 0.028871128
-0.004267656 -0.01701478 -0.029207157 -0.032702312 -0.01942801 0.0243967 0.020692179 -0.009932089
0.03174679 0.038655885 0.026918478 -8.260309e-05 -0.010105163 -0.03232338 0.03374922 0.0080609135
-0.03541448 -0.0054738563 -0.0008578545 -0.034760807 -0.021403084 -0.004248305 -0.034191377 0.023118319
-0.012560374 -0.010748449 0.03344135 -0.0019890293 0.006036149 0.047033455 -0.020200143 -0.01808562
0.0149098765 0.0047777575 -0.019681152 0.016569195 0.0071906494 0.0028046183 0.035202876 -0.045397952
-0.011406615 -0.0020237395 0.04132191 0.014966386 0.020363398 0.010642175 0.04388806 -0.05327295
0.016119532 0.022056278 -0.0011003613 -0.032878798 -0.006378055 -0.017113669 0.029723205 0.007271293
0.004456506 -0.00077245216 0.0381473 0.0072453753 -0.0095740305 0.012511012 -0.023317328 -0.02334082
0.020475779 -0.0014281305 -0.012371441 0.039036352 -0.020528065 0.0033228397 0.047757115 -0.027504195
0.021942126 0.011319704 -0.0004400119 -0.022964628 0.019890837 -0.030805003 -0.026191806 -0.006315618
0.008867521 -0.018395964 -0.031423848 -0.036504686 -0.019502657 0.0052999603 0.03900557 -0.045803074
0.03627573 0.032934494 -0.03277557 -0.025848841 0.031328965 -0.033096343 -0.048506226 -0.006954326
0.010558027 0.016913151 -0.04196721 0.0071060047 -0.024600647 -0.024196472 0.028740216 -0.009447708
-0.027199967 -0.028210914 -0.018097442 -0.0371663 -0.044300616 -0.048549015 -0.0027694923 -0.019538164
-0.0063927984 0.020679235 -0.012871026 0.02724418 -0.014006505 0.03207737 -0.034149032 -0.031024138
0.028171588 0.0129800225 -0.033277083 -0.056352444 -0.029524254 0.012804664 -0.0051358435 -0.046008065
-0.03564684 -0.026342763 0.0053124316 -0.018540012 -0.015343379 0.024454014 -0.0071883933 0.02367693
0.008149059 0.04546944 -0.01686113 -0.025837323 -0.01007356 -0.035413183 0.01865158 -0.013583838
0.009725756 -0.01944935 0.0023894515 -0.007876028 0.006243723 0.01077587 0.0069705127 -0.0071742646
0.017926846 -0.030364197 0.007785579 -0.01630912 0.0013861019 -0.033908192 -0.02548128 -0.04611492
-0.022655204 0.011668643 -0.04319321 0.049285907 0.025102945 -0.041736666 0.04493152 -0.045431755
-0.00918145 -0.0075363535 0.025579501 -0.011752036 -0.03909653 -1.4744677e-05 -0.012234596 -0.02328056
-0.03453033 0.021692632 -0.0067246403 0.019979127 0.035535183 -0.023565337 -0.047826547 0.04246309
-0.023283284 0.028421396 -0.008031586 -0.042932015 -0.020213384 0.03308716 -0.016738286 -0.03562548
-0.014843926 -0.012797603 -0.040421803 0.03690818 0.027089566 0.027077645 0.0009495719 0.008487304

attention_module.W.bias f4 [64]
00000000: 8e7b 20bd 4761 a8bc 9b16 44bd 0acf b03c
00000010: 6c35 18bd 9089 bbbb c92e 2f3d d0c1 e13c
00000020: b2ac 19bd befa 86bc e1e3 1fbd 54e5 9fbc
00000030: a870 023c f6ee 173d 9c75 133d 70bb 1e3c
00000040: 57f2 d23c d9e1 2c3d 5f93 e13c 5104 27bc
00000050: 752f b13c f43c 7a3d d1e8 8dbb 4bb0 ef3c
00000060: 55ec 30bd 7c27 693c 0f95 89bc 7085 0b3c
00000070: ac6e a3bb 8569 66bc b530 c43c 1dfc 49bd
00000080: b55f 9bbb 43cb ebbc e17e 48bd 9d66 7e3b
00000090: cde0 e1bc 6c13 193c fbf4 003c 2ca3 433d
000000a0: 6010 d3bc c13b 1a3c 47a7 433b 9047 f63c
000000b0: 84b4 fd3c 525f 48bc 208e e9bc f95c 29bb
000000c0: a919 8d3c 5fc0 76bc 0b26 443d 9dc7 dbbc
000000d0: a702 1ebb e109 273d b58c 873c 3438 67bc
000000e0: 4757 14bc eeae a03c 2257 c73c 7e79 0e3d
000000f0: dd6d 55bc 38ec eabc ae13 11bd 5b24 983c
-0.03918033 -0.020554198 -0.04787312 0.021583099 -0.037160322 -0.005723186 0.042769227 0.027558237
-0.03751821 -0.016476985 -0.03903568 -0.019518532 0.00796143 0.037093125 0.036000833 0.009688243
0.025750322 0.042207573 0.027536092 -0.0101939 0.021629075 0.061093286 -0.0043307324 0.029258868
-0.043194134 0.014230605 -0.01679471 0.008515701 -0.0049875583 -0.014063244 0.023949007 -0.0493127
-0.004741634 -0.028783446 -0.048949126 0.0038818487 -0.027573014 0.009343009 0.007870908 0.047763035
-0.025764644 0.0094136605 0.0029854344 0.03006342 0.030969866 -0.012229757 -0.028510153 -0.002584277
0.01722415 -0.015060513 0.047887843 -0.026828581 -0.0024110468 0.040780906 0.016546587 -0.014112521
-0.009054012 0.019614663 0.02433354 0.034783833 -0.013026682 -0.028677091 -0.03541916 0.018572023

attention_module.h.weight f4 [1, 64]
00000000: e905 9e3d a918 8bbd 7a47 993d e218 8ebd
00000010: e065 85bd 94e4 d23d 5c53 b0bd cf71 c1bd
00000020: 95ba 023d 13e1 7cbc 5513 35bc 1109 713d
00000030: c3c3 1dbb bf48 853d b761 5cbc cdaf a7bd
00000040: c43a 56bd eb08 8ebd e2bb 7939 6e54 1a3d
00000050: f1ce c83c b683 e93b 6d21 a23d 99c9 79bd
00000060: 0034 7ebc bc2f 223d e7bd 4a3d 4cfc 62bd
00000070: 5b9b 93bd 0e38 14bd e413 913d d423 693d
00000080: cbf3 b8bd e13c 433c 0e98 c3bd 7b26 c9bd
00000090: e71f 0dbc 398e 93bd 5404 ad3d 95ec 873a
000000a0: 00e0 9f3d 7425 32bd 7532 4f3d f7db 2b3d
000000b0: 86c1 4e3d 3f7d 7cbd 9fa7 acbd 6292 d53d
000000c0: 0b2a 513d ed58 9b3d 1133 37bb f5cf aebc
000000d0: a37a 9abd 9a5e 363c 7dd7 d6bd ce21 46bc
000000e0: 5bea e1bd d162 773b 77ff 823c 69d5 bdbd
000000f0: 1ed3 e8bd a3c3 c1bd 3073 863d 7168 083d
0.07715971 -0.06791813 0.07484336 -0.0693834 -0.06513572 0.10297504 -0.086096495 -0.094455354
0.03191622 -0.015434521 -0.011051972 0.058846537 -0.0024072982 0.06508016 -0.013451031 -0.08187828
-0.052302137 -0.06935295 0.00023816482 0.037678175 0.02451274 0.007126297 0.07916532 -0.060983274
-0.015515327 0.039596304 0.04949751 -0.05541639 -0.07207366 -0.03618627 0.07083872 0.056918934
-0.09030875 0.01191637 -0.095504865 -0.09821793 -0.008613563 -0.07204861 0.08448091 0.001037019
0.078063965 -0.04349275 0.05058523 0.04195782 0.050477527 -0.06164288 -0.08430409 0.10428311
0.051065486 0.075853206 -0.0027954022 -0.021339396 -0.07542922 0.011130953 -0.1049032 -0.012093021
-0.11031028 0.0037748108 0.015990956 -0.092692204 -0.113683924 -0.09461143 0.06564939 0.033302728

st_gcns.0.gcn.conv.bias f4 [64]
00000000: f0e3 173e 50ff 41be 3e4c 013e 86c1 ecbd
00000010: a0c6 b43c 24fa 06be cfe5 c4bd 80a6 dc3d
00000020: 542b 9e3d f9a1 5f3c c028 723d 0321 71bc
00000030: 1739 2ebd f124 093c fef1 a5bd e2f1 363c
00000040: 9e81 b13d 2312 be3c ecdf 0f3c dbee f1bd
00000050: c162 e3bc 1449 a1bd 590b ef3d 46d5 e2bd
00000060: e930 033e 244b 09be 97e3 c2bd 9556 8a3c
00000070: 754e 293d ca16 42bd 7494 fdbc 28b0 ce3d
00000080: b61e e73d 5709 cdbd 0fb2 cb3b a09c 86bd
00000090: ea05 c63d 3c62 0a3e c0c7 86bc 5a7f 85bd
000000a0: 3004 d73c 4653 bcbd ab24 9f3c a9e8 2bbe
000000b0: 913f 4ebc e6a6 2bbd 6f17 cabc be18 ad3d
000000c0: 0b09 47bd 13a0 243e 8576 a0bd 598c 503d
000000d0: 4c0a aabd 22ab 7eba cf7c 723d cf49 dcbd
000000e0: 7f9c debc 5848 2c3d ee1d 293e 08d5 34bd
000000f0: 9432 2bbd 3d45 29bd d39d 38be aec6 02be
0.14833045 -0.1894505 0.1262674 -0.11560349 0.022067368 -0.13181359 -0.09614145 0.10773945
0.07723108 0.013649457 0.059120893 -0.014717343 -0.042534914 0.008370624 -0.08102797 0.011166068
0.08667301 0.023202008 0.0087814145 -0.11813136 -0.02775705 -0.07875267 0.11672086 -0.11075835
0.12811626 -0.1340757 -0.095160656 0.016886989 0.041334588 -0.047385015 -0.030954577 0.10092193
0.112851545 -0.10011547 0.0062162946 -0.065728426 0.09669097 0.13514036 -0.01645267 -0.06518431
0.026247114 -0.09195571 0.019426664 -0.16787972 -0.012588398 -0.041907214 -0.024669377 0.08451985
-0.04859261 0.16076688 -0.07835106 0.050915096 -0.08302745 -0.0009714832 0.059201058 -0.10756265
-0.027174233 0.04206118 0.16515324 -0.044148475 -0.041796282 -0.041325796 -0.18028955 -0.12771103
