experiments/training/5/checkpoints/epoch_200.pth (torch, 538788 bytes, 53 tensors)

lin_proj.weight f4 [64, 2]
00000000: 17ea 1dbf a8e9 d0be 6867 3a3e 073f 25be
00000010: 1b5d ba3e c009 953e 6dd6 6a3d e2af eabe
00000020: 31d3 f0be d667 e1be 2bd2 06bf 8356 fabe
00000030: 43e3 06bf 7ec3 7d3e 7a89 813e 89b2 71be
00000040: fd75 f5bd 0179 0c3f c009 d3be 1c52 ed3e
00000050: f6d4 263f 6f8e f2be 9126 2fbf b298 d7be
00000060: 893c 25bf ee4e 1fbf 5883 293f f3e2 1a3f
00000070: 4377 e63e 3baa f3be 03d5 e4be 04dc ee3d
00000080: 2457 b83e dc0f d6be 0b9b 0dbd 03ed f83d
00000090: 4fa3 c23e e366 273f c59d f8be 4749 003f
000000a0: 082a 21bf a37d 863e 75c9 e8be f6bc f5be
000000b0: 4d35 b83e fc2b 073d 9d8b 153f 8b89 30bf
000000c0: 16ba 003f 3448 c2bd 48be 1a3f 57f8 dcbe
000000d0: 9cdf 4cbe 2ca1 ea3e dd50 3bbd 2e4e 073f
000000e0: 24a0 f1be 6989 723d b034 9ebe 45d7 693c
000000f0: 7d0c 9dbe 1660 e0be ebc4 813e 04f4 f23d
00000100: 16c1 c4be 2a99 10be 7f32 23bf 6984 bebe
00000110: a932 c1be e66d 1f3f 2081 a53e 965a 1ebf
00000120: 5273 b7be bb42 923e 3f19 163f a702 ff3e
00000130: 4d73 5dbe 6343 3c3e a030 fdbe 7ecc 2d3d
00000140: d862 f4be 4160 5cbe 4088 2cbf 45b3 02bf
00000150: 3cf2 c1bd 9f86 5e3e 3136 1ebd 56e5 d03e
00000160: 9a67 28bf eb91 c93d 4eff b2be 45bb 18be
00000170: dc9a d1be 8b40 883d 37a5 35be 4fa9 b23e
00000180: 46fc e7bd 3662 17bf 0b23 833e 53d0 0abf
00000190: 6c8e 6a3e 6636 8b3d f91c 27bf 8490 09bf
000001a0: 8706 d1bd f513 c0be 246e 08bf e81b b03e
000001b0: 8ae3 643d e189 363f a46d e9be 87d9 a63e
000001c0: 9ba3 11bf edde 8fbe d975 00bf af6f 21be
000001d0: f816 0abf 1a22 f4be 49de b43e 3f63 9fbd
000001e0: 330d fb3e 964c 293f 91a4 a2be f211 033f
000001f0: 91ca d8bd 5b3c 0b3e 15c8 aabe ec95 cbbe
-0.6168532 -0.40803266 0.18203509 -0.16137324 0.3639916 0.29109 0.0573334 -0.45837313
-0.47036126 -0.44024533 -0.5266444 -0.48894128 -0.52690524 0.24781606 0.253002 -0.23603262
-0.11985395 0.5487214 -0.41218376 0.46351707 0.651687 -0.47374293 -0.6841822 -0.42108685
-0.64545494 -0.6222981 0.6621604 0.6050255 0.45012864 -0.47590813 -0.44693765 0.116630584
0.36003983 -0.41808975 -0.03457169 0.121545814 0.3801522 0.6539137 -0.4855787 0.5011181
-0.6295476 0.26267728 -0.454662 -0.47995728 0.35978165 0.03300093 0.5841616 -0.68959874
0.50283945 -0.09486428 0.60446596 -0.43158218 -0.20007175 0.4582609 -0.045731414 0.5285367
-0.4719249 0.059213076 -0.30899572 0.014272516 -0.3067359 -0.43823308 0.2534555 0.118629485
-0.38428563 -0.14120927 -0.63748926 -0.37210396 -0.37733963 0.62277067 0.32325077 -0.61856973
-0.3583017 0.28566536 0.5863227 0.4980671 -0.21626015 0.18385081 -0.4945116 0.042431347
-0.47731662 -0.21521093 -0.673954 -0.51054794 -0.09470031 0.21731041 -0.0386259 0.4079997
-0.65783083 0.09842285 -0.34960407 -0.14915188 -0.4093846 0.066529356 -0.17738806 0.34894797
-0.11327414 -0.59134233 0.25612673 -0.5422413 0.22905892 0.06797485 -0.65278584 -0.5373614
-0.10206323 -0.37515226 -0.5329306 0.3439629 0.05588106 0.71304137 -0.45591462 0.32587835
-0.5689027 -0.28099766 -0.5017982 -0.1576526 -0.539413 -0.47682267 0.3532584 -0.077826016
0.49033508 0.66132486 -0.3176618 0.5119926 -0.105855115 0.13597243 -0.33355775 -0.3976282

lin_proj.bias f4 [64]
00000000: 6cff 00bf e81d 8abe 5f73 20bf fe43 a83d
00000010: 5296 0ebf 29f9 bbbe 2eed 49be f7bc 043e
00000020: 024c acbd 372d 1e3f 9e6a 1abf 9ef6 cfbd
00000030: 9c8d f0bc bc60 b8be 31ef 92be 4426 ebbe
00000040: 71f5 003f 4223 5f3e 4a77 debe d9f8 aebd
00000050: 6739 1dbf 8d6c 253f 418c 2c3f 7e22 8a3e
00000060: aa1f bcbd 36bc a3be 0bc5 eabe 12d2 3a3f
00000070: 66bb 5d3e 2df2 c93d dff0 4abe 1079 243d
00000080: 3cd2 2fbf f869 1b3c 1291 06be 93ac b4bd
00000090: 6770 e93e 5b04 d73e 6bd3 bbbe bed4 47be
000000a0: f51a 93be 12e0 c63e 9f2b 0c3f fa9c 323d
000000b0: bf07 1abf 345b 303f 0dd3 0cbd 74c3 203e
000000c0: b0dc 803e ad12 df3e 7dbc 04bf 172b 2d3f
000000d0: 5525 043f 9c44 81be 994e e2bd 2cec 09bf
000000e0: 34ef a8bd c98c d5be 2fbb 34be ed49 94bd
000000f0: 413d 573e ae83 60be 5aa3 13bf 9659 fdbe
-0.5038974 -0.26975942 -0.6267604 0.082160935 -0.5569812 -0.36713532 -0.19719383 0.1296271
-0.08412935 0.6178774 -0.60318935 -0.1015446 -0.0293644 -0.36011302 -0.28698114 -0.45927632
0.50374514 0.21790794 -0.43450385 -0.08543558 -0.61415714 0.6461876 0.6740151 0.2697944
-0.09185727 -0.3197953 -0.45853457 0.7297679 0.21653518 0.098606445 -0.19818448 0.040154517
-0.6868017 0.009485714 -0.13141277 -0.088219784 0.4559357 0.4199551 -0.36684737 -0.19514748
-0.28731504 0.38842827 0.5475406 0.043606736 -0.6016807 0.68889165 -0.03438096 0.1569956
0.2516837 0.43568936 -0.5185011 0.67643875 0.51619464 -0.25247657 -0.110501476 -0.53875995
-0.082487494 -0.41708973 -0.1764953 -0.07240663 0.2101946 -0.21925232 -0.5767113 -0.4948241

lin_proj_2.weight f4 [5, 64]
00000000: 4c67 37bd 643d b8bd f7cc bbbd ca03 593d
00000010: 6cd3 2f3e 086e 1a3e 764d 853d 367e 173d
00000020: efe6 d5bc 4cac 843d 0437 30bd 85f0 2f3d
00000030: 9d11 dbbb 45fb d4bd db11 2e3d 5b9e 97bd
00000040: 022c d13d fd60 9ebd 0aeb 54bd 2652 683d
00000050: 1be5 543d 9de5 933d 8f41 263c 5b3c 44be
00000060: f332 10be c429 0ebe 6214 26bd d055 103e
00000070: cdcf a83d c6f1 a23d 9cbd 9c3c b9af b63d
00000080: 4942 b5bb 1a3f de3d 62cd 5ebd 6b38 cb3d
00000090: 304d 1dbd 8a66 0ebe c496 8cbd b322 993d
000000a0: 9432 b93d 7e8a 083d bf67 2ebd 836e 36be
000000b0: 4dcb d63d a772 5b3d 3fa2 bd3d 5c95 c83d
000000c0: f1ca 86bd 5dbf 973d ae14 183e b73a 613d
000000d0: 5cfa 00bd f892 e2bd 5fdf e23d d9d1 973d
000000e0: 7f9c 653d 4cbe f03c c53e 643d 3cb9 eabd
000000f0: 9fa2 c03b d7c3 223e af79 0ebd b0e2 c6bb
00000100: 897f ca3b c637 0c3e 65da 0f3e e793 dd3b
00000110: 53b0 5b3d 64ad 43bd 89a4 ff3b 2ae6 cfbd
00000120: 8049 23bd 9d65 02be 1ab9 2c3d 522d 2a3e
00000130: bba6 1d3d f0fc c03d 70fa b13d ddc8 ec3d
00000140: 90d4 d73d 7de8 883c 5649 dc3c 2981 c6bd
00000150: 7d98 39bd 9165 e13d 97b0 c43d 7c6b 83bc
00000160: 35cc 053d de88 c43c 8b3c 3cbd 343a efbd
00000170: 98aa b4bc ac18 ff3c 41c0 883d 7d5f 4d3d
00000180: b6bd 85bc 2a0a 22be 51c0 143d e061 cd3d
00000190: 497c 04be 958d 26be bf18 103d 6e27 a9bb
000001a0: b467 873d d186 633d 675b 173c be73 1fbd
000001b0: 8c3c 8bbb 2cd2 e6bd 0ff9 713d 4993 9a3c
000001c0: ab16 0a3e 6e2b 783d 903c 1f3d ae90 00bc
000001d0: 3ddb c8bd 438d 30be b393 05be 987a e6bb
000001e0: a365 f13d 2197 003e 8e57 c93d 3afe dfbd
000001f0: 966b b1bd 1853 0ebe deb5 47bb ca25 023e
00000200: ba5f 0dbd 9368 333d 9139 1abd ffba e2bd
00000210: 3bc2 673c 3d5b d23d 2f5a c03c 6ab6 163c
00000220: 0057 663d 4c43 023e 92d5 ad3d dd7d d1bb
00000230: 393d 43bd ae77 003e c4c2 54bc 830a cc3d
00000240: 78ca bb3b f025 1b3d 1dc8 68bd aa64 24bd
00000250: 2617 503c 7672 64bc 8343 3c3d 8af7 d5bd
00000260: 6222 433d fe30 d9bb e9e5 073e 02d3 fb3c
00000270: 017d 43bd 0243 3c3b 4f64 ce3d 493b ad3d
00000280: 8907 dd3c a47b 93bd ba75 bc3d 3c67 e4bd
00000290: 706d 733d 7224 e03d e13a 173d 7ed5 98bd
000002a0: 352d b8bd 1789 f43b 5987 8bbd c9dd c63d
000002b0: ddf0 eebc f19b 223d 29cb 993c 7552 6ebd
000002c0: 61e8 02bc 9f14 5f3d d9dd 55bd cbb6 abbd
000002d0: a4a8 f43d 881e 44bd f77b 84bd e851 d33d
000002e0: 45f3 80bd 46da 10bd e0c2 95bd 3952 5abd
000002f0: fdbc 553d 5071 9b3d bf25 883d 1189 de3d
00000300: 7a89 803d cd99 82bd 451e 05bd da8a 463b
00000310: 63ec adbd b6f4 bdbd 82e3 143e c467 b53d
00000320: 9b80 37bd e943 c8bd 4fac debd 9dbd 813d
00000330: b9c0 ef3c 6d09 823d c26e ee3c 400c 163d
00000340: 7710 46bd 0f3a b9bd 1508 0f3e 764c 88bb
00000350: b313 33bd c2f5 b33b 3384 7e3d 5461 903c
00000360: e723 9dbd 7ae6 cf3c c80f 1b3e 420d 453d
00000370: 9e01 ee3d b9ed 94bd 2df3 0f3d 8eb3 07bd
00000380: 83d0 bb3c 1732 dbbd 0751 e73b 375d 90bd
00000390: 4db2 533c 9528 f33d 81f7 a83d 34f5 543d
000003a0: 6144 143d 9fe3 063e f48c b8bd a558 753d
000003b0: 434d 92bd 4024 7abd 6e52 74bd 1a60 c43d
000003c0: 220e 0c3d 295e bbbd ff45 6dbd 9042 c83d
000003d0: 296a 993d 4841 84bd 75b8 aa3d 24be b33d
000003e0: 95ec dfbd 9da8 32bc 80c2 cc3d 2fcd e3bd
000003f0: d4c5 91bd 2c09 913c 4912 fe3d 1ae0 c03d
-0.044776246 -0.08996084 -0.09169953 0.05298213 0.17170495 0.15081036 0.06508915 0.0369856
-0.026111094 0.064781755 -0.043021217 0.042953987 -0.0066854493 -0.10399488 0.042497497 -0.07403251
0.10213472 -0.07733343 -0.051981963 0.056718968 0.051976305 0.0722153 0.010147466 -0.19163649
-0.14081936 -0.1388312 -0.040546782 0.14095235 0.0824276 0.07956271 0.019133382 0.08920235
-0.0055315834 0.108518794 -0.054395087 0.0992287 -0.03840369 -0.13906303 -0.06864694 0.074773215
0.0904285 0.0333352 -0.04257941 -0.17815594 0.10487995 0.053576138 0.092594616 0.09794113
-0.06581677 0.074095465 0.14851639 0.054987635 -0.03148876 -0.11063188 0.11077761 0.07413072
0.05605745 0.029387616 0.055723924 -0.11461112 0.005878761 0.1589502 -0.034784015 -0.0060695037
0.006179754 0.13693151 0.14048155 0.006762016 0.053634953 -0.04777278 0.0078015965 -0.10151322
-0.039865017 -0.12734075 0.042168714 0.16618851 0.038489085 0.09423244 0.08690345 0.11561749
0.1053859 0.016712422 0.026890438 -0.09692604 -0.04531144 0.110057004 0.09603994 -0.016042463
0.03266545 0.023991045 -0.045956176 -0.11681023 -0.022054002 0.031139694 0.066772945 0.050139893
-0.016325813 -0.1582419 0.03631622 0.10028434 -0.12938036 -0.16264947 0.03517985 -0.005162171
0.06611577 0.055548493 0.009238101 -0.03892874 -0.004249161 -0.11270556 0.05907541 0.01886906
0.1348521 0.060588293 0.038876116 -0.007846994 -0.098074414 -0.17241387 -0.13044624 -0.0070336573
0.11786964 0.12557651 0.09831153 -0.10937162 -0.086630985 -0.13898885 -0.0030473392 0.12709728
-0.03451512 0.0438009 -0.037652556 -0.11070823 0.014145429 0.102713086 0.023480503 0.009198764
0.056235313 0.12720984 0.08488001 -0.006393178 -0.04766581 0.12545654 -0.012985889 0.099629425
0.0057309233 0.037877977 -0.056831468 -0.040135063 0.0127008315 -0.013943305 0.04596282 -0.10447605
0.047640212 -0.006628155 0.13271298 0.030740265 -0.047726635 0.0028726463 0.10077726 0.08458573
0.026981132 -0.07201317 0.09202142 -0.11152503 0.05943054 0.109444514 0.036921386 -0.074625954
-0.089929976 0.0074626314 -0.06812925 0.09710271 -0.029167587 0.0396995 0.018773632 -0.058184106
-0.007989974 0.054463025 -0.052213524 -0.08384474 0.11946228 -0.04788068 -0.06468957 0.10318357
-0.062964 -0.03536441 -0.0731256 -0.05330107 0.052182186 0.07589972 0.066478245 0.10865987
0.062762216 -0.063769914 -0.03249957 0.0030295164 -0.08492353 -0.092751905 0.14539912 0.08857682
-0.044800382 -0.09778578 -0.10872709 0.06334994 0.029266702 0.06349454 0.029105548 0.036632776
-0.048355546 -0.09044277 0.13967927 -0.0041595055 -0.04371996 0.005491943 0.062137794 0.017624535
-0.076728635 0.025378454 0.15142739 0.048108347 0.11621402 -0.072719045 0.03514402 -0.03313022
0.022926575 -0.10702913 0.0070592198 -0.07049029 0.012920928 0.11872975 0.082503326 0.051991656
0.036198024 0.13172768 -0.0901126 0.05989899 -0.07143643 -0.061069727 -0.059648924 0.095886424
0.034193166 -0.09148819 -0.05792808 0.09778321 0.074909516 -0.06457764 0.08335964 0.08776501
-0.10933796 -0.010904458 0.099980354 -0.1112312 -0.07117811 0.017704569 0.12405831 0.09417744

lin_proj_2.bias f4 [5]
00000000: a4e2 eebd f04b 9cbc 5498 fa3d e151 7a3d
00000010: 0546 103a
-0.11664322 -0.019079179 0.122360855 0.061113242 0.0005503598

graph_attn_module.gat_conv.att_src f4 [1, 4, 100]
00000000: 7ab1 c2bd 8be5 623e 3853 963d adc2 edbc
00000010: 8532 603e 15f0 49be 849b 86bd cc7a d7bd
00000020: 505a 91bd 5977 863d 3e74 2bbe f4d1 30be
00000030: cb4d a6bd caa0 b3bc 15cf 3e3d 39d0 f1bd
00000040: b270 38be a8b7 833e 5fc6 f93d 0462 e3bd
00000050: 402e 8a3d 7e12 a93d 86f2 1d3e 4314 39be
00000060: 9287 49be 390c 44be 0585 583e a0c9 313e
00000070: c830 173e 880e c83d 6c6a 813e e870 98bd
00000080: 31eb e5bd 4073 173e 84a7 1b3e 4c64 6bbd
00000090: 9b1c a7bd 7e02 0ebe 09e0 683e 71e2 033e
000000a0: af75 4abd ecf8 823e b941 a43d 39fb 563e
000000b0: 5fe6 9dbd d330 85be bb67 4f3e c229 a3bd
000000c0: 87ca 513e 96e5 833e 0aad 333e 0379 7cbe
000000d0: 15dd 09be 0f53 563e 1d0f 9d3d 2779 293e
000000e0: 0b22 b83d 61cf 0ebc 3212 863e e166 433e
000000f0: 1536 bf3a bc2e 95be b4a6 85bd 98b2 a13d
00000100: 0f35 22be 7311 53be 8764 82be 401a 20be
00000110: 6c0c d83d 7adf 39bd 6fc4 8c3e 6fcb aabe
00000120: b539 bb3d 863d 6a3e c8c6 6ebe ad9c 833e
00000130: 92fa 553e b1ac e43d 4749 a0bd f4ea 1dbe
00000140: e293 be3d 6bf0 fe3d 3695 573e 0aed 56be
00000150: 46e5 503e 7aa5 0bbe e9ff 81be 541f 4b3e
00000160: 3b5e 5cbe 4471 82be 8613 40be 076c 20be
00000170: 133d 74be 3470 513d ec2f 63be 4552 563e
00000180: 3ebe 293e 6fb0 96bd 8796 d03b cbca 8fbc
00000190: 0fca 423e cd57 bbbd ccc2 d23d e292 063e
000001a0: e7bc 0bbd a384 08bc d522 6d3d b96f b8bc
000001b0: 448d 5a3d 2131 47be e3e4 17be 363a 4e3d
000001c0: a774 413e 0d4c 103e ed7d 85bd 4172 6d3e
000001d0: cc0d 5b3e 6c19 3bbe 04e0 023e 789d eb3d
000001e0: e7b5 d8bd 22b3 32be 8150 d23d 462d 19be
000001f0: 182e 293e 69f1 bbbd 3319 79bd cd2b 433e
00000200: dd68 15be b85e 2d3e 4986 2f3e 724e 2f3e
00000210: fe4f 4fbd 833f 013e a4a0 6e3c 068e b73d
00000220: 75d4 d23d d0bd 233e 69e6 01be 50b7 57bd
00000230: 76ab 683e c772 5e3e 1db5 943e 13f3 51be
00000240: f5a0 3f3e 61c0 343e fd1b 5ebe 3eb8 4fbe
00000250: d5df 423c 1570 883e aa9c 0a3d bbf8 0b3e
00000260: 19ce 06be ab00 4ebe f591 333c be39 80bd
00000270: 343f 3abe 882a dfbd 547d 2fbe 5e63 a83c
00000280: 1e9f 28be f4bb 9cbd 8d82 35be 3d21 e83d
00000290: c5c6 62be 40eb 833e b021 23bd b431 a0bd
000002a0: d3b0 303b 7dad 64be ae92 c53b 2baf 3f3e
000002b0: f3ee 973d f75a 0d3e 4927 dabc a847 873d
000002c0: 3c23 4a3e e7ff 283e ad7b 33be c101 b23d
000002d0: 1051 34be 480a 38be 02e8 4f3e 19a3 22be
000002e0: 0069 0e3e b601 58be aa1a 643e fb3f 84bd
000002f0: 5559 1fbe ff1c c0bb 13ec a03d 6ce1 953e
00000300: b485 e83c 6bdb 3e3e 2abf 09be 9282 d23d
00000310: ef08 84ba 1640 2cbe 3013 03be 9641 fcbd
00000320: 9773 debc eeff e3bc 6275 133e 51e1 70bd
00000330: f180 17be 748d 4e3e ca81 193d 8209 043e
00000340: 7adf df3d 87f6 13be 2e68 c8bd c5f8 1abe
00000350: 6079 a83d 10cf b73d 16f6 213e 1a87 063c
00000360: 94b7 623c 73aa 4f3e bbe4 303e 8125 a9bc
00000370: e8dc 1abe 47d8 0c3e fb80 323d a36c e33d
00000380: e115 303d e4cc 733e 5492 963c 535c 94bc
00000390: ac5f debd c826 fdbd 354b 073e a03a bbbd
000003a0: d9ad 563e 6d6f 093d 53ae 14be 7a41 4abc
000003b0: 871e 45be f105 17be c961 b13d 44fa 0b3e
000003c0: e9f7 4439 e1fb f3bd 5e0f ac3d 4021 de3d
000003d0: 1ef2 563e e302 3abb 16d7 00ba 3342 a43c
000003e0: c8ae 0d3d 3a36 163e bf31 073e f28b ef3d
000003f0: 4221 0c3e ad17 31be 5215 4bbe 238e 3c3e
-0.09506507 0.22157876 0.073400915 -0.029023493 0.21894272 -0.1972049 -0.06572631 -0.105214685
-0.07097304 0.065657325 -0.16743562 -0.17267591 -0.081203066 -0.021927256 0.046584208 -0.118072934
-0.1801174 0.25726056 0.121960394 -0.11102679 0.06747103 0.0825548 0.15424547 -0.18074135
-0.19680622 -0.19145288 0.21144493 0.1736207 0.14764702 0.097683966 0.25276506 -0.0744341
-0.112265 0.14790058 0.15200621 -0.057468697 -0.08159753 -0.13868138 0.22741713 0.1287935
-0.049428638 0.25580537 0.08020348 0.20994271 -0.077099554 -0.26013812 0.20254414 -0.07966949
0.20487414 0.25761098 0.17546478 -0.24655537 -0.13463242 0.20930122 0.07668898 0.16550122
0.08990868 -0.008716435 0.26185757 0.19082214 0.0014588261 -0.29137218 -0.06525937 0.07895392
-0.15840553 -0.20612125 -0.2546732 -0.15635014 0.10549244 -0.04537914 0.27493617 -0.33358333
0.09141866 0.22875032 -0.23318017 0.25705472 0.20896366 0.11165751 -0.078264765 -0.15421659
0.0930555 0.124482 0.21053013 -0.2098886 0.20399961 -0.13637343 -0.25390556 0.1983617
-0.21520321 -0.2547704 -0.18757448 -0.15666209 -0.23851423 0.051132396 -0.2218625 0.20929821
0.16576478 -0.07357871 0.0063656005 -0.017552754 0.19022392 -0.09147606 0.10291061 0.13141969
-0.0341157 -0.008332404 0.057894547 -0.022514211 0.053357378 -0.19452335 -0.14833407 0.050348483
0.18892156 0.14091511 -0.06518159 0.23188116 0.21391982 -0.18271416 0.12780768 0.11504644
-0.1058157 -0.17451146 0.10269261 -0.14958677 0.1652149 -0.09176905 -0.060815047 0.19059677
-0.14590783 0.16930664 0.1714107 0.17119768 -0.050613396 0.12621884 0.014564667 0.08962636
0.10294429 0.15990376 -0.12685551 -0.052665055 0.22721657 0.21723472 0.29044428 -0.20502882
0.18713744 0.17651512 -0.21690364 -0.20285127 0.011894186 0.26648012 0.033840813 0.13669102
-0.13164558 -0.20117442 0.010960092 -0.062610134 -0.18188173 -0.10896784 -0.17137653 0.020555194
-0.16466948 -0.07653037 -0.17725582 0.11334465 -0.22146137 0.2576542 -0.03982705 -0.0782198
0.0026960864 -0.22331806 0.0060294485 0.18719165 0.07418623 0.13804232 -0.02663006 0.06605464
0.19740003 0.16503869 -0.17527647 0.08691741 -0.17609048 -0.17972672 0.20303348 -0.1588253
0.13907242 -0.21094403 0.22275797 -0.06457516 -0.15561421 -0.0058628316 0.078575276 0.29273546
0.028384067 0.18638389 -0.1345183 0.102788106 -0.0010073463 -0.16821322 -0.12800288 -0.12317197
-0.027154727 -0.027831998 0.14400247 -0.05880863 -0.14795281 0.20171148 0.037477292 0.12894252
0.10931297 -0.14449511 -0.09785496 -0.1513396 0.082262754 0.08975041 0.1581653 0.008210922
0.013837714 0.20279865 0.17274754 -0.020647766 -0.15123332 0.13754378 0.043580037 0.11104705
0.042989615 0.23808628 0.018380322 -0.01811043 -0.10858092 -0.123609126 0.13212283 -0.09142041
0.20964755 0.03355353 -0.14519624 -0.012344712 -0.19249927 -0.1474836 0.08661229 0.13669688
0.0001878437 -0.119132765 0.084013686 0.10846186 0.20990798 -0.0028383068 -0.0004914863 0.020051097
0.034590513 0.14669123 0.1320257 0.11696614 0.13684562 -0.17294188 -0.19832352 0.18413596

graph_attn_module.gat_conv.att_dst f4 [1, 4, 100]
00000000: 1361 cabd 8f88 593e 0c6c 243e 4f96 48be
00000010: e3f7 20bd fd7b 713e 15dd f6bd cd29 ba3d
00000020: 06c5 05bd 30f6 ad3d 9331 143d 25ba 3d3e
00000030: ecba 393e e247 663d fdd2 ccbd 0ab0 42be
00000040: 35b0 973d 9f1c 39be cb70 ea3d 1489 6ebe
00000050: 5e65 993d 7b74 453e 1896 153e a020 2d3d
00000060: 0c1d 823d 75c5 693c 5847 5ebe 3c71 0c3d
00000070: 8e6d 4abe ca34 943d 83af 063e d4c0 343e
00000080: 41ca 553e 0ba3 2e3e b30a 843e 2a56 5d3e
00000090: 602a 5cbe 40cf 6abe 2737 56be 0011 013d
000000a0: 373e 963d dc87 1dbe 0b83 593d c482 43bd
000000b0: 48a2 dbbd 328d 58bd dd68 4a3c 6f44 013e
000000c0: 1e5a 453d f4d8 8bbd a831 cdbc f76a 29be
000000d0: 217b 51be dcdf 43bd 1bed 03be 82eb 62be
000000e0: 3c54 02be 3bb9 e03d 313c 0dbd a67d b4bd
000000f0: b812 5fbd 3ee7 a63c ac7c 8b3e 448f 8c3d
00000100: 6e69 1ebe c731 253e 3a34 48bd b4c4 b63d
00000110: b1e6 bebc b665 913e c7e6 853e 9fc4 49be
00000120: c95f 3d3e 2ac1 483d 8e75 653e 61fd 9cbd
00000130: 7be1 f0bd 90c1 d43d a579 1a3e efc5 3c3c
00000140: 49d7 dabd 2284 c83d ccd1 76be 775f b93d
00000150: ff51 ecbd 903f 5cbe bfb2 843e 607d 6ebe
00000160: fae7 743e cf17 2fbe 0ab4 c3bb 20b7 22be
00000170: 4ec2 783b 07b5 2bbe 95cc 873d c6a2 d83d
00000180: 9332 c1bc 4b29 3abe e6e1 88be 449c 6f3e
00000190: 617f 103e f000 78bd 8a02 40bd 0ddb 2c3e
000001a0: d0df 083d eff4 713d a461 c93d 934d df3d
000001b0: 53f8 0cbe 13d9 16be d34c b43c 0e32 6dbe
000001c0: cf79 e0bd 2624 9f3e 36fd 113e 2767 1ebe
000001d0: 8f56 693c 882f 5c3b f66c 5f3d ada5 763b
000001e0: e10c 6c3d a2e9 dbbd 0a40 f93d 9465 bc3c
000001f0: 4769 34be 1344 4abd 8f74 1bbe 2914 f83c
00000200: 052b b5bd 833a 9a3e 77f7 153e 2fa5 f5bc
00000210: 4b3a aabe 0a51 14be bae2 9d3d 85ce 51be
00000220: 5eb5 61be 2355 56be 3429 da3c 96d9 613e
00000230: 7b75 283e 0ed7 783e c956 98be 1bf5 863e
00000240: 423f 893e 7561 aabe e0fa 7a3e 3e5f a23d
00000250: 687c b0be d23f 91be b131 9bbe e968 fd3d
00000260: 9ec6 813e 66a2 b6bd ccbb 593c 091b c3bd
00000270: 22e0 9e3e dfa0 86be cae8 c53d 7a43 8f3e
00000280: 2210 babe ecba 21bc 7cf9 bebd f1c6 1ebe
00000290: 8b90 76be a251 9bbe 8b05 07be bb6a 4d3d
000002a0: 929e 4f3e bd6f 933e 6b8b 87be c4e1 d5bb
000002b0: 7bea 193e f383 8b3d 13b5 1d3e db72 5dbd
000002c0: 105c 443d 187a 733e e261 98bd cdf1 34be
000002d0: 551a 2b3e d56f da3c 3b49 1ebe 8635 073e
000002e0: 33f6 4c3e 6f36 dcbd d0fe 96bd 2eb6 0dbd
000002f0: 7e3f 1c3a cc17 32be e80c 033e 40b5 8dbe
00000300: 9b59 8ebe 0ade 9e3d 010f 85bd 8907 73be
00000310: 9c8a 64be 357a 8c3e 0398 383e e943 023e
00000320: 44d9 debd 28e5 14be 0c47 26be 2ced 423e
00000330: 8cba a8bc aee3 753d 14a4 2a3e 2935 f03d
00000340: d7da 70bd 03e2 233e bae0 de3c 6730 1e3e
00000350: 58c9 0fbd bcf9 40be 8013 40be d146 95bd
00000360: 4e77 883d aa81 373e 6e0b 853d b2ce fd3c
00000370: 88f2 dcbd 91d9 03bd c13c ba3b 39a0 c4bd
00000380: 739f 99be b2c9 40be c0fb 29be 3e21 03be
00000390: f8dc 443e 5a34 683d 148d 34bc 087b 023e
000003a0: 8b30 70be 67c1 5a3e a7ef 91bd 8d54 6fbe
000003b0: e091 843e 4a92 5fbe 0ba6 613e 3354 89be
000003c0: 3a6c 383d f59e 57be 22d7 203e 9961 663e
000003d0: 56d0 3c3e 1207 d43d 8345 28be a17f 54be
000003e0: eed1 b9bd bd6c 8fbe c18e 0c3e 72c4 543e
000003f0: a60c d33d 7b1b 8c3e ba04 84bc 168e bf3d
-0.09881797 0.21243499 0.16056842 -0.19588588 -0.039298903 0.23582454 -0.12053887 0.09090004
-0.0326586 0.08494222 0.03618009 0.1852804 0.18137711 0.056220897 -0.1000118 -0.19012466
0.07406656 -0.18077324 0.11447295 -0.23294479 0.074900374 0.19282715 0.14608037 0.04226744
0.063531965 0.014268269 -0.21706903 0.034287676 -0.19768354 0.07236631 0.1315289 0.17651683
0.20877935 0.17054383 0.25789413 0.216149 -0.2150054 -0.22930622 -0.20919476 0.031510353
0.07336085 -0.15383857 0.053103488 -0.04773213 -0.10724312 -0.05286903 0.012354103 0.12623762
0.048181646 -0.0682849 -0.025048092 -0.1654471 -0.20457126 -0.04782091 -0.12883417 -0.22160152
-0.12727445 0.1097283 -0.03448123 -0.08813028 -0.05446121 0.020373937 0.27243555 0.06863263
-0.15469906 0.1613227 -0.048877932 0.08924237 -0.023303362 0.28397912 0.26152632 -0.19703911
0.1849357 0.04901234 0.22408125 -0.07665516 -0.11761757 0.103884816 0.15085466 0.0115218
-0.10685594 0.09790827 -0.24103469 0.090514116 -0.11539077 -0.21508622 0.25917622 -0.23290014
0.23916617 -0.17098926 -0.00597239 -0.15890169 0.0037957611 -0.16768275 0.06630818 0.105779216
-0.023583686 -0.18179815 -0.26734847 0.23399454 0.14111091 -0.06054777 -0.04687742 0.16880436
0.03341657 0.059071478 0.098330766 0.10903468 -0.13766603 -0.14731245 0.022009289 -0.23163626
-0.10960733 0.31082267 0.14256749 -0.15469037 0.014241829 0.0033597667 0.054547273 0.0037635372
0.05762947 -0.10737921 0.121704176 0.022997655 -0.17618285 -0.049381327 -0.15181182 0.03028305
-0.08846096 0.30122766 0.14645182 -0.029985992 -0.332476 -0.14484039 0.0770926 -0.20488937
-0.22041842 -0.20930915 0.026630975 0.22055659 0.16451065 0.24300787 -0.29753712 0.26358876
0.26806074 -0.3327748 0.24509764 0.07928322 -0.34469914 -0.28369004 -0.3031135 0.12373526
0.25346845 -0.08917694 0.013289403 -0.09526641 0.31030375 -0.2629461 0.096635416 0.27981168
-0.36340433 -0.009871226 -0.09324929 -0.15505578 -0.24078576 -0.30335718 -0.13185708 0.050150614
0.20275334 0.28796187 -0.26473555 -0.0065271575 0.15030853 0.06812277 0.15401106 -0.054064613
0.04793936 0.23777044 -0.07440545 -0.17670365 0.16709264 0.026664654 -0.15457623 0.13204011
0.20015793 -0.1075257 -0.073728204 -0.03459757 0.0005960389 -0.1739189 0.12797892 -0.27677345
-0.2780274 0.07757194 -0.064970024 -0.23733343 -0.223185 0.27436987 0.18026738 0.12721218
-0.10881284 -0.14540541 -0.1623804 0.19035786 -0.020596765 0.060031585 0.16664153 0.117288895
-0.058802452 0.16004185 0.027206767 0.15448152 -0.035104126 -0.18845266 -0.18757439 -0.07288898
0.066633806 0.17920557 0.06496321 0.030982349 -0.10788447 -0.03218991 0.005683512 -0.096008725
-0.30004463 -0.1882694 -0.16599941 -0.1280565 0.19224918 0.05669055 -0.011019964 0.12742245
-0.23456018 0.2136284 -0.07125788 -0.23372097 0.25892544 -0.21833149 0.22035997 -0.2682205
0.045025088 -0.21056731 0.15707067 0.22498168 0.18438849 0.10352911 -0.16432767 -0.20751812
-0.09073244 -0.28012648 0.13726331 0.20778063 0.10305147 0.27364716 -0.016115535 0.093532726

graph_attn_module.gat_conv.bias f4 [100]
00000000: e307 3b3c c995 05bb d46a 7dbb d0a0 9eb9
00000010: 10cc 6abb 1304 81bb 2fb8 213c 1aaa 433c
00000020: 7eb6 27bb d65d acbb 5176 9cbb 1f5b 483b
00000030: c922 203c 994d b03c 12c3 373c 474f 2d3c
00000040: cae2 aeb8 9f8b 03bc e60a dabb 3bd8 c2bb
00000050: 91b2 0abc d770 3fba 92bc 6fbb be4b e53b
00000060: 0294 6d3b 04d1 1abc 7255 da3b b14c 693c
00000070: ffe3 003c 5420 933b 77a6 dc3c 7b86 443c
00000080: dfd9 c73c b26e 053d 940b 2b3d 4d64 d03c
00000090: fda5 dc3c 366c c63b 7bcd d13b 6917 d73b
000000a0: 5071 873c 64bc ce3b 5e4d 183b f202 bc3a
000000b0: 09f0 823a 377c c73b 9c47 cebb 05d0 6d3c
000000c0: d25b 383c d76d 8d3c 2dfb 3a3c 8d51 973c
000000d0: 6aa4 63bc bc2b 8b3b 9e33 e5bb 051a c43c
000000e0: 974e 93bc 0000 0000 0000 0000 0000 0000
000000f0: 0000 0000 0000 0000 0000 0000 0000 0000
00000100: 0000 0000 0000 0000 0000 0000 0000 0000
00000110: 0000 0000 0000 0000 0000 0000 0000 0000
00000120: 0000 0000 0000 0000 0000 0000 0000 0000
00000130: 0000 0000 0000 0000 0000 0000 0000 0000
00000140: 0000 0000 0000 0000 0000 0000 0000 0000
00000150: 0000 0000 0000 0000 0000 0000 0000 0000
00000160: 0000 0000 0000 0000 0000 0000 0000 0000
00000170: 0000 0000 0000 0000 0000 0000 0000 0000
00000180: 0000 0000 0000 0000 0000 0000 0000 0000
0.011415455 -0.0020383468 -0.003866841 -0.00030255923 -0.0035827197 -0.0039372533 0.009870573 0.011942411
-0.0025590952 -0.0052602096 -0.0047748466 0.003057189 0.009773918 0.021521376 0.011215942 0.010577983
-8.339209e-05 -0.008028894 -0.006654131 -0.005946187 -0.008465425 -0.0007302886 -0.0036580903 0.0069975546
0.003625155 -0.009449247 0.006663018 0.014239476 0.0078668585 0.004489938 0.026934845 0.011994953
0.024395881 0.03257627 0.04175909 0.025438452 0.026934618 0.00605538 0.006402669 0.00656407
0.016533524 0.006309079 0.0023239474 0.001434414 0.0009989749 0.0060878056 -0.0062951576 0.014514928
0.01125236 0.01726429 0.011412424 0.018471504 -0.01389418 0.004247157 -0.0069946786 0.023938188
-0.01798181 0.0 0.0 0.0 0.0 0.0 0.0 0.0
0.0 0.0 0.0 0.0 0.0 0.0 0.0 0.0
0.0 0.0 0.0 0.0 0.0 0.0 0.0 0.0
0.0 0.0 0.0 0.0 0.0 0.0 0.0 0.0
0.0 0.0 0.0 0.0 0.0 0.0 0.0 0.0
0.0 0.0 0.0 0.0

graph_attn_module.gat_conv.lin_src.weight f4 [400, 100]
00000000: dd27 60bd 8e89 57bc 9efc 14bd 180c 933d
00000010: 5e95 163c 8e20 c2bc 3fc1 91bd 4915 f83d
00000020: 3aa9 543d d4a8 0a3d fffd a8bc 5a12 9e3b
00000030: bec3 8d3d 657a 6cbc 5e33 a63d eb41 753d
00000040: 98f3 763d 5482 0ebd ba65 e23d 78bd 0e3c
00000050: 665c 6cbc 5341 09bd f27a 763d eddd 013c
00000060: 6151 f4bc 5ced 463d 7c2d 8ebd 4269 843d
00000070: bbc4 7a3d 2a15 2f3d 53e7 6d3c e466 403d
00000080: 074b edbc ca00 20bd 8473 1abc 1fd4 4bbd
00000090: 51f0 fd3d 4e13 943d 7d79 e8bd 1cb1 a2bc
000000a0: 84e0 94bc a89c 3abd fa13 2e3d 5982 063d
000000b0: f726 76bd 2977 593d e6ef 9c3d 5ce2 df3c
000000c0: 4471 86b9 d1f1 92bd 3319 043e e39b 923c
000000d0: 9001 22bd 0b34 b33d c799 b9bc 3139 d3bd
000000e0: a636 733d c54a 8bbd d1f4 bb3d a89e d83d
000000f0: 6254 ce3d 01e1 f83c 73b9 633c 037e 803d
00000100: 38cf fb3b db7a 293d fabf bebd fe1f 27bd
00000110: e382 b9bd 014e 813d eeff 9bbd 87c4 96bd
00000120: 4ed1 2f3d f533 c33c e2ef 61bd 2b58 263d
00000130: 88a3 a83d cef6 d63c 5e43 bf3d 17e5 b1bd
00000140: 8d42 51bb b3bd 7fbd b989 693c 80e8 3ebd
00000150: cf16 993d f0c7 54bd e8ef 6fbc 834e 2d3c
00000160: 2663 a1bc a45c 81bd 091c c43d bd38 a3bd
00000170: 37c9 083b f53c 05bd 05c0 8e3c 2f89 02bd
00000180: 0760 d53d c083 19bb 37ad babd be0f 993d
00000190: 653b c13c dec3 eb3d a692 983d 471c 5c3c
000001a0: ac7a e1bd 9d99 853d 6943 943d bed4 88bd
000001b0: 50c8 993d 421a f53d 2684 d03d fbc9 09bd
000001c0: 4103 993c 0915 9f3d f450 043c b8ca adbd
000001d0: ecf9 69bd 4fc2 76bd 39a7 7ebd 1ded 7dbc
000001e0: 8932 c4bb 54fc 453d 5341 223d d4e2 e9bd
000001f0: 4f60 2cbd 8925 01be c686 47bc 2550 8abd
00000200: 12da 2e3d b656 e13c 69c5 fabd bb09 b8bd
00000210: 6012 723d 0a6e 8fbd c457 a1bd dba3 b33c
00000220: 4df6 013c ac4c b5bc a7a0 87bd 8a6a 6abd
00000230: 2b8d e1bd 8de0 fabd 4e3a 19bd 328b 843d
00000240: d023 53bd b1c8 2abd 8c20 ad3d 6c52 8e3d
00000250: 679c 283d 6d3f 1dbd 2278 b33d 2f83 ba3d
00000260: 9a19 6dba 2a82 f1bd 75f9 1a3d 58bc 94bd
00000270: 56e4 69bd 0f51 99bd 5e1a e0bd a3e5 13bd
00000280: c348 37bc 87c2 0e3d bc6e cebc 09b2 063c
00000290: 92a5 5e3d 41f4 7d3c 734c b33d 4d4a b3bd
000002a0: a83b e1bc 33ef acbd d0fa c63d c61b 0cbd
000002b0: be7e 30bd 8a8e a3b9 8cf2 d1bd 73f8 dbba
000002c0: 54bb c83c eee0 4d3b f48b a13c 7062 44bd
000002d0: f8f4 813d df2a 73bd 4ffd 893d 452b 693d
000002e0: 67f0 7cbd ceb5 3dbd 441e 113c d53f 803c
000002f0: bcd1 873d c59a bcbd 9e98 39bd ba1c 303d
00000300: a029 9bbd 486e d63d 8ab9 1cbd 3857 af3d
00000310: fc3e 6bbd d090 9ebb 7171 a43d 90d2 ca3c
00000320: d021 6f3c 3b5d aab9 f45a babc 4430 5b3d
00000330: fe8c 9b3b 0ba2 4d3d 4688 a3bd 4da5 e33b
00000340: 02ba dfbd 2fac ccbd 4b36 02bc 9046 f3bc
00000350: 6425 7f3d 71c5 c73c d4fd c1bd 40cb 5fbc
00000360: e1f3 bf3c ca6a 32bd 9402 c9bd f1c7 243d
00000370: 0b1b 993d c894 c93b 3493 59bd 6070 f6bb
00000380: 7b6d 283b b136 723d ef2d f4bd 4791 933d
00000390: f41e 30bd 19ab c1bd 75d5 803d fe4d 2d3d
000003a0: 4cf4 e4bd 9e44 99bd 8f1b 8abd 9659 963d
000003b0: fdd7 d6bd 9e6c 963c 1164 90bc 7fff 863c
000003c0: dc2c 123d f488 98bd 6b8b 06bd b983 433d
000003d0: 992a 193a 736d bc3d cab7 a9bd fdea 4ebd
000003e0: 2049 84bc 4ff1 3fbd 30cd ed3c 1594 90bc
000003f0: 4386 f8bc cfb7 c8bd 658f 95bd dfb2 a53d
-0.054725517 -0.013155354 -0.036373727 0.07180041 0.009190885 -0.023697164 -0.07116937 0.12113435
0.0519192 0.033852413 -0.020628927 0.004823965 0.069221005 -0.014433478 0.08115266 0.059877317
0.060290903 -0.03479226 0.11054559 0.008712165 -0.014426326 -0.033509564 0.060175844 0.007926446
-0.02982396 0.048566207 -0.06942269 0.06465389 0.061222773 0.042744793 0.014520484 0.046973124
-0.02896644 -0.039063253 -0.009426955 -0.04976284 0.12399352 0.072302446 -0.11351297 -0.019859843
-0.018173464 -0.045559555 0.04249952 0.032839153 -0.060095754 0.053092156 0.076629445 0.027329616
-0.0002564286 -0.07175029 0.12900238 0.017896598 -0.03955227 0.08750161 -0.022656335 -0.10313643
0.05937829 -0.068013705 0.091775544 0.10577136 0.100746885 0.030380728 0.013899195 0.06274035
0.0076846145 0.04137693 -0.093139604 -0.040801995 -0.09058168 0.06313706 -0.07617174 -0.07361703
0.042924218 0.023828486 -0.05516041 0.040611427 0.08234316 0.026240733 0.09339021 -0.086862735
-0.0031930536 -0.06243677 0.014254027 -0.046608448 0.074750535 -0.051948488 -0.0146446 0.010577801
-0.019700598 -0.06316498 0.0957566 -0.07969806 0.0020871887 -0.032528836 0.017425546 -0.03186911
0.104187064 -0.0023424476 -0.09115069 0.07473706 0.023587892 0.11511968 0.07449846 0.013434476
-0.11009726 0.0652344 0.0723942 -0.06681202 0.0750891 0.11967899 0.10181455 -0.03363989
0.01867831 0.07767684 0.008075941 -0.08485931 -0.05712311 -0.0602439 -0.062171195 -0.015498427
-0.0059874696 0.048336342 0.03961308 -0.11420217 -0.042084035 -0.12611975 -0.012178129 -0.067535676
0.042688437 0.027507167 -0.12244684 -0.08986231 0.059099555 -0.0700341 -0.07878068 0.021928718
0.007932258 -0.022131287 -0.06622439 -0.05723051 -0.11013254 -0.12249861 -0.03740912 0.06471862
-0.051547825 -0.0416953 0.084534734 0.069493145 0.041164782 -0.038390566 0.08763148 0.091070525
-0.00090446474 -0.11792405 0.037835557 -0.07262486 -0.057102524 -0.07486164 -0.10942529 -0.03610767
-0.011186781 0.034853484 -0.025199287 0.008221158 0.05435712 0.015500129 0.08754816 -0.08754406
-0.027494267 -0.08444061 0.097158074 -0.034206174 -0.04308962 -0.00031195983 -0.1025134 -0.0016782418
0.024503388 0.0031414586 0.019720055 -0.04794544 0.06345552 -0.059367057 0.06737768 0.05692603
-0.061752703 -0.04631596 0.008857314 0.015655437 0.066318005 -0.092092074 -0.045311563 0.042996146
-0.07576299 0.10470253 -0.03826288 0.085615575 -0.057433113 -0.0048390403 0.0802945 0.024758607
0.014595464 -0.0003249439 -0.022748448 0.053512827 0.004747032 0.050203364 -0.079849765 0.0069471956
-0.1092415 -0.09993779 -0.007947515 -0.029696733 0.062291518 0.02438614 -0.09472242 -0.013659298
0.02343172 -0.043558873 -0.09814945 0.04022974 0.07475861 0.0061517693 -0.0531189 -0.0075207204
0.002570002 0.05913419 -0.11922824 0.07205444 -0.04299827 -0.094564624 0.06290714 0.042310707
-0.111794084 -0.07483791 -0.06743538 0.07341306 -0.10490415 0.01836234 -0.01762584 0.016479252
0.035687312 -0.07447997 -0.032847803 0.047733042 0.00058428344 0.09200563 -0.08287008 -0.05051707
-0.01614815 -0.04686099 0.029028505 -0.017648736 -0.030337458 -0.09800684 -0.07302741 0.080907576

graph_attn_module.gat_conv.lin_dst.weight f4 [400, 100]
00000000: dd27 60bd 8e89 57bc 9efc 14bd 180c 933d
00000010: 5e95 163c 8e20 c2bc 3fc1 91bd 4915 f83d
00000020: 3aa9 543d d4a8 0a3d fffd a8bc 5a12 9e3b
00000030: bec3 8d3d 657a 6cbc 5e33 a63d eb41 753d
00000040: 98f3 763d 5482 0ebd ba65 e23d 78bd 0e3c
00000050: 665c 6cbc 5341 09bd f27a 763d eddd 013c
00000060: 6151 f4bc 5ced 463d 7c2d 8ebd 4269 843d
00000070: bbc4 7a3d 2a15 2f3d 53e7 6d3c e466 403d
00000080: 074b edbc ca00 20bd 8473 1abc 1fd4 4bbd
00000090: 51f0 fd3d 4e13 943d 7d79 e8bd 1cb1 a2bc
000000a0: 84e0 94bc a89c 3abd fa13 2e3d 5982 063d
000000b0: f726 76bd 2977 593d e6ef 9c3d 5ce2 df3c
000000c0: 4471 86b9 d1f1 92bd 3319 043e e39b 923c
000000d0: 9001 22bd 0b34 b33d c799 b9bc 3139 d3bd
000000e0: a636 733d c54a 8bbd d1f4 bb3d a89e d83d
000000f0: 6254 ce3d 01e1 f83c 73b9 633c 037e 803d
00000100: 38cf fb3b db7a 293d fabf bebd fe1f 27bd
00000110: e382 b9bd 014e 813d eeff 9bbd 87c4 96bd
00000120: 4ed1 2f3d f533 c33c e2ef 61bd 2b58 263d
00000130: 88a3 a83d cef6 d63c 5e43 bf3d 17e5 b1bd
00000140: 8d42 51bb b3bd 7fbd b989 693c 80e8 3ebd
00000150: cf16 993d f0c7 54bd e8ef 6fbc 834e 2d3c
00000160: 2663 a1bc a45c 81bd 091c c43d bd38 a3bd
00000170: 37c9 083b f53c 05bd 05c0 8e3c 2f89 02bd
00000180: 0760 d53d c083 19bb 37ad babd be0f 993d
00000190: 653b c13c dec3 eb3d a692 983d 471c 5c3c
000001a0: ac7a e1bd 9d99 853d 6943 943d bed4 88bd
000001b0: 50c8 993d 421a f53d 2684 d03d fbc9 09bd
000001c0: 4103 993c 0915 9f3d f450 043c b8ca adbd
000001d0: ecf9 69bd 4fc2 76bd 39a7 7ebd 1ded 7dbc
000001e0: 8932 c4bb 54fc 453d 5341 223d d4e2 e9bd
000001f0: 4f60 2cbd 8925 01be c686 47bc 2550 8abd
00000200: 12da 2e3d b656 e13c 69c5 fabd bb09 b8bd
00000210: 6012 723d 0a6e 8fbd c457 a1bd dba3 b33c
00000220: 4df6 013c ac4c b5bc a7a0 87bd 8a6a 6abd
00000230: 2b8d e1bd 8de0 fabd 4e3a 19bd 328b 843d
00000240: d023 53bd b1c8 2abd 8c20 ad3d 6c52 8e3d
00000250: 679c 283d 6d3f 1dbd 2278 b33d 2f83 ba3d
00000260: 9a19 6dba 2a82 f1bd 75f9 1a3d 58bc 94bd
00000270: 56e4 69bd 0f51 99bd 5e1a e0bd a3e5 13bd
00000280: c348 37bc 87c2 0e3d bc6e cebc 09b2 063c
00000290: 92a5 5e3d 41f4 7d3c 734c b33d 4d4a b3bd
000002a0: a83b e1bc 33ef acbd d0fa c63d c61b 0cbd
000002b0: be7e 30bd 8a8e a3b9 8cf2 d1bd 73f8 dbba
000002c0: 54bb c83c eee0 4d3b f48b a13c 7062 44bd
000002d0: f8f4 813d df2a 73bd 4ffd 893d 452b 693d
000002e0: 67f0 7cbd ceb5 3dbd 441e 113c d53f 803c
000002f0: bcd1 873d c59a bcbd 9e98 39bd ba1c 303d
00000300: a029 9bbd 486e d63d 8ab9 1cbd 3857 af3d
00000310: fc3e 6bbd d090 9ebb 7171 a43d 90d2 ca3c
00000320: d021 6f3c 3b5d aab9 f45a babc 4430 5b3d
00000330: fe8c 9b3b 0ba2 4d3d 4688 a3bd 4da5 e33b
00000340: 02ba dfbd 2fac ccbd 4b36 02bc 9046 f3bc
00000350: 6425 7f3d 71c5 c73c d4fd c1bd 40cb 5fbc
00000360: e1f3 bf3c ca6a 32bd 9402 c9bd f1c7 243d
00000370: 0b1b 993d c894 c93b 3493 59bd 6070 f6bb
00000380: 7b6d 283b b136 723d ef2d f4bd 4791 933d
00000390: f41e 30bd 19ab c1bd 75d5 803d fe4d 2d3d
000003a0: 4cf4 e4bd 9e44 99bd 8f1b 8abd 9659 963d
000003b0: fdd7 d6bd 9e6c 963c 1164 90bc 7fff 863c
000003c0: dc2c 123d f488 98bd 6b8b 06bd b983 433d
000003d0: 992a 193a 736d bc3d cab7 a9bd fdea 4ebd
000003e0: 2049 84bc 4ff1 3fbd 30cd ed3c 1594 90bc
000003f0: 4386 f8bc cfb7 c8bd 658f 95bd dfb2 a53d
-0.054725517 -0.013155354 -0.036373727 0.07180041 0.009190885 -0.023697164 -0.07116937 0.12113435
0.0519192 0.033852413 -0.020628927 0.004823965 0.069221005 -0.014433478 0.08115266 0.059877317
0.060290903 -0.03479226 0.11054559 0.008712165 -0.014426326 -0.033509564 0.060175844 0.007926446
-0.02982396 0.048566207 -0.06942269 0.06465389 0.061222773 0.042744793 0.014520484 0.046973124
-0.02896644 -0.039063253 -0.009426955 -0.04976284 0.12399352 0.072302446 -0.11351297 -0.019859843
-0.018173464 -0.045559555 0.04249952 0.032839153 -0.060095754 0.053092156 0.076629445 0.027329616
-0.0002564286 -0.07175029 0.12900238 0.017896598 -0.03955227 0.08750161 -0.022656335 -0.10313643
0.05937829 -0.068013705 0.091775544 0.10577136 0.100746885 0.030380728 0.013899195 0.06274035
0.0076846145 0.04137693 -0.093139604 -0.040801995 -0.09058168 0.06313706 -0.07617174 -0.07361703
0.042924218 0.023828486 -0.05516041 0.040611427 0.08234316 0.026240733 0.09339021 -0.086862735
-0.0031930536 -0.06243677 0.014254027 -0.046608448 0.074750535 -0.051948488 -0.0146446 0.010577801
-0.019700598 -0.06316498 0.0957566 -0.07969806 0.0020871887 -0.032528836 0.017425546 -0.03186911
0.104187064 -0.0023424476 -0.09115069 0.07473706 0.023587892 0.11511968 0.07449846 0.013434476
-0.11009726 0.0652344 0.0723942 -0.06681202 0.0750891 0.11967899 0.10181455 -0.03363989
0.01867831 0.07767684 0.008075941 -0.08485931 -0.05712311 -0.0602439 -0.062171195 -0.015498427
-0.0059874696 0.048336342 0.03961308 -0.11420217 -0.042084035 -0.12611975 -0.012178129 -0.067535676
0.042688437 0.027507167 -0.12244684 -0.08986231 0.059099555 -0.0700341 -0.07878068 0.021928718
0.007932258 -0.022131287 -0.06622439 -0.05723051 -0.11013254 -0.12249861 -0.03740912 0.06471862
-0.051547825 -0.0416953 0.084534734 0.069493145 0.041164782 -0.038390566 0.08763148 0.091070525
-0.00090446474 -0.11792405 0.037835557 -0.07262486 -0.057102524 -0.07486164 -0.10942529 -0.03610767
-0.011186781 0.034853484 -0.025199287 0.008221158 0.05435712 0.015500129 0.08754816 -0.08754406
-0.027494267 -0.08444061 0.097158074 -0.034206174 -0.04308962 -0.00031195983 -0.1025134 -0.0016782418
0.024503388 0.0031414586 0.019720055 -0.04794544 0.06345552 -0.059367057 0.06737768 0.05692603
-0.061752703 -0.04631596 0.008857314 0.015655437 0.066318005 -0.092092074 -0.045311563 0.042996146
-0.07576299 0.10470253 -0.03826288 0.085615575 -0.057433113 -0.0048390403 0.0802945 0.024758607
0.014595464 -0.0003249439 -0.022748448 0.053512827 0.004747032 0.050203364 -0.079849765 0.0069471956
-0.1092415 -0.09993779 -0.007947515 -0.029696733 0.062291518 0.02438614 -0.09472242 -0.013659298
0.02343172 -0.043558873 -0.09814945 0.04022974 0.07475861 0.0061517693 -0.0531189 -0.0075207204
0.002570002 0.05913419 -0.11922824 0.07205444 -0.04299827 -0.094564624 0.06290714 0.042310707
-0.111794084 -0.07483791 -0.06743538 0.07341306 -0.10490415 0.01836234 -0.01762584 0.016479252
0.035687312 -0.07447997 -0.032847803 0.047733042 0.00058428344 0.09200563 -0.08287008 -0.05051707
-0.01614815 -0.04686099 0.029028505 -0.017648736 -0.030337458 -0.09800684 -0.07302741 0.080907576

attention_module.W.weight f4 [64, 512]
00000000: 6767 55bd b89b 243d 74d2 d8bc b4c8 a83c
00000010: aef8 1e3c 2eb6 b2bc 5337 b73c f3f9 c23c
00000020: b596 c2bc 8305 0b3d f39e 2bbd 390c d63c
00000030: a4b3 52bd 47b4 29bd 0cfb 31bc a7de 1dbc
00000040: 784d 9a3a 04d2 32bd 4a47 e13c 8d50 57bd
00000050: 2220 403c aef9 e238 8bfe 7ebc c072 cfbc
00000060: cd36 0e3b 1dac dabc ff6e a33c bf1c db3c
00000070: 9f1e f7bc cd3a 1d3c 9d30 873c 7ec7 eb3c
00000080: 13a9 32bd d6e9 efbc 8986 db3c 1499 d63c
00000090: cbb2 0f3b c484 ab3c 770d 153d 3a10 25bd
000000a0: 69e0 22bd 758f 76bd 62cf e93c e44f b0bc
000000b0: 2285 f53c e8d1 06bc 02e7 3b3b 7e70 27bc
000000c0: 05bf 26bc ffa2 d13c e5fd 29bd fd38 183d
000000d0: 114f 263c f85e 31bd dfa4 10bc 7763 0cbd
000000e0: 83a9 52bb 69ac 783b 3cec a03c 41d8 f6bc
000000f0: cfbe cdba 37e7 633c 1152 c83c 7800 7d3c
00000100: 556a e83a 8798 a5ba c4ce 9f3b 44c6 d63c
00000110: b9ca 803c 6fc9 543d 79cd 9ebc a7ae 1bbd
00000120: 3003 8abc a355 243d d9e1 c4bc 9573 01bd
00000130: 6e2b 6ebc 61ed da3c 1ef8 abbb 0b00 2fbd
00000140: 793c 6fbd 401a 003d bf2d abbc 8b3f 39bd
00000150: 79e7 253d 05b0 04bd a7cc 20bd cb62 7ebd
00000160: 9bc2 7dbc 855d 66bd 3e80 d0bc f296 2a3d
00000170: 5834 f0bc a3be 19bc c585 e13c e8e3 f93c
00000180: b6c7 e7bc 15ea 223d b069 07bd bb29 c8bc
00000190: bae4 043b cda1 a93b 5d14 76bc 70e6 81bc
000001a0: bf7f cd3c 0552 4bbd 2514 29bc 716b 1a3d
000001b0: 55a6 0d3d 4b86 f7bc 237d b63b f84f 04bb
000001c0: 017c 00bd 51f3 16bd b64d 053d 4ddd ddbc
000001d0: 7461 103d 4acf 1dbc 87a6 2c3d 2807 5a3c
000001e0: 931e d63c 3ef1 61bb a6fe 18bd 3717 023c
000001f0: 2fd9 ef3b 6b9e 27bd da66 f43c a5b5 773b
00000200: 1012 15bd 220c 52bc 58a8 20bd c585 033d
00000210: 99a1 eb3b 93c4 403d 379f 18bd 3e1c 3bbd
00000220: e6a5 033d 180d db3c 09b9 1ebd b243 f03b
00000230: 9062 0abd 027b 18bd cf9f fb3c cb3d 2f3d
00000240: 6fc7 74bd cc57 9ebc 8d50 f1bc 7df9 94ba
00000250: c4ae 363d 9b12 bf3c 614d 4cbd b214 b53c
00000260: f841 e33b 84e4 9bbc c729 17bd b3d1 01bd
00000270: 8efd a63c d430 c63c 020a b93c dbb5 9b3a
00000280: 028b bbba 6cb0 023d a3e8 e03c 5008 da3c
00000290: 63a6 1ebc 22cd d7bb ffb7 0bbc a0db 593c
000002a0: 1f1f e03c 18bf 143d 8e35 14bd dc2c 7d3b
000002b0: 27cf 14bd 7b09 33bc d89e 053d aabb a0ba
000002c0: 9046 a83c fa42 d7bc 68b1 9fbc 7c51 6e3c
000002d0: 88c0 13bd 45bc 08bd 34d1 0f3d b3c1 fcba
000002e0: bd83 8abc 1111 b63b 7292 e4bc 86e9 b13c
000002f0: 0fee b1bb 7631 8dbc 3218 eebb 3666 d43c
00000300: 40f4 7b3b 04f8 3e3d 4408 673c 14d9 52bd
00000310: 4391 0a3d 7f9e bd3c 55ad 0c3c 8875 65bc
00000320: cf8f 1e3c 94d1 20bd a332 e2bc 32b9 71bc
00000330: da7e 77bb 2680 0dbc 7014 173d 3cbd 0fbd
00000340: 4438 173c 25cd febc 63dc f8bc 592c a4bc
00000350: a5b9 8f3c 7c63 3ebd 24b5 bdbc 1376 52bd
00000360: 1fbd 09bd b648 a6bc 4742 49bc c4aa 4fbc
00000370: b1da 91bc 5050 49bd a23d 37bd f133 6fbc
00000380: a149 5f3b 63c1 02bd 85bb 4c3c 480f 0abd
00000390: 78e1 f83c d522 9abc 210f b83c 6b7a 673c
000003a0: 0fea 0abd de68 fa3b 8def 033d c199 fb3c
000003b0: 964c ddbc e852 d5bc 9969 a63b 18dd db3c
000003c0: f227 a1bc 0153 48bd d9eb 55bc dc13 69bc
000003d0: 6b36 333c ae4c 18bd 4b7b ee3c befe e83a
000003e0: b962 bc3c 6aed 40bb 5699 00bd 4055 23bc
000003f0: c25d 7a3b c752 48bd a774 a1bb 4c63 02bd
-0.052100565 0.040187567 -0.02646754 0.020603515 0.009702845 -0.021815386 0.022365248 0.023800826
-0.023753503 0.033940803 -0.041899633 0.026128875 -0.05144085 -0.04143169 -0.010863077 -0.009635604
0.0011772355 -0.043657318 0.027499814 -0.052567054 0.011726411 0.00010823026 -0.015563617 -0.025323272
0.0021700144 -0.026693398 0.019950388 0.026747106 -0.030165968 0.009596539 0.016502673 0.028781649
-0.043618273 -0.029286306 0.02679755 0.02619604 0.0021926637 0.020937331 0.036389794 -0.040298678
-0.039764795 -0.060195405 0.02854127 -0.02152247 0.02997071 -0.0082287565 0.0028671627 -0.010219691
-0.010177379 0.025590418 -0.0415019 0.037163723 0.010150687 -0.04330346 -0.008828371 -0.034274545
-0.0032144494 0.0037944561 0.019643895 -0.030132415 -0.0015697124 0.013910106 0.024453195 0.015442006
0.0017731885 -0.0012633958 0.0048769433 0.026217587 0.015721666 0.051949915 -0.019385086 -0.03800836
-0.016847223 0.040120732 -0.024033474 -0.03160437 -0.014536722 0.02672452 -0.0052480837 -0.04272465
-0.05840728 0.031275034 -0.020895837 -0.045226615 0.040503953 -0.032394428 -0.03925767 -0.062105935
-0.015488292 -0.05624153 -0.025451776 0.04164786 -0.029321834 -0.00938383 0.027529607 0.030504182
-0.028293472 0.03977402 -0.033059776 -0.024433961 0.0020277933 0.005176759 -0.015019503 -0.015856951
0.025085328 -0.049638767 -0.010319744 0.03770012 0.034582455 -0.030215403 0.0055691167 -0.0020189267
-0.03136826 -0.03685314 0.032544814 -0.027083063 0.03524919 -0.009631941 0.042151 0.01330737
0.026137626 -0.0034476067 -0.037352227 0.007940105 0.0073195915 -0.040922564 0.0298342 0.0037797478
-0.03639418 -0.0128202755 -0.039223045 0.032109994 0.007190895 0.047062468 -0.037261214 -0.04568123
0.032140635 0.026739642 -0.038750682 0.0073322887 -0.033785403 -0.037226684 0.030715851 0.04278354
-0.059760507 -0.019328974 -0.029457355 -0.0011365857 0.044600263 0.023324301 -0.04987848 0.022104595
0.0069353543 -0.019029863 -0.036905076 -0.031694125 0.020384576 0.024193205 0.02258778 0.0011879759
-0.0014308395 0.03190653 0.02745468 0.026615292 -0.009683224 -0.006585733 -0.008527755 0.013296992
0.02735859 0.036315054 -0.036183886 0.0038631475 -0.03633037 -0.010927553 0.03262219 -0.001226296
0.02054146 -0.026277054 -0.019493774 0.014545795 -0.036072284 -0.033382673 0.03511162 -0.0019283801
-0.01690852 0.0055562337 -0.027901862 0.021717798 -0.00542999 -0.017235499 -0.007266068 0.025927644
0.0038445145 0.046623245 0.014101092 -0.051476553 0.03382994 0.023146866 0.008586247 -0.014005072
0.009677841 -0.03926237 -0.027612036 -0.014753627 -0.0037764818 -0.00863651 0.036884725 -0.035092577
0.009229723 -0.03110368 -0.030378526 -0.020040678 0.017544577 -0.046481594 -0.023157664 -0.051382136
-0.033627626 -0.020298343 -0.012283868 -0.012674991 -0.017804476 -0.049148858 -0.044736512 -0.014599786
0.0034070986 -0.03192271 0.01249588 -0.03370598 0.03038095 -0.018815437 0.022468152 0.014128308
-0.033914622 0.0076418957 0.032210875 0.030712964 -0.027014058 -0.02604051 0.005078506 0.026838824
-0.019672368 -0.048907284 -0.013056719 -0.014225926 0.010938267 -0.037182502 0.029111525 0.0017776114
0.022996293 -0.0029438385 -0.031396233 -0.009969056 0.0038202857 -0.048907068 -0.004927236 -0.031832978

attention_module.W.bias f4 [64]
00000000: 4338 a6bc 99fd 35bd 147c 283c cba8 c8bb
00000010: 2926 f73c 91b9 64bc 2858 9abc e4f2 203c
00000020: 4076 84bc 4830 26bb 9e05 403d 3184 f5bc
00000030: bd2d dd3c fd5b e138 37f4 fd39 2657 d4bc
00000040: 090c 4b3c 8de2 5f3c d691 6a3c 5bb4 30bd
00000050: dbe3 77bc 1a05 14bc e900 16bd c9f5 a73b
00000060: d9c9 89bc 7a4f efbc 08df 9bbc 4e2a 36bc
00000070: f24b 8dbc 4cf7 68bb 5fc2 31bd 1cae 4b3c
00000080: a4fb 8ebc 2fea 6c3c 1ae6 f23c b201 67bc
00000090: 561b a8bc 8fb9 9e3c eb41 df3c 712f 903c
000000a0: 0116 223d c309 fe3c 0863 48bd 1716 0dbc
000000b0: 1262 47bd 4d8a 343d 8226 893c e9a5 803c
000000c0: cab8 81bc 91dc 53bc 1296 113b b841 163d
000000d0: e81a 583d 74c7 933c 1a8a aa3c 886d 5a3b
000000e0: dacb 653b e7d4 053d eb4a 1e3d 1988 393d
000000f0: 70d4 c0b8 4007 0abd 0d56 313d 626b 52bd
-0.0202905 -0.044431303 0.010283489 -0.0061236373 0.030169563 -0.013960258 -0.018840864 0.009823535
-0.016169667 -0.0025358368 0.046880357 -0.02997026 0.026999349 0.0001074597 0.00048437875 -0.025920462
0.012393006 0.013664854 0.014316997 -0.04314075 -0.015130009 -0.009034419 -0.03662196 0.0051257354
-0.016819881 -0.029212702 -0.019027248 -0.011118485 -0.017248128 -0.003554779 -0.043398257 0.012431648
-0.017453976 0.014460131 0.029650737 -0.014099525 -0.020520847 0.01937559 0.027253112 0.017600747
0.039571766 0.031010514 -0.04892257 -0.008611224 -0.04867751 0.044077206 0.016741995 0.015704112
-0.015835185 -0.012931005 0.0022214693 0.036683768 0.052760035 0.018039443 0.020817805 0.0033329446
0.0035064132 0.032673743 0.038645666 0.04529581 -9.194843e-05 -0.03369832 0.043294955 -0.05137194

attention_module.h.weight f4 [1, 64]
00000000: bda6 aebb e357 5ebd bf93 123d 6e11 ce3c
00000010: ae3e ee3c 1bca 46bd 116a d7bc 3f0a 0cbe
00000020: 287d 51bc ffa3 e03d c2aa c3bd 8768 f3ba
00000030: 1ca2 f63d 8195 c8bc 3808 283d 7aad e4bd
00000040: aff1 453d ce93 41bd 57ce 9d3d e7a7 bd3c
00000050: c2f3 2e3d f8a9 0bbe a153 3bbd d1b4 273b
00000060: ee2b ecbd f61d d33c 4728 a03b d728 e4bd
00000070: 6d19 e23d 7349 693d 2e66 7f3d e975 07bd
00000080: 916b 413d 2712 c6bd 4be8 e73d 81f9 aabd
00000090: 2f26 823d 330b b7bd 7d24 a53d cac8 94bd
000000a0: 1dd7 4bbc e968 10be fab5 403d 67c9 f43c
000000b0: 7df5 9fbd 6b78 e73d 2050 ae3d 3f5a b4bd
000000c0: 8d3b 913d 2ac5 903d b5a5 91bd d1ab f93c
000000d0: 3e43 adbd 7331 dcbc aef5 2b3d 82fc 6c3d
000000e0: d3d2 1d3d 08de 5d3d df6b 97bc 18ca f23d
000000f0: aacb 14be 81e5 5ebd c7a4 a33d d830 04be
-0.0053299353 -0.054283034 0.035785433 0.025154795 0.029082622 -0.048532587 -0.026295694 -0.13675784
-0.012786187 0.1096878 -0.09554054 -0.001857058 0.12042639 -0.024485352 0.041023463 -0.111659005
0.04832619 -0.0472601 0.07705372 0.023151351 0.042712934 -0.13639057 -0.04573405 0.0025589953
-0.115318164 0.025771122 0.004887614 -0.11140602 0.11040006 0.056954812 0.062353306 -0.033071432
0.047221724 -0.09671431 0.11323603 -0.0834837 0.06354939 -0.08937683 0.080636 -0.0726486
-0.012441424 -0.1410252 0.047048546 0.029881192 -0.07810495 0.11302265 0.085113764 -0.088062756
0.070914365 0.07068856 -0.07111684 0.030477436 -0.08460091 -0.026879048 0.041982345 0.057857998
0.038531136 0.054166824 -0.018484054 0.118549526 -0.14530817 -0.05441809 0.07990413 -0.12909257

st_gcns.0.gcn.conv.bias f4 [64]
00000000: 0268 c73c 194c e43c 21e2 acbd ce29 89bc
00000010: de3b cdbc d1ec b03d 5e2f 953d 4cd7 d4bd
00000020: 690a 103c a969 303d e63d 15bc 0c8d 9a3c
00000030: 005c bb3d 54b9 9bbc 46e1 b33d 4f56 bb3c
00000040: f765 d63c af00 af3d f1a7 483e 2d53 363c
00000050: 3d47 debd 8338 453e 2b86 bd3c 5170 a03b
00000060: c29e 343d 33ca acbd dd74 2ebc 444f 773c
00000070: 2a93 f73d ad5c e53c 629c a53d 59bf a8bd
00000080: eef2 333d dc8e 9d3c babc 5bbd e50b 32bd
00000090: 03cf f73c 01ef 1abd 69bb e8bc 00f4 783d
000000a0: f0a9 8e3c a4d6 d93d 4358 e0bd e3ff 4ebc
000000b0: 1659 553d c4fe 8a3d 91cf c6bd da10 313e
000000c0: 6367 29be e356 0f3e 5d37 c33d a419 b73d
000000d0: 40e4 9d3d 345a c83d b4f9 aebd b206 533d
000000e0: 4b73 943d 78ae ad3c 7d78 dfbd 915f 573d
000000f0: edd0 943d 3e81 15be ad68 543d b617 9cbd
0.024341587 0.027868317 -0.08441568 -0.016743567 -0.025052961 0.08638919 0.07284425 -0.10392627
0.0087915445 0.043069515 -0.009108996 0.018866085 0.09148407 -0.01900927 0.08783202 0.022868304
0.026171668 0.08545052 0.19595315 0.011128229 -0.108534314 0.19259839 0.023135265 0.0048962017
0.044096716 -0.08437004 -0.01064798 0.015094582 0.12088616 0.027998293 0.08086468 -0.08239622
0.043932848 0.01923316 -0.05364678 -0.043468375 0.030250078 -0.037825588 -0.028409677 0.06077957
0.017415017 0.106366426 -0.109543346 -0.01263425 0.052086912 0.06786874 -0.09707559 0.17291585
-0.16543345 0.13997988 0.09532044 0.089404374 0.07709551 0.0978283 -0.08543721 0.051520057
0.07248553 0.021201357 -0.10911653 0.052581374 0.07266412 -0.14600083 0.05185764 -0.0762171
